


2022-01-18 00:37:52.398754

EfficientNet-B3, {'num_labels': 8, 'width_coefficient': 1.2, 'depth_coefficient': 1.4, 'dropout_rate': 0.3}, resolution: 300, 100008 Ronchigrams, batch size: 16, number of epochs: 1

EfficientNet(
  (stem): Sequential(
    (0): Conv2d(1, 40, kernel_size=(3, 3), stride=(2, 2), padding=(1, 1), bias=False)
    (1): BatchNorm2d(40, eps=0.001, momentum=0.01, affine=True, track_running_stats=True)
    (2): Swish()
  )
  (blocks): Sequential(
    (MBConv1_0): MBConv(
      (depthwise_conv): Sequential(
        (0): Conv2d(40, 40, kernel_size=(3, 3), stride=(1, 1), padding=(1, 1), groups=40, bias=False)
        (1): BatchNorm2d(40, eps=0.001, momentum=0.01, affine=True, track_running_stats=True)
        (2): Swish()
      )
      (squeeze_excitation): SqueezeExcitation(
        (reduce_expand): Sequential(
          (0): Conv2d(40, 10, kernel_size=(1, 1), stride=(1, 1))
          (1): Swish()
          (2): Conv2d(10, 40, kernel_size=(1, 1), stride=(1, 1))
          (3): Sigmoid()
        )
      )
      (project_conv): Sequential(
        (0): Conv2d(40, 24, kernel_size=(1, 1), stride=(1, 1), bias=False)
        (1): BatchNorm2d(24, eps=0.001, momentum=0.01, affine=True, track_running_stats=True)
      )
    )
    (MBConv1_1): MBConv(
      (depthwise_conv): Sequential(
        (0): Conv2d(24, 24, kernel_size=(3, 3), stride=(1, 1), padding=(1, 1), groups=24, bias=False)
        (1): BatchNorm2d(24, eps=0.001, momentum=0.01, affine=True, track_running_stats=True)
        (2): Swish()
      )
      (squeeze_excitation): SqueezeExcitation(
        (reduce_expand): Sequential(
          (0): Conv2d(24, 6, kernel_size=(1, 1), stride=(1, 1))
          (1): Swish()
          (2): Conv2d(6, 24, kernel_size=(1, 1), stride=(1, 1))
          (3): Sigmoid()
        )
      )
      (project_conv): Sequential(
        (0): Conv2d(24, 24, kernel_size=(1, 1), stride=(1, 1), bias=False)
        (1): BatchNorm2d(24, eps=0.001, momentum=0.01, affine=True, track_running_stats=True)
      )
    )
    (MBConv6_2): MBConv(
      (expansion_conv): Sequential(
        (0): Conv2d(24, 144, kernel_size=(1, 1), stride=(1, 1), bias=False)
        (1): BatchNorm2d(144, eps=0.001, momentum=0.01, affine=True, track_running_stats=True)
        (2): Swish()
      )
      (depthwise_conv): Sequential(
        (0): Conv2d(144, 144, kernel_size=(3, 3), stride=(2, 2), padding=(1, 1), groups=144, bias=False)
        (1): BatchNorm2d(144, eps=0.001, momentum=0.01, affine=True, track_running_stats=True)
        (2): Swish()
      )
      (squeeze_excitation): SqueezeExcitation(
        (reduce_expand): Sequential(
          (0): Conv2d(144, 6, kernel_size=(1, 1), stride=(1, 1))
          (1): Swish()
          (2): Conv2d(6, 144, kernel_size=(1, 1), stride=(1, 1))
          (3): Sigmoid()
        )
      )
      (project_conv): Sequential(
        (0): Conv2d(144, 32, kernel_size=(1, 1), stride=(1, 1), bias=False)
        (1): BatchNorm2d(32, eps=0.001, momentum=0.01, affine=True, track_running_stats=True)
      )
    )
    (MBConv6_3): MBConv(
      (expansion_conv): Sequential(
        (0): Conv2d(32, 192, kernel_size=(1, 1), stride=(1, 1), bias=False)
        (1): BatchNorm2d(192, eps=0.001, momentum=0.01, affine=True, track_running_stats=True)
        (2): Swish()
      )
      (depthwise_conv): Sequential(
        (0): Conv2d(192, 192, kernel_size=(3, 3), stride=(1, 1), padding=(1, 1), groups=192, bias=False)
        (1): BatchNorm2d(192, eps=0.001, momentum=0.01, affine=True, track_running_stats=True)
        (2): Swish()
      )
      (squeeze_excitation): SqueezeExcitation(
        (reduce_expand): Sequential(
          (0): Conv2d(192, 8, kernel_size=(1, 1), stride=(1, 1))
          (1): Swish()
          (2): Conv2d(8, 192, kernel_size=(1, 1), stride=(1, 1))
          (3): Sigmoid()
        )
      )
      (project_conv): Sequential(
        (0): Conv2d(192, 32, kernel_size=(1, 1), stride=(1, 1), bias=False)
        (1): BatchNorm2d(32, eps=0.001, momentum=0.01, affine=True, track_running_stats=True)
      )
    )
    (MBConv6_4): MBConv(
      (expansion_conv): Sequential(
        (0): Conv2d(32, 192, kernel_size=(1, 1), stride=(1, 1), bias=False)
        (1): BatchNorm2d(192, eps=0.001, momentum=0.01, affine=True, track_running_stats=True)
        (2): Swish()
      )
      (depthwise_conv): Sequential(
        (0): Conv2d(192, 192, kernel_size=(3, 3), stride=(1, 1), padding=(1, 1), groups=192, bias=False)
        (1): BatchNorm2d(192, eps=0.001, momentum=0.01, affine=True, track_running_stats=True)
        (2): Swish()
      )
      (squeeze_excitation): SqueezeExcitation(
        (reduce_expand): Sequential(
          (0): Conv2d(192, 8, kernel_size=(1, 1), stride=(1, 1))
          (1): Swish()
          (2): Conv2d(8, 192, kernel_size=(1, 1), stride=(1, 1))
          (3): Sigmoid()
        )
      )
      (project_conv): Sequential(
        (0): Conv2d(192, 32, kernel_size=(1, 1), stride=(1, 1), bias=False)
        (1): BatchNorm2d(32, eps=0.001, momentum=0.01, affine=True, track_running_stats=True)
      )
    )
    (MBConv6_5): MBConv(
      (expansion_conv): Sequential(
        (0): Conv2d(32, 192, kernel_size=(1, 1), stride=(1, 1), bias=False)
        (1): BatchNorm2d(192, eps=0.001, momentum=0.01, affine=True, track_running_stats=True)
        (2): Swish()
      )
      (depthwise_conv): Sequential(
        (0): Conv2d(192, 192, kernel_size=(5, 5), stride=(2, 2), padding=(2, 2), groups=192, bias=False)
        (1): BatchNorm2d(192, eps=0.001, momentum=0.01, affine=True, track_running_stats=True)
        (2): Swish()
      )
      (squeeze_excitation): SqueezeExcitation(
        (reduce_expand): Sequential(
          (0): Conv2d(192, 8, kernel_size=(1, 1), stride=(1, 1))
          (1): Swish()
          (2): Conv2d(8, 192, kernel_size=(1, 1), stride=(1, 1))
          (3): Sigmoid()
        )
      )
      (project_conv): Sequential(
        (0): Conv2d(192, 48, kernel_size=(1, 1), stride=(1, 1), bias=False)
        (1): BatchNorm2d(48, eps=0.001, momentum=0.01, affine=True, track_running_stats=True)
      )
    )
    (MBConv6_6): MBConv(
      (expansion_conv): Sequential(
        (0): Conv2d(48, 288, kernel_size=(1, 1), stride=(1, 1), bias=False)
        (1): BatchNorm2d(288, eps=0.001, momentum=0.01, affine=True, track_running_stats=True)
        (2): Swish()
      )
      (depthwise_conv): Sequential(
        (0): Conv2d(288, 288, kernel_size=(5, 5), stride=(1, 1), padding=(2, 2), groups=288, bias=False)
        (1): BatchNorm2d(288, eps=0.001, momentum=0.01, affine=True, track_running_stats=True)
        (2): Swish()
      )
      (squeeze_excitation): SqueezeExcitation(
        (reduce_expand): Sequential(
          (0): Conv2d(288, 12, kernel_size=(1, 1), stride=(1, 1))
          (1): Swish()
          (2): Conv2d(12, 288, kernel_size=(1, 1), stride=(1, 1))
          (3): Sigmoid()
        )
      )
      (project_conv): Sequential(
        (0): Conv2d(288, 48, kernel_size=(1, 1), stride=(1, 1), bias=False)
        (1): BatchNorm2d(48, eps=0.001, momentum=0.01, affine=True, track_running_stats=True)
      )
    )
    (MBConv6_7): MBConv(
      (expansion_conv): Sequential(
        (0): Conv2d(48, 288, kernel_size=(1, 1), stride=(1, 1), bias=False)
        (1): BatchNorm2d(288, eps=0.001, momentum=0.01, affine=True, track_running_stats=True)
        (2): Swish()
      )
      (depthwise_conv): Sequential(
        (0): Conv2d(288, 288, kernel_size=(5, 5), stride=(1, 1), padding=(2, 2), groups=288, bias=False)
        (1): BatchNorm2d(288, eps=0.001, momentum=0.01, affine=True, track_running_stats=True)
        (2): Swish()
      )
      (squeeze_excitation): SqueezeExcitation(
        (reduce_expand): Sequential(
          (0): Conv2d(288, 12, kernel_size=(1, 1), stride=(1, 1))
          (1): Swish()
          (2): Conv2d(12, 288, kernel_size=(1, 1), stride=(1, 1))
          (3): Sigmoid()
        )
      )
      (project_conv): Sequential(
        (0): Conv2d(288, 48, kernel_size=(1, 1), stride=(1, 1), bias=False)
        (1): BatchNorm2d(48, eps=0.001, momentum=0.01, affine=True, track_running_stats=True)
      )
    )
    (MBConv6_8): MBConv(
      (expansion_conv): Sequential(
        (0): Conv2d(48, 288, kernel_size=(1, 1), stride=(1, 1), bias=False)
        (1): BatchNorm2d(288, eps=0.001, momentum=0.01, affine=True, track_running_stats=True)
        (2): Swish()
      )
      (depthwise_conv): Sequential(
        (0): Conv2d(288, 288, kernel_size=(3, 3), stride=(2, 2), padding=(1, 1), groups=288, bias=False)
        (1): BatchNorm2d(288, eps=0.001, momentum=0.01, affine=True, track_running_stats=True)
        (2): Swish()
      )
      (squeeze_excitation): SqueezeExcitation(
        (reduce_expand): Sequential(
          (0): Conv2d(288, 12, kernel_size=(1, 1), stride=(1, 1))
          (1): Swish()
          (2): Conv2d(12, 288, kernel_size=(1, 1), stride=(1, 1))
          (3): Sigmoid()
        )
      )
      (project_conv): Sequential(
        (0): Conv2d(288, 96, kernel_size=(1, 1), stride=(1, 1), bias=False)
        (1): BatchNorm2d(96, eps=0.001, momentum=0.01, affine=True, track_running_stats=True)
      )
    )
    (MBConv6_9): MBConv(
      (expansion_conv): Sequential(
        (0): Conv2d(96, 576, kernel_size=(1, 1), stride=(1, 1), bias=False)
        (1): BatchNorm2d(576, eps=0.001, momentum=0.01, affine=True, track_running_stats=True)
        (2): Swish()
      )
      (depthwise_conv): Sequential(
        (0): Conv2d(576, 576, kernel_size=(3, 3), stride=(1, 1), padding=(1, 1), groups=576, bias=False)
        (1): BatchNorm2d(576, eps=0.001, momentum=0.01, affine=True, track_running_stats=True)
        (2): Swish()
      )
      (squeeze_excitation): SqueezeExcitation(
        (reduce_expand): Sequential(
          (0): Conv2d(576, 24, kernel_size=(1, 1), stride=(1, 1))
          (1): Swish()
          (2): Conv2d(24, 576, kernel_size=(1, 1), stride=(1, 1))
          (3): Sigmoid()
        )
      )
      (project_conv): Sequential(
        (0): Conv2d(576, 96, kernel_size=(1, 1), stride=(1, 1), bias=False)
        (1): BatchNorm2d(96, eps=0.001, momentum=0.01, affine=True, track_running_stats=True)
      )
    )
    (MBConv6_10): MBConv(
      (expansion_conv): Sequential(
        (0): Conv2d(96, 576, kernel_size=(1, 1), stride=(1, 1), bias=False)
        (1): BatchNorm2d(576, eps=0.001, momentum=0.01, affine=True, track_running_stats=True)
        (2): Swish()
      )
      (depthwise_conv): Sequential(
        (0): Conv2d(576, 576, kernel_size=(3, 3), stride=(1, 1), padding=(1, 1), groups=576, bias=False)
        (1): BatchNorm2d(576, eps=0.001, momentum=0.01, affine=True, track_running_stats=True)
        (2): Swish()
      )
      (squeeze_excitation): SqueezeExcitation(
        (reduce_expand): Sequential(
          (0): Conv2d(576, 24, kernel_size=(1, 1), stride=(1, 1))
          (1): Swish()
          (2): Conv2d(24, 576, kernel_size=(1, 1), stride=(1, 1))
          (3): Sigmoid()
        )
      )
      (project_conv): Sequential(
        (0): Conv2d(576, 96, kernel_size=(1, 1), stride=(1, 1), bias=False)
        (1): BatchNorm2d(96, eps=0.001, momentum=0.01, affine=True, track_running_stats=True)
      )
    )
    (MBConv6_11): MBConv(
      (expansion_conv): Sequential(
        (0): Conv2d(96, 576, kernel_size=(1, 1), stride=(1, 1), bias=False)
        (1): BatchNorm2d(576, eps=0.001, momentum=0.01, affine=True, track_running_stats=True)
        (2): Swish()
      )
      (depthwise_conv): Sequential(
        (0): Conv2d(576, 576, kernel_size=(3, 3), stride=(1, 1), padding=(1, 1), groups=576, bias=False)
        (1): BatchNorm2d(576, eps=0.001, momentum=0.01, affine=True, track_running_stats=True)
        (2): Swish()
      )
      (squeeze_excitation): SqueezeExcitation(
        (reduce_expand): Sequential(
          (0): Conv2d(576, 24, kernel_size=(1, 1), stride=(1, 1))
          (1): Swish()
          (2): Conv2d(24, 576, kernel_size=(1, 1), stride=(1, 1))
          (3): Sigmoid()
        )
      )
      (project_conv): Sequential(
        (0): Conv2d(576, 96, kernel_size=(1, 1), stride=(1, 1), bias=False)
        (1): BatchNorm2d(96, eps=0.001, momentum=0.01, affine=True, track_running_stats=True)
      )
    )
    (MBConv6_12): MBConv(
      (expansion_conv): Sequential(
        (0): Conv2d(96, 576, kernel_size=(1, 1), stride=(1, 1), bias=False)
        (1): BatchNorm2d(576, eps=0.001, momentum=0.01, affine=True, track_running_stats=True)
        (2): Swish()
      )
      (depthwise_conv): Sequential(
        (0): Conv2d(576, 576, kernel_size=(3, 3), stride=(1, 1), padding=(1, 1), groups=576, bias=False)
        (1): BatchNorm2d(576, eps=0.001, momentum=0.01, affine=True, track_running_stats=True)
        (2): Swish()
      )
      (squeeze_excitation): SqueezeExcitation(
        (reduce_expand): Sequential(
          (0): Conv2d(576, 24, kernel_size=(1, 1), stride=(1, 1))
          (1): Swish()
          (2): Conv2d(24, 576, kernel_size=(1, 1), stride=(1, 1))
          (3): Sigmoid()
        )
      )
      (project_conv): Sequential(
        (0): Conv2d(576, 96, kernel_size=(1, 1), stride=(1, 1), bias=False)
        (1): BatchNorm2d(96, eps=0.001, momentum=0.01, affine=True, track_running_stats=True)
      )
    )
    (MBConv6_13): MBConv(
      (expansion_conv): Sequential(
        (0): Conv2d(96, 576, kernel_size=(1, 1), stride=(1, 1), bias=False)
        (1): BatchNorm2d(576, eps=0.001, momentum=0.01, affine=True, track_running_stats=True)
        (2): Swish()
      )
      (depthwise_conv): Sequential(
        (0): Conv2d(576, 576, kernel_size=(5, 5), stride=(1, 1), padding=(2, 2), groups=576, bias=False)
        (1): BatchNorm2d(576, eps=0.001, momentum=0.01, affine=True, track_running_stats=True)
        (2): Swish()
      )
      (squeeze_excitation): SqueezeExcitation(
        (reduce_expand): Sequential(
          (0): Conv2d(576, 24, kernel_size=(1, 1), stride=(1, 1))
          (1): Swish()
          (2): Conv2d(24, 576, kernel_size=(1, 1), stride=(1, 1))
          (3): Sigmoid()
        )
      )
      (project_conv): Sequential(
        (0): Conv2d(576, 136, kernel_size=(1, 1), stride=(1, 1), bias=False)
        (1): BatchNorm2d(136, eps=0.001, momentum=0.01, affine=True, track_running_stats=True)
      )
    )
    (MBConv6_14): MBConv(
      (expansion_conv): Sequential(
        (0): Conv2d(136, 816, kernel_size=(1, 1), stride=(1, 1), bias=False)
        (1): BatchNorm2d(816, eps=0.001, momentum=0.01, affine=True, track_running_stats=True)
        (2): Swish()
      )
      (depthwise_conv): Sequential(
        (0): Conv2d(816, 816, kernel_size=(5, 5), stride=(1, 1), padding=(2, 2), groups=816, bias=False)
        (1): BatchNorm2d(816, eps=0.001, momentum=0.01, affine=True, track_running_stats=True)
        (2): Swish()
      )
      (squeeze_excitation): SqueezeExcitation(
        (reduce_expand): Sequential(
          (0): Conv2d(816, 34, kernel_size=(1, 1), stride=(1, 1))
          (1): Swish()
          (2): Conv2d(34, 816, kernel_size=(1, 1), stride=(1, 1))
          (3): Sigmoid()
        )
      )
      (project_conv): Sequential(
        (0): Conv2d(816, 136, kernel_size=(1, 1), stride=(1, 1), bias=False)
        (1): BatchNorm2d(136, eps=0.001, momentum=0.01, affine=True, track_running_stats=True)
      )
    )
    (MBConv6_15): MBConv(
      (expansion_conv): Sequential(
        (0): Conv2d(136, 816, kernel_size=(1, 1), stride=(1, 1), bias=False)
        (1): BatchNorm2d(816, eps=0.001, momentum=0.01, affine=True, track_running_stats=True)
        (2): Swish()
      )
      (depthwise_conv): Sequential(
        (0): Conv2d(816, 816, kernel_size=(5, 5), stride=(1, 1), padding=(2, 2), groups=816, bias=False)
        (1): BatchNorm2d(816, eps=0.001, momentum=0.01, affine=True, track_running_stats=True)
        (2): Swish()
      )
      (squeeze_excitation): SqueezeExcitation(
        (reduce_expand): Sequential(
          (0): Conv2d(816, 34, kernel_size=(1, 1), stride=(1, 1))
          (1): Swish()
          (2): Conv2d(34, 816, kernel_size=(1, 1), stride=(1, 1))
          (3): Sigmoid()
        )
      )
      (project_conv): Sequential(
        (0): Conv2d(816, 136, kernel_size=(1, 1), stride=(1, 1), bias=False)
        (1): BatchNorm2d(136, eps=0.001, momentum=0.01, affine=True, track_running_stats=True)
      )
    )
    (MBConv6_16): MBConv(
      (expansion_conv): Sequential(
        (0): Conv2d(136, 816, kernel_size=(1, 1), stride=(1, 1), bias=False)
        (1): BatchNorm2d(816, eps=0.001, momentum=0.01, affine=True, track_running_stats=True)
        (2): Swish()
      )
      (depthwise_conv): Sequential(
        (0): Conv2d(816, 816, kernel_size=(5, 5), stride=(1, 1), padding=(2, 2), groups=816, bias=False)
        (1): BatchNorm2d(816, eps=0.001, momentum=0.01, affine=True, track_running_stats=True)
        (2): Swish()
      )
      (squeeze_excitation): SqueezeExcitation(
        (reduce_expand): Sequential(
          (0): Conv2d(816, 34, kernel_size=(1, 1), stride=(1, 1))
          (1): Swish()
          (2): Conv2d(34, 816, kernel_size=(1, 1), stride=(1, 1))
          (3): Sigmoid()
        )
      )
      (project_conv): Sequential(
        (0): Conv2d(816, 136, kernel_size=(1, 1), stride=(1, 1), bias=False)
        (1): BatchNorm2d(136, eps=0.001, momentum=0.01, affine=True, track_running_stats=True)
      )
    )
    (MBConv6_17): MBConv(
      (expansion_conv): Sequential(
        (0): Conv2d(136, 816, kernel_size=(1, 1), stride=(1, 1), bias=False)
        (1): BatchNorm2d(816, eps=0.001, momentum=0.01, affine=True, track_running_stats=True)
        (2): Swish()
      )
      (depthwise_conv): Sequential(
        (0): Conv2d(816, 816, kernel_size=(5, 5), stride=(1, 1), padding=(2, 2), groups=816, bias=False)
        (1): BatchNorm2d(816, eps=0.001, momentum=0.01, affine=True, track_running_stats=True)
        (2): Swish()
      )
      (squeeze_excitation): SqueezeExcitation(
        (reduce_expand): Sequential(
          (0): Conv2d(816, 34, kernel_size=(1, 1), stride=(1, 1))
          (1): Swish()
          (2): Conv2d(34, 816, kernel_size=(1, 1), stride=(1, 1))
          (3): Sigmoid()
        )
      )
      (project_conv): Sequential(
        (0): Conv2d(816, 136, kernel_size=(1, 1), stride=(1, 1), bias=False)
        (1): BatchNorm2d(136, eps=0.001, momentum=0.01, affine=True, track_running_stats=True)
      )
    )
    (MBConv6_18): MBConv(
      (expansion_conv): Sequential(
        (0): Conv2d(136, 816, kernel_size=(1, 1), stride=(1, 1), bias=False)
        (1): BatchNorm2d(816, eps=0.001, momentum=0.01, affine=True, track_running_stats=True)
        (2): Swish()
      )
      (depthwise_conv): Sequential(
        (0): Conv2d(816, 816, kernel_size=(5, 5), stride=(2, 2), padding=(2, 2), groups=816, bias=False)
        (1): BatchNorm2d(816, eps=0.001, momentum=0.01, affine=True, track_running_stats=True)
        (2): Swish()
      )
      (squeeze_excitation): SqueezeExcitation(
        (reduce_expand): Sequential(
          (0): Conv2d(816, 34, kernel_size=(1, 1), stride=(1, 1))
          (1): Swish()
          (2): Conv2d(34, 816, kernel_size=(1, 1), stride=(1, 1))
          (3): Sigmoid()
        )
      )
      (project_conv): Sequential(
        (0): Conv2d(816, 232, kernel_size=(1, 1), stride=(1, 1), bias=False)
        (1): BatchNorm2d(232, eps=0.001, momentum=0.01, affine=True, track_running_stats=True)
      )
    )
    (MBConv6_19): MBConv(
      (expansion_conv): Sequential(
        (0): Conv2d(232, 1392, kernel_size=(1, 1), stride=(1, 1), bias=False)
        (1): BatchNorm2d(1392, eps=0.001, momentum=0.01, affine=True, track_running_stats=True)
        (2): Swish()
      )
      (depthwise_conv): Sequential(
        (0): Conv2d(1392, 1392, kernel_size=(5, 5), stride=(1, 1), padding=(2, 2), groups=1392, bias=False)
        (1): BatchNorm2d(1392, eps=0.001, momentum=0.01, affine=True, track_running_stats=True)
        (2): Swish()
      )
      (squeeze_excitation): SqueezeExcitation(
        (reduce_expand): Sequential(
          (0): Conv2d(1392, 58, kernel_size=(1, 1), stride=(1, 1))
          (1): Swish()
          (2): Conv2d(58, 1392, kernel_size=(1, 1), stride=(1, 1))
          (3): Sigmoid()
        )
      )
      (project_conv): Sequential(
        (0): Conv2d(1392, 232, kernel_size=(1, 1), stride=(1, 1), bias=False)
        (1): BatchNorm2d(232, eps=0.001, momentum=0.01, affine=True, track_running_stats=True)
      )
    )
    (MBConv6_20): MBConv(
      (expansion_conv): Sequential(
        (0): Conv2d(232, 1392, kernel_size=(1, 1), stride=(1, 1), bias=False)
        (1): BatchNorm2d(1392, eps=0.001, momentum=0.01, affine=True, track_running_stats=True)
        (2): Swish()
      )
      (depthwise_conv): Sequential(
        (0): Conv2d(1392, 1392, kernel_size=(5, 5), stride=(1, 1), padding=(2, 2), groups=1392, bias=False)
        (1): BatchNorm2d(1392, eps=0.001, momentum=0.01, affine=True, track_running_stats=True)
        (2): Swish()
      )
      (squeeze_excitation): SqueezeExcitation(
        (reduce_expand): Sequential(
          (0): Conv2d(1392, 58, kernel_size=(1, 1), stride=(1, 1))
          (1): Swish()
          (2): Conv2d(58, 1392, kernel_size=(1, 1), stride=(1, 1))
          (3): Sigmoid()
        )
      )
      (project_conv): Sequential(
        (0): Conv2d(1392, 232, kernel_size=(1, 1), stride=(1, 1), bias=False)
        (1): BatchNorm2d(232, eps=0.001, momentum=0.01, affine=True, track_running_stats=True)
      )
    )
    (MBConv6_21): MBConv(
      (expansion_conv): Sequential(
        (0): Conv2d(232, 1392, kernel_size=(1, 1), stride=(1, 1), bias=False)
        (1): BatchNorm2d(1392, eps=0.001, momentum=0.01, affine=True, track_running_stats=True)
        (2): Swish()
      )
      (depthwise_conv): Sequential(
        (0): Conv2d(1392, 1392, kernel_size=(5, 5), stride=(1, 1), padding=(2, 2), groups=1392, bias=False)
        (1): BatchNorm2d(1392, eps=0.001, momentum=0.01, affine=True, track_running_stats=True)
        (2): Swish()
      )
      (squeeze_excitation): SqueezeExcitation(
        (reduce_expand): Sequential(
          (0): Conv2d(1392, 58, kernel_size=(1, 1), stride=(1, 1))
          (1): Swish()
          (2): Conv2d(58, 1392, kernel_size=(1, 1), stride=(1, 1))
          (3): Sigmoid()
        )
      )
      (project_conv): Sequential(
        (0): Conv2d(1392, 232, kernel_size=(1, 1), stride=(1, 1), bias=False)
        (1): BatchNorm2d(232, eps=0.001, momentum=0.01, affine=True, track_running_stats=True)
      )
    )
    (MBConv6_22): MBConv(
      (expansion_conv): Sequential(
        (0): Conv2d(232, 1392, kernel_size=(1, 1), stride=(1, 1), bias=False)
        (1): BatchNorm2d(1392, eps=0.001, momentum=0.01, affine=True, track_running_stats=True)
        (2): Swish()
      )
      (depthwise_conv): Sequential(
        (0): Conv2d(1392, 1392, kernel_size=(5, 5), stride=(1, 1), padding=(2, 2), groups=1392, bias=False)
        (1): BatchNorm2d(1392, eps=0.001, momentum=0.01, affine=True, track_running_stats=True)
        (2): Swish()
      )
      (squeeze_excitation): SqueezeExcitation(
        (reduce_expand): Sequential(
          (0): Conv2d(1392, 58, kernel_size=(1, 1), stride=(1, 1))
          (1): Swish()
          (2): Conv2d(58, 1392, kernel_size=(1, 1), stride=(1, 1))
          (3): Sigmoid()
        )
      )
      (project_conv): Sequential(
        (0): Conv2d(1392, 232, kernel_size=(1, 1), stride=(1, 1), bias=False)
        (1): BatchNorm2d(232, eps=0.001, momentum=0.01, affine=True, track_running_stats=True)
      )
    )
    (MBConv6_23): MBConv(
      (expansion_conv): Sequential(
        (0): Conv2d(232, 1392, kernel_size=(1, 1), stride=(1, 1), bias=False)
        (1): BatchNorm2d(1392, eps=0.001, momentum=0.01, affine=True, track_running_stats=True)
        (2): Swish()
      )
      (depthwise_conv): Sequential(
        (0): Conv2d(1392, 1392, kernel_size=(5, 5), stride=(1, 1), padding=(2, 2), groups=1392, bias=False)
        (1): BatchNorm2d(1392, eps=0.001, momentum=0.01, affine=True, track_running_stats=True)
        (2): Swish()
      )
      (squeeze_excitation): SqueezeExcitation(
        (reduce_expand): Sequential(
          (0): Conv2d(1392, 58, kernel_size=(1, 1), stride=(1, 1))
          (1): Swish()
          (2): Conv2d(58, 1392, kernel_size=(1, 1), stride=(1, 1))
          (3): Sigmoid()
        )
      )
      (project_conv): Sequential(
        (0): Conv2d(1392, 232, kernel_size=(1, 1), stride=(1, 1), bias=False)
        (1): BatchNorm2d(232, eps=0.001, momentum=0.01, affine=True, track_running_stats=True)
      )
    )
    (MBConv6_24): MBConv(
      (expansion_conv): Sequential(
        (0): Conv2d(232, 1392, kernel_size=(1, 1), stride=(1, 1), bias=False)
        (1): BatchNorm2d(1392, eps=0.001, momentum=0.01, affine=True, track_running_stats=True)
        (2): Swish()
      )
      (depthwise_conv): Sequential(
        (0): Conv2d(1392, 1392, kernel_size=(3, 3), stride=(1, 1), padding=(1, 1), groups=1392, bias=False)
        (1): BatchNorm2d(1392, eps=0.001, momentum=0.01, affine=True, track_running_stats=True)
        (2): Swish()
      )
      (squeeze_excitation): SqueezeExcitation(
        (reduce_expand): Sequential(
          (0): Conv2d(1392, 58, kernel_size=(1, 1), stride=(1, 1))
          (1): Swish()
          (2): Conv2d(58, 1392, kernel_size=(1, 1), stride=(1, 1))
          (3): Sigmoid()
        )
      )
      (project_conv): Sequential(
        (0): Conv2d(1392, 384, kernel_size=(1, 1), stride=(1, 1), bias=False)
        (1): BatchNorm2d(384, eps=0.001, momentum=0.01, affine=True, track_running_stats=True)
      )
    )
    (MBConv6_25): MBConv(
      (expansion_conv): Sequential(
        (0): Conv2d(384, 2304, kernel_size=(1, 1), stride=(1, 1), bias=False)
        (1): BatchNorm2d(2304, eps=0.001, momentum=0.01, affine=True, track_running_stats=True)
        (2): Swish()
      )
      (depthwise_conv): Sequential(
        (0): Conv2d(2304, 2304, kernel_size=(3, 3), stride=(1, 1), padding=(1, 1), groups=2304, bias=False)
        (1): BatchNorm2d(2304, eps=0.001, momentum=0.01, affine=True, track_running_stats=True)
        (2): Swish()
      )
      (squeeze_excitation): SqueezeExcitation(
        (reduce_expand): Sequential(
          (0): Conv2d(2304, 96, kernel_size=(1, 1), stride=(1, 1))
          (1): Swish()
          (2): Conv2d(96, 2304, kernel_size=(1, 1), stride=(1, 1))
          (3): Sigmoid()
        )
      )
      (project_conv): Sequential(
        (0): Conv2d(2304, 384, kernel_size=(1, 1), stride=(1, 1), bias=False)
        (1): BatchNorm2d(384, eps=0.001, momentum=0.01, affine=True, track_running_stats=True)
      )
    )
  )
  (head): Sequential(
    (0): Conv2d(384, 1536, kernel_size=(1, 1), stride=(1, 1), bias=False)
    (1): BatchNorm2d(1536, eps=0.001, momentum=0.01, affine=True, track_running_stats=True)
    (2): Swish()
    (3): AdaptiveAvgPool2d(output_size=1)
    (4): Flatten()
    (5): Dropout(p=0.3, inplace=False)
    (6): Linear(in_features=1536, out_features=8, bias=True)
  )
)


2022-01-18 00:40:31.349625

EfficientNet-B3, {'num_labels': 8, 'width_coefficient': 1.2, 'depth_coefficient': 1.4, 'dropout_rate': 0.3}, resolution: 300, 100008 Ronchigrams, batch size: 16, number of epochs: 2

EfficientNet(
  (stem): Sequential(
    (0): Conv2d(1, 40, kernel_size=(3, 3), stride=(2, 2), padding=(1, 1), bias=False)
    (1): BatchNorm2d(40, eps=0.001, momentum=0.01, affine=True, track_running_stats=True)
    (2): Swish()
  )
  (blocks): Sequential(
    (MBConv1_0): MBConv(
      (depthwise_conv): Sequential(
        (0): Conv2d(40, 40, kernel_size=(3, 3), stride=(1, 1), padding=(1, 1), groups=40, bias=False)
        (1): BatchNorm2d(40, eps=0.001, momentum=0.01, affine=True, track_running_stats=True)
        (2): Swish()
      )
      (squeeze_excitation): SqueezeExcitation(
        (reduce_expand): Sequential(
          (0): Conv2d(40, 10, kernel_size=(1, 1), stride=(1, 1))
          (1): Swish()
          (2): Conv2d(10, 40, kernel_size=(1, 1), stride=(1, 1))
          (3): Sigmoid()
        )
      )
      (project_conv): Sequential(
        (0): Conv2d(40, 24, kernel_size=(1, 1), stride=(1, 1), bias=False)
        (1): BatchNorm2d(24, eps=0.001, momentum=0.01, affine=True, track_running_stats=True)
      )
    )
    (MBConv1_1): MBConv(
      (depthwise_conv): Sequential(
        (0): Conv2d(24, 24, kernel_size=(3, 3), stride=(1, 1), padding=(1, 1), groups=24, bias=False)
        (1): BatchNorm2d(24, eps=0.001, momentum=0.01, affine=True, track_running_stats=True)
        (2): Swish()
      )
      (squeeze_excitation): SqueezeExcitation(
        (reduce_expand): Sequential(
          (0): Conv2d(24, 6, kernel_size=(1, 1), stride=(1, 1))
          (1): Swish()
          (2): Conv2d(6, 24, kernel_size=(1, 1), stride=(1, 1))
          (3): Sigmoid()
        )
      )
      (project_conv): Sequential(
        (0): Conv2d(24, 24, kernel_size=(1, 1), stride=(1, 1), bias=False)
        (1): BatchNorm2d(24, eps=0.001, momentum=0.01, affine=True, track_running_stats=True)
      )
    )
    (MBConv6_2): MBConv(
      (expansion_conv): Sequential(
        (0): Conv2d(24, 144, kernel_size=(1, 1), stride=(1, 1), bias=False)
        (1): BatchNorm2d(144, eps=0.001, momentum=0.01, affine=True, track_running_stats=True)
        (2): Swish()
      )
      (depthwise_conv): Sequential(
        (0): Conv2d(144, 144, kernel_size=(3, 3), stride=(2, 2), padding=(1, 1), groups=144, bias=False)
        (1): BatchNorm2d(144, eps=0.001, momentum=0.01, affine=True, track_running_stats=True)
        (2): Swish()
      )
      (squeeze_excitation): SqueezeExcitation(
        (reduce_expand): Sequential(
          (0): Conv2d(144, 6, kernel_size=(1, 1), stride=(1, 1))
          (1): Swish()
          (2): Conv2d(6, 144, kernel_size=(1, 1), stride=(1, 1))
          (3): Sigmoid()
        )
      )
      (project_conv): Sequential(
        (0): Conv2d(144, 32, kernel_size=(1, 1), stride=(1, 1), bias=False)
        (1): BatchNorm2d(32, eps=0.001, momentum=0.01, affine=True, track_running_stats=True)
      )
    )
    (MBConv6_3): MBConv(
      (expansion_conv): Sequential(
        (0): Conv2d(32, 192, kernel_size=(1, 1), stride=(1, 1), bias=False)
        (1): BatchNorm2d(192, eps=0.001, momentum=0.01, affine=True, track_running_stats=True)
        (2): Swish()
      )
      (depthwise_conv): Sequential(
        (0): Conv2d(192, 192, kernel_size=(3, 3), stride=(1, 1), padding=(1, 1), groups=192, bias=False)
        (1): BatchNorm2d(192, eps=0.001, momentum=0.01, affine=True, track_running_stats=True)
        (2): Swish()
      )
      (squeeze_excitation): SqueezeExcitation(
        (reduce_expand): Sequential(
          (0): Conv2d(192, 8, kernel_size=(1, 1), stride=(1, 1))
          (1): Swish()
          (2): Conv2d(8, 192, kernel_size=(1, 1), stride=(1, 1))
          (3): Sigmoid()
        )
      )
      (project_conv): Sequential(
        (0): Conv2d(192, 32, kernel_size=(1, 1), stride=(1, 1), bias=False)
        (1): BatchNorm2d(32, eps=0.001, momentum=0.01, affine=True, track_running_stats=True)
      )
    )
    (MBConv6_4): MBConv(
      (expansion_conv): Sequential(
        (0): Conv2d(32, 192, kernel_size=(1, 1), stride=(1, 1), bias=False)
        (1): BatchNorm2d(192, eps=0.001, momentum=0.01, affine=True, track_running_stats=True)
        (2): Swish()
      )
      (depthwise_conv): Sequential(
        (0): Conv2d(192, 192, kernel_size=(3, 3), stride=(1, 1), padding=(1, 1), groups=192, bias=False)
        (1): BatchNorm2d(192, eps=0.001, momentum=0.01, affine=True, track_running_stats=True)
        (2): Swish()
      )
      (squeeze_excitation): SqueezeExcitation(
        (reduce_expand): Sequential(
          (0): Conv2d(192, 8, kernel_size=(1, 1), stride=(1, 1))
          (1): Swish()
          (2): Conv2d(8, 192, kernel_size=(1, 1), stride=(1, 1))
          (3): Sigmoid()
        )
      )
      (project_conv): Sequential(
        (0): Conv2d(192, 32, kernel_size=(1, 1), stride=(1, 1), bias=False)
        (1): BatchNorm2d(32, eps=0.001, momentum=0.01, affine=True, track_running_stats=True)
      )
    )
    (MBConv6_5): MBConv(
      (expansion_conv): Sequential(
        (0): Conv2d(32, 192, kernel_size=(1, 1), stride=(1, 1), bias=False)
        (1): BatchNorm2d(192, eps=0.001, momentum=0.01, affine=True, track_running_stats=True)
        (2): Swish()
      )
      (depthwise_conv): Sequential(
        (0): Conv2d(192, 192, kernel_size=(5, 5), stride=(2, 2), padding=(2, 2), groups=192, bias=False)
        (1): BatchNorm2d(192, eps=0.001, momentum=0.01, affine=True, track_running_stats=True)
        (2): Swish()
      )
      (squeeze_excitation): SqueezeExcitation(
        (reduce_expand): Sequential(
          (0): Conv2d(192, 8, kernel_size=(1, 1), stride=(1, 1))
          (1): Swish()
          (2): Conv2d(8, 192, kernel_size=(1, 1), stride=(1, 1))
          (3): Sigmoid()
        )
      )
      (project_conv): Sequential(
        (0): Conv2d(192, 48, kernel_size=(1, 1), stride=(1, 1), bias=False)
        (1): BatchNorm2d(48, eps=0.001, momentum=0.01, affine=True, track_running_stats=True)
      )
    )
    (MBConv6_6): MBConv(
      (expansion_conv): Sequential(
        (0): Conv2d(48, 288, kernel_size=(1, 1), stride=(1, 1), bias=False)
        (1): BatchNorm2d(288, eps=0.001, momentum=0.01, affine=True, track_running_stats=True)
        (2): Swish()
      )
      (depthwise_conv): Sequential(
        (0): Conv2d(288, 288, kernel_size=(5, 5), stride=(1, 1), padding=(2, 2), groups=288, bias=False)
        (1): BatchNorm2d(288, eps=0.001, momentum=0.01, affine=True, track_running_stats=True)
        (2): Swish()
      )
      (squeeze_excitation): SqueezeExcitation(
        (reduce_expand): Sequential(
          (0): Conv2d(288, 12, kernel_size=(1, 1), stride=(1, 1))
          (1): Swish()
          (2): Conv2d(12, 288, kernel_size=(1, 1), stride=(1, 1))
          (3): Sigmoid()
        )
      )
      (project_conv): Sequential(
        (0): Conv2d(288, 48, kernel_size=(1, 1), stride=(1, 1), bias=False)
        (1): BatchNorm2d(48, eps=0.001, momentum=0.01, affine=True, track_running_stats=True)
      )
    )
    (MBConv6_7): MBConv(
      (expansion_conv): Sequential(
        (0): Conv2d(48, 288, kernel_size=(1, 1), stride=(1, 1), bias=False)
        (1): BatchNorm2d(288, eps=0.001, momentum=0.01, affine=True, track_running_stats=True)
        (2): Swish()
      )
      (depthwise_conv): Sequential(
        (0): Conv2d(288, 288, kernel_size=(5, 5), stride=(1, 1), padding=(2, 2), groups=288, bias=False)
        (1): BatchNorm2d(288, eps=0.001, momentum=0.01, affine=True, track_running_stats=True)
        (2): Swish()
      )
      (squeeze_excitation): SqueezeExcitation(
        (reduce_expand): Sequential(
          (0): Conv2d(288, 12, kernel_size=(1, 1), stride=(1, 1))
          (1): Swish()
          (2): Conv2d(12, 288, kernel_size=(1, 1), stride=(1, 1))
          (3): Sigmoid()
        )
      )
      (project_conv): Sequential(
        (0): Conv2d(288, 48, kernel_size=(1, 1), stride=(1, 1), bias=False)
        (1): BatchNorm2d(48, eps=0.001, momentum=0.01, affine=True, track_running_stats=True)
      )
    )
    (MBConv6_8): MBConv(
      (expansion_conv): Sequential(
        (0): Conv2d(48, 288, kernel_size=(1, 1), stride=(1, 1), bias=False)
        (1): BatchNorm2d(288, eps=0.001, momentum=0.01, affine=True, track_running_stats=True)
        (2): Swish()
      )
      (depthwise_conv): Sequential(
        (0): Conv2d(288, 288, kernel_size=(3, 3), stride=(2, 2), padding=(1, 1), groups=288, bias=False)
        (1): BatchNorm2d(288, eps=0.001, momentum=0.01, affine=True, track_running_stats=True)
        (2): Swish()
      )
      (squeeze_excitation): SqueezeExcitation(
        (reduce_expand): Sequential(
          (0): Conv2d(288, 12, kernel_size=(1, 1), stride=(1, 1))
          (1): Swish()
          (2): Conv2d(12, 288, kernel_size=(1, 1), stride=(1, 1))
          (3): Sigmoid()
        )
      )
      (project_conv): Sequential(
        (0): Conv2d(288, 96, kernel_size=(1, 1), stride=(1, 1), bias=False)
        (1): BatchNorm2d(96, eps=0.001, momentum=0.01, affine=True, track_running_stats=True)
      )
    )
    (MBConv6_9): MBConv(
      (expansion_conv): Sequential(
        (0): Conv2d(96, 576, kernel_size=(1, 1), stride=(1, 1), bias=False)
        (1): BatchNorm2d(576, eps=0.001, momentum=0.01, affine=True, track_running_stats=True)
        (2): Swish()
      )
      (depthwise_conv): Sequential(
        (0): Conv2d(576, 576, kernel_size=(3, 3), stride=(1, 1), padding=(1, 1), groups=576, bias=False)
        (1): BatchNorm2d(576, eps=0.001, momentum=0.01, affine=True, track_running_stats=True)
        (2): Swish()
      )
      (squeeze_excitation): SqueezeExcitation(
        (reduce_expand): Sequential(
          (0): Conv2d(576, 24, kernel_size=(1, 1), stride=(1, 1))
          (1): Swish()
          (2): Conv2d(24, 576, kernel_size=(1, 1), stride=(1, 1))
          (3): Sigmoid()
        )
      )
      (project_conv): Sequential(
        (0): Conv2d(576, 96, kernel_size=(1, 1), stride=(1, 1), bias=False)
        (1): BatchNorm2d(96, eps=0.001, momentum=0.01, affine=True, track_running_stats=True)
      )
    )
    (MBConv6_10): MBConv(
      (expansion_conv): Sequential(
        (0): Conv2d(96, 576, kernel_size=(1, 1), stride=(1, 1), bias=False)
        (1): BatchNorm2d(576, eps=0.001, momentum=0.01, affine=True, track_running_stats=True)
        (2): Swish()
      )
      (depthwise_conv): Sequential(
        (0): Conv2d(576, 576, kernel_size=(3, 3), stride=(1, 1), padding=(1, 1), groups=576, bias=False)
        (1): BatchNorm2d(576, eps=0.001, momentum=0.01, affine=True, track_running_stats=True)
        (2): Swish()
      )
      (squeeze_excitation): SqueezeExcitation(
        (reduce_expand): Sequential(
          (0): Conv2d(576, 24, kernel_size=(1, 1), stride=(1, 1))
          (1): Swish()
          (2): Conv2d(24, 576, kernel_size=(1, 1), stride=(1, 1))
          (3): Sigmoid()
        )
      )
      (project_conv): Sequential(
        (0): Conv2d(576, 96, kernel_size=(1, 1), stride=(1, 1), bias=False)
        (1): BatchNorm2d(96, eps=0.001, momentum=0.01, affine=True, track_running_stats=True)
      )
    )
    (MBConv6_11): MBConv(
      (expansion_conv): Sequential(
        (0): Conv2d(96, 576, kernel_size=(1, 1), stride=(1, 1), bias=False)
        (1): BatchNorm2d(576, eps=0.001, momentum=0.01, affine=True, track_running_stats=True)
        (2): Swish()
      )
      (depthwise_conv): Sequential(
        (0): Conv2d(576, 576, kernel_size=(3, 3), stride=(1, 1), padding=(1, 1), groups=576, bias=False)
        (1): BatchNorm2d(576, eps=0.001, momentum=0.01, affine=True, track_running_stats=True)
        (2): Swish()
      )
      (squeeze_excitation): SqueezeExcitation(
        (reduce_expand): Sequential(
          (0): Conv2d(576, 24, kernel_size=(1, 1), stride=(1, 1))
          (1): Swish()
          (2): Conv2d(24, 576, kernel_size=(1, 1), stride=(1, 1))
          (3): Sigmoid()
        )
      )
      (project_conv): Sequential(
        (0): Conv2d(576, 96, kernel_size=(1, 1), stride=(1, 1), bias=False)
        (1): BatchNorm2d(96, eps=0.001, momentum=0.01, affine=True, track_running_stats=True)
      )
    )
    (MBConv6_12): MBConv(
      (expansion_conv): Sequential(
        (0): Conv2d(96, 576, kernel_size=(1, 1), stride=(1, 1), bias=False)
        (1): BatchNorm2d(576, eps=0.001, momentum=0.01, affine=True, track_running_stats=True)
        (2): Swish()
      )
      (depthwise_conv): Sequential(
        (0): Conv2d(576, 576, kernel_size=(3, 3), stride=(1, 1), padding=(1, 1), groups=576, bias=False)
        (1): BatchNorm2d(576, eps=0.001, momentum=0.01, affine=True, track_running_stats=True)
        (2): Swish()
      )
      (squeeze_excitation): SqueezeExcitation(
        (reduce_expand): Sequential(
          (0): Conv2d(576, 24, kernel_size=(1, 1), stride=(1, 1))
          (1): Swish()
          (2): Conv2d(24, 576, kernel_size=(1, 1), stride=(1, 1))
          (3): Sigmoid()
        )
      )
      (project_conv): Sequential(
        (0): Conv2d(576, 96, kernel_size=(1, 1), stride=(1, 1), bias=False)
        (1): BatchNorm2d(96, eps=0.001, momentum=0.01, affine=True, track_running_stats=True)
      )
    )
    (MBConv6_13): MBConv(
      (expansion_conv): Sequential(
        (0): Conv2d(96, 576, kernel_size=(1, 1), stride=(1, 1), bias=False)
        (1): BatchNorm2d(576, eps=0.001, momentum=0.01, affine=True, track_running_stats=True)
        (2): Swish()
      )
      (depthwise_conv): Sequential(
        (0): Conv2d(576, 576, kernel_size=(5, 5), stride=(1, 1), padding=(2, 2), groups=576, bias=False)
        (1): BatchNorm2d(576, eps=0.001, momentum=0.01, affine=True, track_running_stats=True)
        (2): Swish()
      )
      (squeeze_excitation): SqueezeExcitation(
        (reduce_expand): Sequential(
          (0): Conv2d(576, 24, kernel_size=(1, 1), stride=(1, 1))
          (1): Swish()
          (2): Conv2d(24, 576, kernel_size=(1, 1), stride=(1, 1))
          (3): Sigmoid()
        )
      )
      (project_conv): Sequential(
        (0): Conv2d(576, 136, kernel_size=(1, 1), stride=(1, 1), bias=False)
        (1): BatchNorm2d(136, eps=0.001, momentum=0.01, affine=True, track_running_stats=True)
      )
    )
    (MBConv6_14): MBConv(
      (expansion_conv): Sequential(
        (0): Conv2d(136, 816, kernel_size=(1, 1), stride=(1, 1), bias=False)
        (1): BatchNorm2d(816, eps=0.001, momentum=0.01, affine=True, track_running_stats=True)
        (2): Swish()
      )
      (depthwise_conv): Sequential(
        (0): Conv2d(816, 816, kernel_size=(5, 5), stride=(1, 1), padding=(2, 2), groups=816, bias=False)
        (1): BatchNorm2d(816, eps=0.001, momentum=0.01, affine=True, track_running_stats=True)
        (2): Swish()
      )
      (squeeze_excitation): SqueezeExcitation(
        (reduce_expand): Sequential(
          (0): Conv2d(816, 34, kernel_size=(1, 1), stride=(1, 1))
          (1): Swish()
          (2): Conv2d(34, 816, kernel_size=(1, 1), stride=(1, 1))
          (3): Sigmoid()
        )
      )
      (project_conv): Sequential(
        (0): Conv2d(816, 136, kernel_size=(1, 1), stride=(1, 1), bias=False)
        (1): BatchNorm2d(136, eps=0.001, momentum=0.01, affine=True, track_running_stats=True)
      )
    )
    (MBConv6_15): MBConv(
      (expansion_conv): Sequential(
        (0): Conv2d(136, 816, kernel_size=(1, 1), stride=(1, 1), bias=False)
        (1): BatchNorm2d(816, eps=0.001, momentum=0.01, affine=True, track_running_stats=True)
        (2): Swish()
      )
      (depthwise_conv): Sequential(
        (0): Conv2d(816, 816, kernel_size=(5, 5), stride=(1, 1), padding=(2, 2), groups=816, bias=False)
        (1): BatchNorm2d(816, eps=0.001, momentum=0.01, affine=True, track_running_stats=True)
        (2): Swish()
      )
      (squeeze_excitation): SqueezeExcitation(
        (reduce_expand): Sequential(
          (0): Conv2d(816, 34, kernel_size=(1, 1), stride=(1, 1))
          (1): Swish()
          (2): Conv2d(34, 816, kernel_size=(1, 1), stride=(1, 1))
          (3): Sigmoid()
        )
      )
      (project_conv): Sequential(
        (0): Conv2d(816, 136, kernel_size=(1, 1), stride=(1, 1), bias=False)
        (1): BatchNorm2d(136, eps=0.001, momentum=0.01, affine=True, track_running_stats=True)
      )
    )
    (MBConv6_16): MBConv(
      (expansion_conv): Sequential(
        (0): Conv2d(136, 816, kernel_size=(1, 1), stride=(1, 1), bias=False)
        (1): BatchNorm2d(816, eps=0.001, momentum=0.01, affine=True, track_running_stats=True)
        (2): Swish()
      )
      (depthwise_conv): Sequential(
        (0): Conv2d(816, 816, kernel_size=(5, 5), stride=(1, 1), padding=(2, 2), groups=816, bias=False)
        (1): BatchNorm2d(816, eps=0.001, momentum=0.01, affine=True, track_running_stats=True)
        (2): Swish()
      )
      (squeeze_excitation): SqueezeExcitation(
        (reduce_expand): Sequential(
          (0): Conv2d(816, 34, kernel_size=(1, 1), stride=(1, 1))
          (1): Swish()
          (2): Conv2d(34, 816, kernel_size=(1, 1), stride=(1, 1))
          (3): Sigmoid()
        )
      )
      (project_conv): Sequential(
        (0): Conv2d(816, 136, kernel_size=(1, 1), stride=(1, 1), bias=False)
        (1): BatchNorm2d(136, eps=0.001, momentum=0.01, affine=True, track_running_stats=True)
      )
    )
    (MBConv6_17): MBConv(
      (expansion_conv): Sequential(
        (0): Conv2d(136, 816, kernel_size=(1, 1), stride=(1, 1), bias=False)
        (1): BatchNorm2d(816, eps=0.001, momentum=0.01, affine=True, track_running_stats=True)
        (2): Swish()
      )
      (depthwise_conv): Sequential(
        (0): Conv2d(816, 816, kernel_size=(5, 5), stride=(1, 1), padding=(2, 2), groups=816, bias=False)
        (1): BatchNorm2d(816, eps=0.001, momentum=0.01, affine=True, track_running_stats=True)
        (2): Swish()
      )
      (squeeze_excitation): SqueezeExcitation(
        (reduce_expand): Sequential(
          (0): Conv2d(816, 34, kernel_size=(1, 1), stride=(1, 1))
          (1): Swish()
          (2): Conv2d(34, 816, kernel_size=(1, 1), stride=(1, 1))
          (3): Sigmoid()
        )
      )
      (project_conv): Sequential(
        (0): Conv2d(816, 136, kernel_size=(1, 1), stride=(1, 1), bias=False)
        (1): BatchNorm2d(136, eps=0.001, momentum=0.01, affine=True, track_running_stats=True)
      )
    )
    (MBConv6_18): MBConv(
      (expansion_conv): Sequential(
        (0): Conv2d(136, 816, kernel_size=(1, 1), stride=(1, 1), bias=False)
        (1): BatchNorm2d(816, eps=0.001, momentum=0.01, affine=True, track_running_stats=True)
        (2): Swish()
      )
      (depthwise_conv): Sequential(
        (0): Conv2d(816, 816, kernel_size=(5, 5), stride=(2, 2), padding=(2, 2), groups=816, bias=False)
        (1): BatchNorm2d(816, eps=0.001, momentum=0.01, affine=True, track_running_stats=True)
        (2): Swish()
      )
      (squeeze_excitation): SqueezeExcitation(
        (reduce_expand): Sequential(
          (0): Conv2d(816, 34, kernel_size=(1, 1), stride=(1, 1))
          (1): Swish()
          (2): Conv2d(34, 816, kernel_size=(1, 1), stride=(1, 1))
          (3): Sigmoid()
        )
      )
      (project_conv): Sequential(
        (0): Conv2d(816, 232, kernel_size=(1, 1), stride=(1, 1), bias=False)
        (1): BatchNorm2d(232, eps=0.001, momentum=0.01, affine=True, track_running_stats=True)
      )
    )
    (MBConv6_19): MBConv(
      (expansion_conv): Sequential(
        (0): Conv2d(232, 1392, kernel_size=(1, 1), stride=(1, 1), bias=False)
        (1): BatchNorm2d(1392, eps=0.001, momentum=0.01, affine=True, track_running_stats=True)
        (2): Swish()
      )
      (depthwise_conv): Sequential(
        (0): Conv2d(1392, 1392, kernel_size=(5, 5), stride=(1, 1), padding=(2, 2), groups=1392, bias=False)
        (1): BatchNorm2d(1392, eps=0.001, momentum=0.01, affine=True, track_running_stats=True)
        (2): Swish()
      )
      (squeeze_excitation): SqueezeExcitation(
        (reduce_expand): Sequential(
          (0): Conv2d(1392, 58, kernel_size=(1, 1), stride=(1, 1))
          (1): Swish()
          (2): Conv2d(58, 1392, kernel_size=(1, 1), stride=(1, 1))
          (3): Sigmoid()
        )
      )
      (project_conv): Sequential(
        (0): Conv2d(1392, 232, kernel_size=(1, 1), stride=(1, 1), bias=False)
        (1): BatchNorm2d(232, eps=0.001, momentum=0.01, affine=True, track_running_stats=True)
      )
    )
    (MBConv6_20): MBConv(
      (expansion_conv): Sequential(
        (0): Conv2d(232, 1392, kernel_size=(1, 1), stride=(1, 1), bias=False)
        (1): BatchNorm2d(1392, eps=0.001, momentum=0.01, affine=True, track_running_stats=True)
        (2): Swish()
      )
      (depthwise_conv): Sequential(
        (0): Conv2d(1392, 1392, kernel_size=(5, 5), stride=(1, 1), padding=(2, 2), groups=1392, bias=False)
        (1): BatchNorm2d(1392, eps=0.001, momentum=0.01, affine=True, track_running_stats=True)
        (2): Swish()
      )
      (squeeze_excitation): SqueezeExcitation(
        (reduce_expand): Sequential(
          (0): Conv2d(1392, 58, kernel_size=(1, 1), stride=(1, 1))
          (1): Swish()
          (2): Conv2d(58, 1392, kernel_size=(1, 1), stride=(1, 1))
          (3): Sigmoid()
        )
      )
      (project_conv): Sequential(
        (0): Conv2d(1392, 232, kernel_size=(1, 1), stride=(1, 1), bias=False)
        (1): BatchNorm2d(232, eps=0.001, momentum=0.01, affine=True, track_running_stats=True)
      )
    )
    (MBConv6_21): MBConv(
      (expansion_conv): Sequential(
        (0): Conv2d(232, 1392, kernel_size=(1, 1), stride=(1, 1), bias=False)
        (1): BatchNorm2d(1392, eps=0.001, momentum=0.01, affine=True, track_running_stats=True)
        (2): Swish()
      )
      (depthwise_conv): Sequential(
        (0): Conv2d(1392, 1392, kernel_size=(5, 5), stride=(1, 1), padding=(2, 2), groups=1392, bias=False)
        (1): BatchNorm2d(1392, eps=0.001, momentum=0.01, affine=True, track_running_stats=True)
        (2): Swish()
      )
      (squeeze_excitation): SqueezeExcitation(
        (reduce_expand): Sequential(
          (0): Conv2d(1392, 58, kernel_size=(1, 1), stride=(1, 1))
          (1): Swish()
          (2): Conv2d(58, 1392, kernel_size=(1, 1), stride=(1, 1))
          (3): Sigmoid()
        )
      )
      (project_conv): Sequential(
        (0): Conv2d(1392, 232, kernel_size=(1, 1), stride=(1, 1), bias=False)
        (1): BatchNorm2d(232, eps=0.001, momentum=0.01, affine=True, track_running_stats=True)
      )
    )
    (MBConv6_22): MBConv(
      (expansion_conv): Sequential(
        (0): Conv2d(232, 1392, kernel_size=(1, 1), stride=(1, 1), bias=False)
        (1): BatchNorm2d(1392, eps=0.001, momentum=0.01, affine=True, track_running_stats=True)
        (2): Swish()
      )
      (depthwise_conv): Sequential(
        (0): Conv2d(1392, 1392, kernel_size=(5, 5), stride=(1, 1), padding=(2, 2), groups=1392, bias=False)
        (1): BatchNorm2d(1392, eps=0.001, momentum=0.01, affine=True, track_running_stats=True)
        (2): Swish()
      )
      (squeeze_excitation): SqueezeExcitation(
        (reduce_expand): Sequential(
          (0): Conv2d(1392, 58, kernel_size=(1, 1), stride=(1, 1))
          (1): Swish()
          (2): Conv2d(58, 1392, kernel_size=(1, 1), stride=(1, 1))
          (3): Sigmoid()
        )
      )
      (project_conv): Sequential(
        (0): Conv2d(1392, 232, kernel_size=(1, 1), stride=(1, 1), bias=False)
        (1): BatchNorm2d(232, eps=0.001, momentum=0.01, affine=True, track_running_stats=True)
      )
    )
    (MBConv6_23): MBConv(
      (expansion_conv): Sequential(
        (0): Conv2d(232, 1392, kernel_size=(1, 1), stride=(1, 1), bias=False)
        (1): BatchNorm2d(1392, eps=0.001, momentum=0.01, affine=True, track_running_stats=True)
        (2): Swish()
      )
      (depthwise_conv): Sequential(
        (0): Conv2d(1392, 1392, kernel_size=(5, 5), stride=(1, 1), padding=(2, 2), groups=1392, bias=False)
        (1): BatchNorm2d(1392, eps=0.001, momentum=0.01, affine=True, track_running_stats=True)
        (2): Swish()
      )
      (squeeze_excitation): SqueezeExcitation(
        (reduce_expand): Sequential(
          (0): Conv2d(1392, 58, kernel_size=(1, 1), stride=(1, 1))
          (1): Swish()
          (2): Conv2d(58, 1392, kernel_size=(1, 1), stride=(1, 1))
          (3): Sigmoid()
        )
      )
      (project_conv): Sequential(
        (0): Conv2d(1392, 232, kernel_size=(1, 1), stride=(1, 1), bias=False)
        (1): BatchNorm2d(232, eps=0.001, momentum=0.01, affine=True, track_running_stats=True)
      )
    )
    (MBConv6_24): MBConv(
      (expansion_conv): Sequential(
        (0): Conv2d(232, 1392, kernel_size=(1, 1), stride=(1, 1), bias=False)
        (1): BatchNorm2d(1392, eps=0.001, momentum=0.01, affine=True, track_running_stats=True)
        (2): Swish()
      )
      (depthwise_conv): Sequential(
        (0): Conv2d(1392, 1392, kernel_size=(3, 3), stride=(1, 1), padding=(1, 1), groups=1392, bias=False)
        (1): BatchNorm2d(1392, eps=0.001, momentum=0.01, affine=True, track_running_stats=True)
        (2): Swish()
      )
      (squeeze_excitation): SqueezeExcitation(
        (reduce_expand): Sequential(
          (0): Conv2d(1392, 58, kernel_size=(1, 1), stride=(1, 1))
          (1): Swish()
          (2): Conv2d(58, 1392, kernel_size=(1, 1), stride=(1, 1))
          (3): Sigmoid()
        )
      )
      (project_conv): Sequential(
        (0): Conv2d(1392, 384, kernel_size=(1, 1), stride=(1, 1), bias=False)
        (1): BatchNorm2d(384, eps=0.001, momentum=0.01, affine=True, track_running_stats=True)
      )
    )
    (MBConv6_25): MBConv(
      (expansion_conv): Sequential(
        (0): Conv2d(384, 2304, kernel_size=(1, 1), stride=(1, 1), bias=False)
        (1): BatchNorm2d(2304, eps=0.001, momentum=0.01, affine=True, track_running_stats=True)
        (2): Swish()
      )
      (depthwise_conv): Sequential(
        (0): Conv2d(2304, 2304, kernel_size=(3, 3), stride=(1, 1), padding=(1, 1), groups=2304, bias=False)
        (1): BatchNorm2d(2304, eps=0.001, momentum=0.01, affine=True, track_running_stats=True)
        (2): Swish()
      )
      (squeeze_excitation): SqueezeExcitation(
        (reduce_expand): Sequential(
          (0): Conv2d(2304, 96, kernel_size=(1, 1), stride=(1, 1))
          (1): Swish()
          (2): Conv2d(96, 2304, kernel_size=(1, 1), stride=(1, 1))
          (3): Sigmoid()
        )
      )
      (project_conv): Sequential(
        (0): Conv2d(2304, 384, kernel_size=(1, 1), stride=(1, 1), bias=False)
        (1): BatchNorm2d(384, eps=0.001, momentum=0.01, affine=True, track_running_stats=True)
      )
    )
  )
  (head): Sequential(
    (0): Conv2d(384, 1536, kernel_size=(1, 1), stride=(1, 1), bias=False)
    (1): BatchNorm2d(1536, eps=0.001, momentum=0.01, affine=True, track_running_stats=True)
    (2): Swish()
    (3): AdaptiveAvgPool2d(output_size=1)
    (4): Flatten()
    (5): Dropout(p=0.3, inplace=False)
    (6): Linear(in_features=1536, out_features=8, bias=True)
  )
)


2022-01-18 01:09:36.941838

EfficientNet-B3, {'num_labels': 8, 'width_coefficient': 1.2, 'depth_coefficient': 1.4, 'dropout_rate': 0.3}, resolution: 300, 100008 Ronchigrams, batch size: 16, number of epochs: 2

EfficientNet(
  (stem): Sequential(
    (0): Conv2d(1, 40, kernel_size=(3, 3), stride=(2, 2), padding=(1, 1), bias=False)
    (1): BatchNorm2d(40, eps=0.001, momentum=0.01, affine=True, track_running_stats=True)
    (2): Swish()
  )
  (blocks): Sequential(
    (MBConv1_0): MBConv(
      (depthwise_conv): Sequential(
        (0): Conv2d(40, 40, kernel_size=(3, 3), stride=(1, 1), padding=(1, 1), groups=40, bias=False)
        (1): BatchNorm2d(40, eps=0.001, momentum=0.01, affine=True, track_running_stats=True)
        (2): Swish()
      )
      (squeeze_excitation): SqueezeExcitation(
        (reduce_expand): Sequential(
          (0): Conv2d(40, 10, kernel_size=(1, 1), stride=(1, 1))
          (1): Swish()
          (2): Conv2d(10, 40, kernel_size=(1, 1), stride=(1, 1))
          (3): Sigmoid()
        )
      )
      (project_conv): Sequential(
        (0): Conv2d(40, 24, kernel_size=(1, 1), stride=(1, 1), bias=False)
        (1): BatchNorm2d(24, eps=0.001, momentum=0.01, affine=True, track_running_stats=True)
      )
    )
    (MBConv1_1): MBConv(
      (depthwise_conv): Sequential(
        (0): Conv2d(24, 24, kernel_size=(3, 3), stride=(1, 1), padding=(1, 1), groups=24, bias=False)
        (1): BatchNorm2d(24, eps=0.001, momentum=0.01, affine=True, track_running_stats=True)
        (2): Swish()
      )
      (squeeze_excitation): SqueezeExcitation(
        (reduce_expand): Sequential(
          (0): Conv2d(24, 6, kernel_size=(1, 1), stride=(1, 1))
          (1): Swish()
          (2): Conv2d(6, 24, kernel_size=(1, 1), stride=(1, 1))
          (3): Sigmoid()
        )
      )
      (project_conv): Sequential(
        (0): Conv2d(24, 24, kernel_size=(1, 1), stride=(1, 1), bias=False)
        (1): BatchNorm2d(24, eps=0.001, momentum=0.01, affine=True, track_running_stats=True)
      )
    )
    (MBConv6_2): MBConv(
      (expansion_conv): Sequential(
        (0): Conv2d(24, 144, kernel_size=(1, 1), stride=(1, 1), bias=False)
        (1): BatchNorm2d(144, eps=0.001, momentum=0.01, affine=True, track_running_stats=True)
        (2): Swish()
      )
      (depthwise_conv): Sequential(
        (0): Conv2d(144, 144, kernel_size=(3, 3), stride=(2, 2), padding=(1, 1), groups=144, bias=False)
        (1): BatchNorm2d(144, eps=0.001, momentum=0.01, affine=True, track_running_stats=True)
        (2): Swish()
      )
      (squeeze_excitation): SqueezeExcitation(
        (reduce_expand): Sequential(
          (0): Conv2d(144, 6, kernel_size=(1, 1), stride=(1, 1))
          (1): Swish()
          (2): Conv2d(6, 144, kernel_size=(1, 1), stride=(1, 1))
          (3): Sigmoid()
        )
      )
      (project_conv): Sequential(
        (0): Conv2d(144, 32, kernel_size=(1, 1), stride=(1, 1), bias=False)
        (1): BatchNorm2d(32, eps=0.001, momentum=0.01, affine=True, track_running_stats=True)
      )
    )
    (MBConv6_3): MBConv(
      (expansion_conv): Sequential(
        (0): Conv2d(32, 192, kernel_size=(1, 1), stride=(1, 1), bias=False)
        (1): BatchNorm2d(192, eps=0.001, momentum=0.01, affine=True, track_running_stats=True)
        (2): Swish()
      )
      (depthwise_conv): Sequential(
        (0): Conv2d(192, 192, kernel_size=(3, 3), stride=(1, 1), padding=(1, 1), groups=192, bias=False)
        (1): BatchNorm2d(192, eps=0.001, momentum=0.01, affine=True, track_running_stats=True)
        (2): Swish()
      )
      (squeeze_excitation): SqueezeExcitation(
        (reduce_expand): Sequential(
          (0): Conv2d(192, 8, kernel_size=(1, 1), stride=(1, 1))
          (1): Swish()
          (2): Conv2d(8, 192, kernel_size=(1, 1), stride=(1, 1))
          (3): Sigmoid()
        )
      )
      (project_conv): Sequential(
        (0): Conv2d(192, 32, kernel_size=(1, 1), stride=(1, 1), bias=False)
        (1): BatchNorm2d(32, eps=0.001, momentum=0.01, affine=True, track_running_stats=True)
      )
    )
    (MBConv6_4): MBConv(
      (expansion_conv): Sequential(
        (0): Conv2d(32, 192, kernel_size=(1, 1), stride=(1, 1), bias=False)
        (1): BatchNorm2d(192, eps=0.001, momentum=0.01, affine=True, track_running_stats=True)
        (2): Swish()
      )
      (depthwise_conv): Sequential(
        (0): Conv2d(192, 192, kernel_size=(3, 3), stride=(1, 1), padding=(1, 1), groups=192, bias=False)
        (1): BatchNorm2d(192, eps=0.001, momentum=0.01, affine=True, track_running_stats=True)
        (2): Swish()
      )
      (squeeze_excitation): SqueezeExcitation(
        (reduce_expand): Sequential(
          (0): Conv2d(192, 8, kernel_size=(1, 1), stride=(1, 1))
          (1): Swish()
          (2): Conv2d(8, 192, kernel_size=(1, 1), stride=(1, 1))
          (3): Sigmoid()
        )
      )
      (project_conv): Sequential(
        (0): Conv2d(192, 32, kernel_size=(1, 1), stride=(1, 1), bias=False)
        (1): BatchNorm2d(32, eps=0.001, momentum=0.01, affine=True, track_running_stats=True)
      )
    )
    (MBConv6_5): MBConv(
      (expansion_conv): Sequential(
        (0): Conv2d(32, 192, kernel_size=(1, 1), stride=(1, 1), bias=False)
        (1): BatchNorm2d(192, eps=0.001, momentum=0.01, affine=True, track_running_stats=True)
        (2): Swish()
      )
      (depthwise_conv): Sequential(
        (0): Conv2d(192, 192, kernel_size=(5, 5), stride=(2, 2), padding=(2, 2), groups=192, bias=False)
        (1): BatchNorm2d(192, eps=0.001, momentum=0.01, affine=True, track_running_stats=True)
        (2): Swish()
      )
      (squeeze_excitation): SqueezeExcitation(
        (reduce_expand): Sequential(
          (0): Conv2d(192, 8, kernel_size=(1, 1), stride=(1, 1))
          (1): Swish()
          (2): Conv2d(8, 192, kernel_size=(1, 1), stride=(1, 1))
          (3): Sigmoid()
        )
      )
      (project_conv): Sequential(
        (0): Conv2d(192, 48, kernel_size=(1, 1), stride=(1, 1), bias=False)
        (1): BatchNorm2d(48, eps=0.001, momentum=0.01, affine=True, track_running_stats=True)
      )
    )
    (MBConv6_6): MBConv(
      (expansion_conv): Sequential(
        (0): Conv2d(48, 288, kernel_size=(1, 1), stride=(1, 1), bias=False)
        (1): BatchNorm2d(288, eps=0.001, momentum=0.01, affine=True, track_running_stats=True)
        (2): Swish()
      )
      (depthwise_conv): Sequential(
        (0): Conv2d(288, 288, kernel_size=(5, 5), stride=(1, 1), padding=(2, 2), groups=288, bias=False)
        (1): BatchNorm2d(288, eps=0.001, momentum=0.01, affine=True, track_running_stats=True)
        (2): Swish()
      )
      (squeeze_excitation): SqueezeExcitation(
        (reduce_expand): Sequential(
          (0): Conv2d(288, 12, kernel_size=(1, 1), stride=(1, 1))
          (1): Swish()
          (2): Conv2d(12, 288, kernel_size=(1, 1), stride=(1, 1))
          (3): Sigmoid()
        )
      )
      (project_conv): Sequential(
        (0): Conv2d(288, 48, kernel_size=(1, 1), stride=(1, 1), bias=False)
        (1): BatchNorm2d(48, eps=0.001, momentum=0.01, affine=True, track_running_stats=True)
      )
    )
    (MBConv6_7): MBConv(
      (expansion_conv): Sequential(
        (0): Conv2d(48, 288, kernel_size=(1, 1), stride=(1, 1), bias=False)
        (1): BatchNorm2d(288, eps=0.001, momentum=0.01, affine=True, track_running_stats=True)
        (2): Swish()
      )
      (depthwise_conv): Sequential(
        (0): Conv2d(288, 288, kernel_size=(5, 5), stride=(1, 1), padding=(2, 2), groups=288, bias=False)
        (1): BatchNorm2d(288, eps=0.001, momentum=0.01, affine=True, track_running_stats=True)
        (2): Swish()
      )
      (squeeze_excitation): SqueezeExcitation(
        (reduce_expand): Sequential(
          (0): Conv2d(288, 12, kernel_size=(1, 1), stride=(1, 1))
          (1): Swish()
          (2): Conv2d(12, 288, kernel_size=(1, 1), stride=(1, 1))
          (3): Sigmoid()
        )
      )
      (project_conv): Sequential(
        (0): Conv2d(288, 48, kernel_size=(1, 1), stride=(1, 1), bias=False)
        (1): BatchNorm2d(48, eps=0.001, momentum=0.01, affine=True, track_running_stats=True)
      )
    )
    (MBConv6_8): MBConv(
      (expansion_conv): Sequential(
        (0): Conv2d(48, 288, kernel_size=(1, 1), stride=(1, 1), bias=False)
        (1): BatchNorm2d(288, eps=0.001, momentum=0.01, affine=True, track_running_stats=True)
        (2): Swish()
      )
      (depthwise_conv): Sequential(
        (0): Conv2d(288, 288, kernel_size=(3, 3), stride=(2, 2), padding=(1, 1), groups=288, bias=False)
        (1): BatchNorm2d(288, eps=0.001, momentum=0.01, affine=True, track_running_stats=True)
        (2): Swish()
      )
      (squeeze_excitation): SqueezeExcitation(
        (reduce_expand): Sequential(
          (0): Conv2d(288, 12, kernel_size=(1, 1), stride=(1, 1))
          (1): Swish()
          (2): Conv2d(12, 288, kernel_size=(1, 1), stride=(1, 1))
          (3): Sigmoid()
        )
      )
      (project_conv): Sequential(
        (0): Conv2d(288, 96, kernel_size=(1, 1), stride=(1, 1), bias=False)
        (1): BatchNorm2d(96, eps=0.001, momentum=0.01, affine=True, track_running_stats=True)
      )
    )
    (MBConv6_9): MBConv(
      (expansion_conv): Sequential(
        (0): Conv2d(96, 576, kernel_size=(1, 1), stride=(1, 1), bias=False)
        (1): BatchNorm2d(576, eps=0.001, momentum=0.01, affine=True, track_running_stats=True)
        (2): Swish()
      )
      (depthwise_conv): Sequential(
        (0): Conv2d(576, 576, kernel_size=(3, 3), stride=(1, 1), padding=(1, 1), groups=576, bias=False)
        (1): BatchNorm2d(576, eps=0.001, momentum=0.01, affine=True, track_running_stats=True)
        (2): Swish()
      )
      (squeeze_excitation): SqueezeExcitation(
        (reduce_expand): Sequential(
          (0): Conv2d(576, 24, kernel_size=(1, 1), stride=(1, 1))
          (1): Swish()
          (2): Conv2d(24, 576, kernel_size=(1, 1), stride=(1, 1))
          (3): Sigmoid()
        )
      )
      (project_conv): Sequential(
        (0): Conv2d(576, 96, kernel_size=(1, 1), stride=(1, 1), bias=False)
        (1): BatchNorm2d(96, eps=0.001, momentum=0.01, affine=True, track_running_stats=True)
      )
    )
    (MBConv6_10): MBConv(
      (expansion_conv): Sequential(
        (0): Conv2d(96, 576, kernel_size=(1, 1), stride=(1, 1), bias=False)
        (1): BatchNorm2d(576, eps=0.001, momentum=0.01, affine=True, track_running_stats=True)
        (2): Swish()
      )
      (depthwise_conv): Sequential(
        (0): Conv2d(576, 576, kernel_size=(3, 3), stride=(1, 1), padding=(1, 1), groups=576, bias=False)
        (1): BatchNorm2d(576, eps=0.001, momentum=0.01, affine=True, track_running_stats=True)
        (2): Swish()
      )
      (squeeze_excitation): SqueezeExcitation(
        (reduce_expand): Sequential(
          (0): Conv2d(576, 24, kernel_size=(1, 1), stride=(1, 1))
          (1): Swish()
          (2): Conv2d(24, 576, kernel_size=(1, 1), stride=(1, 1))
          (3): Sigmoid()
        )
      )
      (project_conv): Sequential(
        (0): Conv2d(576, 96, kernel_size=(1, 1), stride=(1, 1), bias=False)
        (1): BatchNorm2d(96, eps=0.001, momentum=0.01, affine=True, track_running_stats=True)
      )
    )
    (MBConv6_11): MBConv(
      (expansion_conv): Sequential(
        (0): Conv2d(96, 576, kernel_size=(1, 1), stride=(1, 1), bias=False)
        (1): BatchNorm2d(576, eps=0.001, momentum=0.01, affine=True, track_running_stats=True)
        (2): Swish()
      )
      (depthwise_conv): Sequential(
        (0): Conv2d(576, 576, kernel_size=(3, 3), stride=(1, 1), padding=(1, 1), groups=576, bias=False)
        (1): BatchNorm2d(576, eps=0.001, momentum=0.01, affine=True, track_running_stats=True)
        (2): Swish()
      )
      (squeeze_excitation): SqueezeExcitation(
        (reduce_expand): Sequential(
          (0): Conv2d(576, 24, kernel_size=(1, 1), stride=(1, 1))
          (1): Swish()
          (2): Conv2d(24, 576, kernel_size=(1, 1), stride=(1, 1))
          (3): Sigmoid()
        )
      )
      (project_conv): Sequential(
        (0): Conv2d(576, 96, kernel_size=(1, 1), stride=(1, 1), bias=False)
        (1): BatchNorm2d(96, eps=0.001, momentum=0.01, affine=True, track_running_stats=True)
      )
    )
    (MBConv6_12): MBConv(
      (expansion_conv): Sequential(
        (0): Conv2d(96, 576, kernel_size=(1, 1), stride=(1, 1), bias=False)
        (1): BatchNorm2d(576, eps=0.001, momentum=0.01, affine=True, track_running_stats=True)
        (2): Swish()
      )
      (depthwise_conv): Sequential(
        (0): Conv2d(576, 576, kernel_size=(3, 3), stride=(1, 1), padding=(1, 1), groups=576, bias=False)
        (1): BatchNorm2d(576, eps=0.001, momentum=0.01, affine=True, track_running_stats=True)
        (2): Swish()
      )
      (squeeze_excitation): SqueezeExcitation(
        (reduce_expand): Sequential(
          (0): Conv2d(576, 24, kernel_size=(1, 1), stride=(1, 1))
          (1): Swish()
          (2): Conv2d(24, 576, kernel_size=(1, 1), stride=(1, 1))
          (3): Sigmoid()
        )
      )
      (project_conv): Sequential(
        (0): Conv2d(576, 96, kernel_size=(1, 1), stride=(1, 1), bias=False)
        (1): BatchNorm2d(96, eps=0.001, momentum=0.01, affine=True, track_running_stats=True)
      )
    )
    (MBConv6_13): MBConv(
      (expansion_conv): Sequential(
        (0): Conv2d(96, 576, kernel_size=(1, 1), stride=(1, 1), bias=False)
        (1): BatchNorm2d(576, eps=0.001, momentum=0.01, affine=True, track_running_stats=True)
        (2): Swish()
      )
      (depthwise_conv): Sequential(
        (0): Conv2d(576, 576, kernel_size=(5, 5), stride=(1, 1), padding=(2, 2), groups=576, bias=False)
        (1): BatchNorm2d(576, eps=0.001, momentum=0.01, affine=True, track_running_stats=True)
        (2): Swish()
      )
      (squeeze_excitation): SqueezeExcitation(
        (reduce_expand): Sequential(
          (0): Conv2d(576, 24, kernel_size=(1, 1), stride=(1, 1))
          (1): Swish()
          (2): Conv2d(24, 576, kernel_size=(1, 1), stride=(1, 1))
          (3): Sigmoid()
        )
      )
      (project_conv): Sequential(
        (0): Conv2d(576, 136, kernel_size=(1, 1), stride=(1, 1), bias=False)
        (1): BatchNorm2d(136, eps=0.001, momentum=0.01, affine=True, track_running_stats=True)
      )
    )
    (MBConv6_14): MBConv(
      (expansion_conv): Sequential(
        (0): Conv2d(136, 816, kernel_size=(1, 1), stride=(1, 1), bias=False)
        (1): BatchNorm2d(816, eps=0.001, momentum=0.01, affine=True, track_running_stats=True)
        (2): Swish()
      )
      (depthwise_conv): Sequential(
        (0): Conv2d(816, 816, kernel_size=(5, 5), stride=(1, 1), padding=(2, 2), groups=816, bias=False)
        (1): BatchNorm2d(816, eps=0.001, momentum=0.01, affine=True, track_running_stats=True)
        (2): Swish()
      )
      (squeeze_excitation): SqueezeExcitation(
        (reduce_expand): Sequential(
          (0): Conv2d(816, 34, kernel_size=(1, 1), stride=(1, 1))
          (1): Swish()
          (2): Conv2d(34, 816, kernel_size=(1, 1), stride=(1, 1))
          (3): Sigmoid()
        )
      )
      (project_conv): Sequential(
        (0): Conv2d(816, 136, kernel_size=(1, 1), stride=(1, 1), bias=False)
        (1): BatchNorm2d(136, eps=0.001, momentum=0.01, affine=True, track_running_stats=True)
      )
    )
    (MBConv6_15): MBConv(
      (expansion_conv): Sequential(
        (0): Conv2d(136, 816, kernel_size=(1, 1), stride=(1, 1), bias=False)
        (1): BatchNorm2d(816, eps=0.001, momentum=0.01, affine=True, track_running_stats=True)
        (2): Swish()
      )
      (depthwise_conv): Sequential(
        (0): Conv2d(816, 816, kernel_size=(5, 5), stride=(1, 1), padding=(2, 2), groups=816, bias=False)
        (1): BatchNorm2d(816, eps=0.001, momentum=0.01, affine=True, track_running_stats=True)
        (2): Swish()
      )
      (squeeze_excitation): SqueezeExcitation(
        (reduce_expand): Sequential(
          (0): Conv2d(816, 34, kernel_size=(1, 1), stride=(1, 1))
          (1): Swish()
          (2): Conv2d(34, 816, kernel_size=(1, 1), stride=(1, 1))
          (3): Sigmoid()
        )
      )
      (project_conv): Sequential(
        (0): Conv2d(816, 136, kernel_size=(1, 1), stride=(1, 1), bias=False)
        (1): BatchNorm2d(136, eps=0.001, momentum=0.01, affine=True, track_running_stats=True)
      )
    )
    (MBConv6_16): MBConv(
      (expansion_conv): Sequential(
        (0): Conv2d(136, 816, kernel_size=(1, 1), stride=(1, 1), bias=False)
        (1): BatchNorm2d(816, eps=0.001, momentum=0.01, affine=True, track_running_stats=True)
        (2): Swish()
      )
      (depthwise_conv): Sequential(
        (0): Conv2d(816, 816, kernel_size=(5, 5), stride=(1, 1), padding=(2, 2), groups=816, bias=False)
        (1): BatchNorm2d(816, eps=0.001, momentum=0.01, affine=True, track_running_stats=True)
        (2): Swish()
      )
      (squeeze_excitation): SqueezeExcitation(
        (reduce_expand): Sequential(
          (0): Conv2d(816, 34, kernel_size=(1, 1), stride=(1, 1))
          (1): Swish()
          (2): Conv2d(34, 816, kernel_size=(1, 1), stride=(1, 1))
          (3): Sigmoid()
        )
      )
      (project_conv): Sequential(
        (0): Conv2d(816, 136, kernel_size=(1, 1), stride=(1, 1), bias=False)
        (1): BatchNorm2d(136, eps=0.001, momentum=0.01, affine=True, track_running_stats=True)
      )
    )
    (MBConv6_17): MBConv(
      (expansion_conv): Sequential(
        (0): Conv2d(136, 816, kernel_size=(1, 1), stride=(1, 1), bias=False)
        (1): BatchNorm2d(816, eps=0.001, momentum=0.01, affine=True, track_running_stats=True)
        (2): Swish()
      )
      (depthwise_conv): Sequential(
        (0): Conv2d(816, 816, kernel_size=(5, 5), stride=(1, 1), padding=(2, 2), groups=816, bias=False)
        (1): BatchNorm2d(816, eps=0.001, momentum=0.01, affine=True, track_running_stats=True)
        (2): Swish()
      )
      (squeeze_excitation): SqueezeExcitation(
        (reduce_expand): Sequential(
          (0): Conv2d(816, 34, kernel_size=(1, 1), stride=(1, 1))
          (1): Swish()
          (2): Conv2d(34, 816, kernel_size=(1, 1), stride=(1, 1))
          (3): Sigmoid()
        )
      )
      (project_conv): Sequential(
        (0): Conv2d(816, 136, kernel_size=(1, 1), stride=(1, 1), bias=False)
        (1): BatchNorm2d(136, eps=0.001, momentum=0.01, affine=True, track_running_stats=True)
      )
    )
    (MBConv6_18): MBConv(
      (expansion_conv): Sequential(
        (0): Conv2d(136, 816, kernel_size=(1, 1), stride=(1, 1), bias=False)
        (1): BatchNorm2d(816, eps=0.001, momentum=0.01, affine=True, track_running_stats=True)
        (2): Swish()
      )
      (depthwise_conv): Sequential(
        (0): Conv2d(816, 816, kernel_size=(5, 5), stride=(2, 2), padding=(2, 2), groups=816, bias=False)
        (1): BatchNorm2d(816, eps=0.001, momentum=0.01, affine=True, track_running_stats=True)
        (2): Swish()
      )
      (squeeze_excitation): SqueezeExcitation(
        (reduce_expand): Sequential(
          (0): Conv2d(816, 34, kernel_size=(1, 1), stride=(1, 1))
          (1): Swish()
          (2): Conv2d(34, 816, kernel_size=(1, 1), stride=(1, 1))
          (3): Sigmoid()
        )
      )
      (project_conv): Sequential(
        (0): Conv2d(816, 232, kernel_size=(1, 1), stride=(1, 1), bias=False)
        (1): BatchNorm2d(232, eps=0.001, momentum=0.01, affine=True, track_running_stats=True)
      )
    )
    (MBConv6_19): MBConv(
      (expansion_conv): Sequential(
        (0): Conv2d(232, 1392, kernel_size=(1, 1), stride=(1, 1), bias=False)
        (1): BatchNorm2d(1392, eps=0.001, momentum=0.01, affine=True, track_running_stats=True)
        (2): Swish()
      )
      (depthwise_conv): Sequential(
        (0): Conv2d(1392, 1392, kernel_size=(5, 5), stride=(1, 1), padding=(2, 2), groups=1392, bias=False)
        (1): BatchNorm2d(1392, eps=0.001, momentum=0.01, affine=True, track_running_stats=True)
        (2): Swish()
      )
      (squeeze_excitation): SqueezeExcitation(
        (reduce_expand): Sequential(
          (0): Conv2d(1392, 58, kernel_size=(1, 1), stride=(1, 1))
          (1): Swish()
          (2): Conv2d(58, 1392, kernel_size=(1, 1), stride=(1, 1))
          (3): Sigmoid()
        )
      )
      (project_conv): Sequential(
        (0): Conv2d(1392, 232, kernel_size=(1, 1), stride=(1, 1), bias=False)
        (1): BatchNorm2d(232, eps=0.001, momentum=0.01, affine=True, track_running_stats=True)
      )
    )
    (MBConv6_20): MBConv(
      (expansion_conv): Sequential(
        (0): Conv2d(232, 1392, kernel_size=(1, 1), stride=(1, 1), bias=False)
        (1): BatchNorm2d(1392, eps=0.001, momentum=0.01, affine=True, track_running_stats=True)
        (2): Swish()
      )
      (depthwise_conv): Sequential(
        (0): Conv2d(1392, 1392, kernel_size=(5, 5), stride=(1, 1), padding=(2, 2), groups=1392, bias=False)
        (1): BatchNorm2d(1392, eps=0.001, momentum=0.01, affine=True, track_running_stats=True)
        (2): Swish()
      )
      (squeeze_excitation): SqueezeExcitation(
        (reduce_expand): Sequential(
          (0): Conv2d(1392, 58, kernel_size=(1, 1), stride=(1, 1))
          (1): Swish()
          (2): Conv2d(58, 1392, kernel_size=(1, 1), stride=(1, 1))
          (3): Sigmoid()
        )
      )
      (project_conv): Sequential(
        (0): Conv2d(1392, 232, kernel_size=(1, 1), stride=(1, 1), bias=False)
        (1): BatchNorm2d(232, eps=0.001, momentum=0.01, affine=True, track_running_stats=True)
      )
    )
    (MBConv6_21): MBConv(
      (expansion_conv): Sequential(
        (0): Conv2d(232, 1392, kernel_size=(1, 1), stride=(1, 1), bias=False)
        (1): BatchNorm2d(1392, eps=0.001, momentum=0.01, affine=True, track_running_stats=True)
        (2): Swish()
      )
      (depthwise_conv): Sequential(
        (0): Conv2d(1392, 1392, kernel_size=(5, 5), stride=(1, 1), padding=(2, 2), groups=1392, bias=False)
        (1): BatchNorm2d(1392, eps=0.001, momentum=0.01, affine=True, track_running_stats=True)
        (2): Swish()
      )
      (squeeze_excitation): SqueezeExcitation(
        (reduce_expand): Sequential(
          (0): Conv2d(1392, 58, kernel_size=(1, 1), stride=(1, 1))
          (1): Swish()
          (2): Conv2d(58, 1392, kernel_size=(1, 1), stride=(1, 1))
          (3): Sigmoid()
        )
      )
      (project_conv): Sequential(
        (0): Conv2d(1392, 232, kernel_size=(1, 1), stride=(1, 1), bias=False)
        (1): BatchNorm2d(232, eps=0.001, momentum=0.01, affine=True, track_running_stats=True)
      )
    )
    (MBConv6_22): MBConv(
      (expansion_conv): Sequential(
        (0): Conv2d(232, 1392, kernel_size=(1, 1), stride=(1, 1), bias=False)
        (1): BatchNorm2d(1392, eps=0.001, momentum=0.01, affine=True, track_running_stats=True)
        (2): Swish()
      )
      (depthwise_conv): Sequential(
        (0): Conv2d(1392, 1392, kernel_size=(5, 5), stride=(1, 1), padding=(2, 2), groups=1392, bias=False)
        (1): BatchNorm2d(1392, eps=0.001, momentum=0.01, affine=True, track_running_stats=True)
        (2): Swish()
      )
      (squeeze_excitation): SqueezeExcitation(
        (reduce_expand): Sequential(
          (0): Conv2d(1392, 58, kernel_size=(1, 1), stride=(1, 1))
          (1): Swish()
          (2): Conv2d(58, 1392, kernel_size=(1, 1), stride=(1, 1))
          (3): Sigmoid()
        )
      )
      (project_conv): Sequential(
        (0): Conv2d(1392, 232, kernel_size=(1, 1), stride=(1, 1), bias=False)
        (1): BatchNorm2d(232, eps=0.001, momentum=0.01, affine=True, track_running_stats=True)
      )
    )
    (MBConv6_23): MBConv(
      (expansion_conv): Sequential(
        (0): Conv2d(232, 1392, kernel_size=(1, 1), stride=(1, 1), bias=False)
        (1): BatchNorm2d(1392, eps=0.001, momentum=0.01, affine=True, track_running_stats=True)
        (2): Swish()
      )
      (depthwise_conv): Sequential(
        (0): Conv2d(1392, 1392, kernel_size=(5, 5), stride=(1, 1), padding=(2, 2), groups=1392, bias=False)
        (1): BatchNorm2d(1392, eps=0.001, momentum=0.01, affine=True, track_running_stats=True)
        (2): Swish()
      )
      (squeeze_excitation): SqueezeExcitation(
        (reduce_expand): Sequential(
          (0): Conv2d(1392, 58, kernel_size=(1, 1), stride=(1, 1))
          (1): Swish()
          (2): Conv2d(58, 1392, kernel_size=(1, 1), stride=(1, 1))
          (3): Sigmoid()
        )
      )
      (project_conv): Sequential(
        (0): Conv2d(1392, 232, kernel_size=(1, 1), stride=(1, 1), bias=False)
        (1): BatchNorm2d(232, eps=0.001, momentum=0.01, affine=True, track_running_stats=True)
      )
    )
    (MBConv6_24): MBConv(
      (expansion_conv): Sequential(
        (0): Conv2d(232, 1392, kernel_size=(1, 1), stride=(1, 1), bias=False)
        (1): BatchNorm2d(1392, eps=0.001, momentum=0.01, affine=True, track_running_stats=True)
        (2): Swish()
      )
      (depthwise_conv): Sequential(
        (0): Conv2d(1392, 1392, kernel_size=(3, 3), stride=(1, 1), padding=(1, 1), groups=1392, bias=False)
        (1): BatchNorm2d(1392, eps=0.001, momentum=0.01, affine=True, track_running_stats=True)
        (2): Swish()
      )
      (squeeze_excitation): SqueezeExcitation(
        (reduce_expand): Sequential(
          (0): Conv2d(1392, 58, kernel_size=(1, 1), stride=(1, 1))
          (1): Swish()
          (2): Conv2d(58, 1392, kernel_size=(1, 1), stride=(1, 1))
          (3): Sigmoid()
        )
      )
      (project_conv): Sequential(
        (0): Conv2d(1392, 384, kernel_size=(1, 1), stride=(1, 1), bias=False)
        (1): BatchNorm2d(384, eps=0.001, momentum=0.01, affine=True, track_running_stats=True)
      )
    )
    (MBConv6_25): MBConv(
      (expansion_conv): Sequential(
        (0): Conv2d(384, 2304, kernel_size=(1, 1), stride=(1, 1), bias=False)
        (1): BatchNorm2d(2304, eps=0.001, momentum=0.01, affine=True, track_running_stats=True)
        (2): Swish()
      )
      (depthwise_conv): Sequential(
        (0): Conv2d(2304, 2304, kernel_size=(3, 3), stride=(1, 1), padding=(1, 1), groups=2304, bias=False)
        (1): BatchNorm2d(2304, eps=0.001, momentum=0.01, affine=True, track_running_stats=True)
        (2): Swish()
      )
      (squeeze_excitation): SqueezeExcitation(
        (reduce_expand): Sequential(
          (0): Conv2d(2304, 96, kernel_size=(1, 1), stride=(1, 1))
          (1): Swish()
          (2): Conv2d(96, 2304, kernel_size=(1, 1), stride=(1, 1))
          (3): Sigmoid()
        )
      )
      (project_conv): Sequential(
        (0): Conv2d(2304, 384, kernel_size=(1, 1), stride=(1, 1), bias=False)
        (1): BatchNorm2d(384, eps=0.001, momentum=0.01, affine=True, track_running_stats=True)
      )
    )
  )
  (head): Sequential(
    (0): Conv2d(384, 1536, kernel_size=(1, 1), stride=(1, 1), bias=False)
    (1): BatchNorm2d(1536, eps=0.001, momentum=0.01, affine=True, track_running_stats=True)
    (2): Swish()
    (3): AdaptiveAvgPool2d(output_size=1)
    (4): Flatten()
    (5): Dropout(p=0.3, inplace=False)
    (6): Linear(in_features=1536, out_features=8, bias=True)
  )
)


2022-01-18 01:10:14.720840

EfficientNet-B3, {'num_labels': 8, 'width_coefficient': 1.2, 'depth_coefficient': 1.4, 'dropout_rate': 0.3}, resolution: 300, 100008 Ronchigrams, batch size: 16, number of epochs: 6

EfficientNet(
  (stem): Sequential(
    (0): Conv2d(1, 40, kernel_size=(3, 3), stride=(2, 2), padding=(1, 1), bias=False)
    (1): BatchNorm2d(40, eps=0.001, momentum=0.01, affine=True, track_running_stats=True)
    (2): Swish()
  )
  (blocks): Sequential(
    (MBConv1_0): MBConv(
      (depthwise_conv): Sequential(
        (0): Conv2d(40, 40, kernel_size=(3, 3), stride=(1, 1), padding=(1, 1), groups=40, bias=False)
        (1): BatchNorm2d(40, eps=0.001, momentum=0.01, affine=True, track_running_stats=True)
        (2): Swish()
      )
      (squeeze_excitation): SqueezeExcitation(
        (reduce_expand): Sequential(
          (0): Conv2d(40, 10, kernel_size=(1, 1), stride=(1, 1))
          (1): Swish()
          (2): Conv2d(10, 40, kernel_size=(1, 1), stride=(1, 1))
          (3): Sigmoid()
        )
      )
      (project_conv): Sequential(
        (0): Conv2d(40, 24, kernel_size=(1, 1), stride=(1, 1), bias=False)
        (1): BatchNorm2d(24, eps=0.001, momentum=0.01, affine=True, track_running_stats=True)
      )
    )
    (MBConv1_1): MBConv(
      (depthwise_conv): Sequential(
        (0): Conv2d(24, 24, kernel_size=(3, 3), stride=(1, 1), padding=(1, 1), groups=24, bias=False)
        (1): BatchNorm2d(24, eps=0.001, momentum=0.01, affine=True, track_running_stats=True)
        (2): Swish()
      )
      (squeeze_excitation): SqueezeExcitation(
        (reduce_expand): Sequential(
          (0): Conv2d(24, 6, kernel_size=(1, 1), stride=(1, 1))
          (1): Swish()
          (2): Conv2d(6, 24, kernel_size=(1, 1), stride=(1, 1))
          (3): Sigmoid()
        )
      )
      (project_conv): Sequential(
        (0): Conv2d(24, 24, kernel_size=(1, 1), stride=(1, 1), bias=False)
        (1): BatchNorm2d(24, eps=0.001, momentum=0.01, affine=True, track_running_stats=True)
      )
    )
    (MBConv6_2): MBConv(
      (expansion_conv): Sequential(
        (0): Conv2d(24, 144, kernel_size=(1, 1), stride=(1, 1), bias=False)
        (1): BatchNorm2d(144, eps=0.001, momentum=0.01, affine=True, track_running_stats=True)
        (2): Swish()
      )
      (depthwise_conv): Sequential(
        (0): Conv2d(144, 144, kernel_size=(3, 3), stride=(2, 2), padding=(1, 1), groups=144, bias=False)
        (1): BatchNorm2d(144, eps=0.001, momentum=0.01, affine=True, track_running_stats=True)
        (2): Swish()
      )
      (squeeze_excitation): SqueezeExcitation(
        (reduce_expand): Sequential(
          (0): Conv2d(144, 6, kernel_size=(1, 1), stride=(1, 1))
          (1): Swish()
          (2): Conv2d(6, 144, kernel_size=(1, 1), stride=(1, 1))
          (3): Sigmoid()
        )
      )
      (project_conv): Sequential(
        (0): Conv2d(144, 32, kernel_size=(1, 1), stride=(1, 1), bias=False)
        (1): BatchNorm2d(32, eps=0.001, momentum=0.01, affine=True, track_running_stats=True)
      )
    )
    (MBConv6_3): MBConv(
      (expansion_conv): Sequential(
        (0): Conv2d(32, 192, kernel_size=(1, 1), stride=(1, 1), bias=False)
        (1): BatchNorm2d(192, eps=0.001, momentum=0.01, affine=True, track_running_stats=True)
        (2): Swish()
      )
      (depthwise_conv): Sequential(
        (0): Conv2d(192, 192, kernel_size=(3, 3), stride=(1, 1), padding=(1, 1), groups=192, bias=False)
        (1): BatchNorm2d(192, eps=0.001, momentum=0.01, affine=True, track_running_stats=True)
        (2): Swish()
      )
      (squeeze_excitation): SqueezeExcitation(
        (reduce_expand): Sequential(
          (0): Conv2d(192, 8, kernel_size=(1, 1), stride=(1, 1))
          (1): Swish()
          (2): Conv2d(8, 192, kernel_size=(1, 1), stride=(1, 1))
          (3): Sigmoid()
        )
      )
      (project_conv): Sequential(
        (0): Conv2d(192, 32, kernel_size=(1, 1), stride=(1, 1), bias=False)
        (1): BatchNorm2d(32, eps=0.001, momentum=0.01, affine=True, track_running_stats=True)
      )
    )
    (MBConv6_4): MBConv(
      (expansion_conv): Sequential(
        (0): Conv2d(32, 192, kernel_size=(1, 1), stride=(1, 1), bias=False)
        (1): BatchNorm2d(192, eps=0.001, momentum=0.01, affine=True, track_running_stats=True)
        (2): Swish()
      )
      (depthwise_conv): Sequential(
        (0): Conv2d(192, 192, kernel_size=(3, 3), stride=(1, 1), padding=(1, 1), groups=192, bias=False)
        (1): BatchNorm2d(192, eps=0.001, momentum=0.01, affine=True, track_running_stats=True)
        (2): Swish()
      )
      (squeeze_excitation): SqueezeExcitation(
        (reduce_expand): Sequential(
          (0): Conv2d(192, 8, kernel_size=(1, 1), stride=(1, 1))
          (1): Swish()
          (2): Conv2d(8, 192, kernel_size=(1, 1), stride=(1, 1))
          (3): Sigmoid()
        )
      )
      (project_conv): Sequential(
        (0): Conv2d(192, 32, kernel_size=(1, 1), stride=(1, 1), bias=False)
        (1): BatchNorm2d(32, eps=0.001, momentum=0.01, affine=True, track_running_stats=True)
      )
    )
    (MBConv6_5): MBConv(
      (expansion_conv): Sequential(
        (0): Conv2d(32, 192, kernel_size=(1, 1), stride=(1, 1), bias=False)
        (1): BatchNorm2d(192, eps=0.001, momentum=0.01, affine=True, track_running_stats=True)
        (2): Swish()
      )
      (depthwise_conv): Sequential(
        (0): Conv2d(192, 192, kernel_size=(5, 5), stride=(2, 2), padding=(2, 2), groups=192, bias=False)
        (1): BatchNorm2d(192, eps=0.001, momentum=0.01, affine=True, track_running_stats=True)
        (2): Swish()
      )
      (squeeze_excitation): SqueezeExcitation(
        (reduce_expand): Sequential(
          (0): Conv2d(192, 8, kernel_size=(1, 1), stride=(1, 1))
          (1): Swish()
          (2): Conv2d(8, 192, kernel_size=(1, 1), stride=(1, 1))
          (3): Sigmoid()
        )
      )
      (project_conv): Sequential(
        (0): Conv2d(192, 48, kernel_size=(1, 1), stride=(1, 1), bias=False)
        (1): BatchNorm2d(48, eps=0.001, momentum=0.01, affine=True, track_running_stats=True)
      )
    )
    (MBConv6_6): MBConv(
      (expansion_conv): Sequential(
        (0): Conv2d(48, 288, kernel_size=(1, 1), stride=(1, 1), bias=False)
        (1): BatchNorm2d(288, eps=0.001, momentum=0.01, affine=True, track_running_stats=True)
        (2): Swish()
      )
      (depthwise_conv): Sequential(
        (0): Conv2d(288, 288, kernel_size=(5, 5), stride=(1, 1), padding=(2, 2), groups=288, bias=False)
        (1): BatchNorm2d(288, eps=0.001, momentum=0.01, affine=True, track_running_stats=True)
        (2): Swish()
      )
      (squeeze_excitation): SqueezeExcitation(
        (reduce_expand): Sequential(
          (0): Conv2d(288, 12, kernel_size=(1, 1), stride=(1, 1))
          (1): Swish()
          (2): Conv2d(12, 288, kernel_size=(1, 1), stride=(1, 1))
          (3): Sigmoid()
        )
      )
      (project_conv): Sequential(
        (0): Conv2d(288, 48, kernel_size=(1, 1), stride=(1, 1), bias=False)
        (1): BatchNorm2d(48, eps=0.001, momentum=0.01, affine=True, track_running_stats=True)
      )
    )
    (MBConv6_7): MBConv(
      (expansion_conv): Sequential(
        (0): Conv2d(48, 288, kernel_size=(1, 1), stride=(1, 1), bias=False)
        (1): BatchNorm2d(288, eps=0.001, momentum=0.01, affine=True, track_running_stats=True)
        (2): Swish()
      )
      (depthwise_conv): Sequential(
        (0): Conv2d(288, 288, kernel_size=(5, 5), stride=(1, 1), padding=(2, 2), groups=288, bias=False)
        (1): BatchNorm2d(288, eps=0.001, momentum=0.01, affine=True, track_running_stats=True)
        (2): Swish()
      )
      (squeeze_excitation): SqueezeExcitation(
        (reduce_expand): Sequential(
          (0): Conv2d(288, 12, kernel_size=(1, 1), stride=(1, 1))
          (1): Swish()
          (2): Conv2d(12, 288, kernel_size=(1, 1), stride=(1, 1))
          (3): Sigmoid()
        )
      )
      (project_conv): Sequential(
        (0): Conv2d(288, 48, kernel_size=(1, 1), stride=(1, 1), bias=False)
        (1): BatchNorm2d(48, eps=0.001, momentum=0.01, affine=True, track_running_stats=True)
      )
    )
    (MBConv6_8): MBConv(
      (expansion_conv): Sequential(
        (0): Conv2d(48, 288, kernel_size=(1, 1), stride=(1, 1), bias=False)
        (1): BatchNorm2d(288, eps=0.001, momentum=0.01, affine=True, track_running_stats=True)
        (2): Swish()
      )
      (depthwise_conv): Sequential(
        (0): Conv2d(288, 288, kernel_size=(3, 3), stride=(2, 2), padding=(1, 1), groups=288, bias=False)
        (1): BatchNorm2d(288, eps=0.001, momentum=0.01, affine=True, track_running_stats=True)
        (2): Swish()
      )
      (squeeze_excitation): SqueezeExcitation(
        (reduce_expand): Sequential(
          (0): Conv2d(288, 12, kernel_size=(1, 1), stride=(1, 1))
          (1): Swish()
          (2): Conv2d(12, 288, kernel_size=(1, 1), stride=(1, 1))
          (3): Sigmoid()
        )
      )
      (project_conv): Sequential(
        (0): Conv2d(288, 96, kernel_size=(1, 1), stride=(1, 1), bias=False)
        (1): BatchNorm2d(96, eps=0.001, momentum=0.01, affine=True, track_running_stats=True)
      )
    )
    (MBConv6_9): MBConv(
      (expansion_conv): Sequential(
        (0): Conv2d(96, 576, kernel_size=(1, 1), stride=(1, 1), bias=False)
        (1): BatchNorm2d(576, eps=0.001, momentum=0.01, affine=True, track_running_stats=True)
        (2): Swish()
      )
      (depthwise_conv): Sequential(
        (0): Conv2d(576, 576, kernel_size=(3, 3), stride=(1, 1), padding=(1, 1), groups=576, bias=False)
        (1): BatchNorm2d(576, eps=0.001, momentum=0.01, affine=True, track_running_stats=True)
        (2): Swish()
      )
      (squeeze_excitation): SqueezeExcitation(
        (reduce_expand): Sequential(
          (0): Conv2d(576, 24, kernel_size=(1, 1), stride=(1, 1))
          (1): Swish()
          (2): Conv2d(24, 576, kernel_size=(1, 1), stride=(1, 1))
          (3): Sigmoid()
        )
      )
      (project_conv): Sequential(
        (0): Conv2d(576, 96, kernel_size=(1, 1), stride=(1, 1), bias=False)
        (1): BatchNorm2d(96, eps=0.001, momentum=0.01, affine=True, track_running_stats=True)
      )
    )
    (MBConv6_10): MBConv(
      (expansion_conv): Sequential(
        (0): Conv2d(96, 576, kernel_size=(1, 1), stride=(1, 1), bias=False)
        (1): BatchNorm2d(576, eps=0.001, momentum=0.01, affine=True, track_running_stats=True)
        (2): Swish()
      )
      (depthwise_conv): Sequential(
        (0): Conv2d(576, 576, kernel_size=(3, 3), stride=(1, 1), padding=(1, 1), groups=576, bias=False)
        (1): BatchNorm2d(576, eps=0.001, momentum=0.01, affine=True, track_running_stats=True)
        (2): Swish()
      )
      (squeeze_excitation): SqueezeExcitation(
        (reduce_expand): Sequential(
          (0): Conv2d(576, 24, kernel_size=(1, 1), stride=(1, 1))
          (1): Swish()
          (2): Conv2d(24, 576, kernel_size=(1, 1), stride=(1, 1))
          (3): Sigmoid()
        )
      )
      (project_conv): Sequential(
        (0): Conv2d(576, 96, kernel_size=(1, 1), stride=(1, 1), bias=False)
        (1): BatchNorm2d(96, eps=0.001, momentum=0.01, affine=True, track_running_stats=True)
      )
    )
    (MBConv6_11): MBConv(
      (expansion_conv): Sequential(
        (0): Conv2d(96, 576, kernel_size=(1, 1), stride=(1, 1), bias=False)
        (1): BatchNorm2d(576, eps=0.001, momentum=0.01, affine=True, track_running_stats=True)
        (2): Swish()
      )
      (depthwise_conv): Sequential(
        (0): Conv2d(576, 576, kernel_size=(3, 3), stride=(1, 1), padding=(1, 1), groups=576, bias=False)
        (1): BatchNorm2d(576, eps=0.001, momentum=0.01, affine=True, track_running_stats=True)
        (2): Swish()
      )
      (squeeze_excitation): SqueezeExcitation(
        (reduce_expand): Sequential(
          (0): Conv2d(576, 24, kernel_size=(1, 1), stride=(1, 1))
          (1): Swish()
          (2): Conv2d(24, 576, kernel_size=(1, 1), stride=(1, 1))
          (3): Sigmoid()
        )
      )
      (project_conv): Sequential(
        (0): Conv2d(576, 96, kernel_size=(1, 1), stride=(1, 1), bias=False)
        (1): BatchNorm2d(96, eps=0.001, momentum=0.01, affine=True, track_running_stats=True)
      )
    )
    (MBConv6_12): MBConv(
      (expansion_conv): Sequential(
        (0): Conv2d(96, 576, kernel_size=(1, 1), stride=(1, 1), bias=False)
        (1): BatchNorm2d(576, eps=0.001, momentum=0.01, affine=True, track_running_stats=True)
        (2): Swish()
      )
      (depthwise_conv): Sequential(
        (0): Conv2d(576, 576, kernel_size=(3, 3), stride=(1, 1), padding=(1, 1), groups=576, bias=False)
        (1): BatchNorm2d(576, eps=0.001, momentum=0.01, affine=True, track_running_stats=True)
        (2): Swish()
      )
      (squeeze_excitation): SqueezeExcitation(
        (reduce_expand): Sequential(
          (0): Conv2d(576, 24, kernel_size=(1, 1), stride=(1, 1))
          (1): Swish()
          (2): Conv2d(24, 576, kernel_size=(1, 1), stride=(1, 1))
          (3): Sigmoid()
        )
      )
      (project_conv): Sequential(
        (0): Conv2d(576, 96, kernel_size=(1, 1), stride=(1, 1), bias=False)
        (1): BatchNorm2d(96, eps=0.001, momentum=0.01, affine=True, track_running_stats=True)
      )
    )
    (MBConv6_13): MBConv(
      (expansion_conv): Sequential(
        (0): Conv2d(96, 576, kernel_size=(1, 1), stride=(1, 1), bias=False)
        (1): BatchNorm2d(576, eps=0.001, momentum=0.01, affine=True, track_running_stats=True)
        (2): Swish()
      )
      (depthwise_conv): Sequential(
        (0): Conv2d(576, 576, kernel_size=(5, 5), stride=(1, 1), padding=(2, 2), groups=576, bias=False)
        (1): BatchNorm2d(576, eps=0.001, momentum=0.01, affine=True, track_running_stats=True)
        (2): Swish()
      )
      (squeeze_excitation): SqueezeExcitation(
        (reduce_expand): Sequential(
          (0): Conv2d(576, 24, kernel_size=(1, 1), stride=(1, 1))
          (1): Swish()
          (2): Conv2d(24, 576, kernel_size=(1, 1), stride=(1, 1))
          (3): Sigmoid()
        )
      )
      (project_conv): Sequential(
        (0): Conv2d(576, 136, kernel_size=(1, 1), stride=(1, 1), bias=False)
        (1): BatchNorm2d(136, eps=0.001, momentum=0.01, affine=True, track_running_stats=True)
      )
    )
    (MBConv6_14): MBConv(
      (expansion_conv): Sequential(
        (0): Conv2d(136, 816, kernel_size=(1, 1), stride=(1, 1), bias=False)
        (1): BatchNorm2d(816, eps=0.001, momentum=0.01, affine=True, track_running_stats=True)
        (2): Swish()
      )
      (depthwise_conv): Sequential(
        (0): Conv2d(816, 816, kernel_size=(5, 5), stride=(1, 1), padding=(2, 2), groups=816, bias=False)
        (1): BatchNorm2d(816, eps=0.001, momentum=0.01, affine=True, track_running_stats=True)
        (2): Swish()
      )
      (squeeze_excitation): SqueezeExcitation(
        (reduce_expand): Sequential(
          (0): Conv2d(816, 34, kernel_size=(1, 1), stride=(1, 1))
          (1): Swish()
          (2): Conv2d(34, 816, kernel_size=(1, 1), stride=(1, 1))
          (3): Sigmoid()
        )
      )
      (project_conv): Sequential(
        (0): Conv2d(816, 136, kernel_size=(1, 1), stride=(1, 1), bias=False)
        (1): BatchNorm2d(136, eps=0.001, momentum=0.01, affine=True, track_running_stats=True)
      )
    )
    (MBConv6_15): MBConv(
      (expansion_conv): Sequential(
        (0): Conv2d(136, 816, kernel_size=(1, 1), stride=(1, 1), bias=False)
        (1): BatchNorm2d(816, eps=0.001, momentum=0.01, affine=True, track_running_stats=True)
        (2): Swish()
      )
      (depthwise_conv): Sequential(
        (0): Conv2d(816, 816, kernel_size=(5, 5), stride=(1, 1), padding=(2, 2), groups=816, bias=False)
        (1): BatchNorm2d(816, eps=0.001, momentum=0.01, affine=True, track_running_stats=True)
        (2): Swish()
      )
      (squeeze_excitation): SqueezeExcitation(
        (reduce_expand): Sequential(
          (0): Conv2d(816, 34, kernel_size=(1, 1), stride=(1, 1))
          (1): Swish()
          (2): Conv2d(34, 816, kernel_size=(1, 1), stride=(1, 1))
          (3): Sigmoid()
        )
      )
      (project_conv): Sequential(
        (0): Conv2d(816, 136, kernel_size=(1, 1), stride=(1, 1), bias=False)
        (1): BatchNorm2d(136, eps=0.001, momentum=0.01, affine=True, track_running_stats=True)
      )
    )
    (MBConv6_16): MBConv(
      (expansion_conv): Sequential(
        (0): Conv2d(136, 816, kernel_size=(1, 1), stride=(1, 1), bias=False)
        (1): BatchNorm2d(816, eps=0.001, momentum=0.01, affine=True, track_running_stats=True)
        (2): Swish()
      )
      (depthwise_conv): Sequential(
        (0): Conv2d(816, 816, kernel_size=(5, 5), stride=(1, 1), padding=(2, 2), groups=816, bias=False)
        (1): BatchNorm2d(816, eps=0.001, momentum=0.01, affine=True, track_running_stats=True)
        (2): Swish()
      )
      (squeeze_excitation): SqueezeExcitation(
        (reduce_expand): Sequential(
          (0): Conv2d(816, 34, kernel_size=(1, 1), stride=(1, 1))
          (1): Swish()
          (2): Conv2d(34, 816, kernel_size=(1, 1), stride=(1, 1))
          (3): Sigmoid()
        )
      )
      (project_conv): Sequential(
        (0): Conv2d(816, 136, kernel_size=(1, 1), stride=(1, 1), bias=False)
        (1): BatchNorm2d(136, eps=0.001, momentum=0.01, affine=True, track_running_stats=True)
      )
    )
    (MBConv6_17): MBConv(
      (expansion_conv): Sequential(
        (0): Conv2d(136, 816, kernel_size=(1, 1), stride=(1, 1), bias=False)
        (1): BatchNorm2d(816, eps=0.001, momentum=0.01, affine=True, track_running_stats=True)
        (2): Swish()
      )
      (depthwise_conv): Sequential(
        (0): Conv2d(816, 816, kernel_size=(5, 5), stride=(1, 1), padding=(2, 2), groups=816, bias=False)
        (1): BatchNorm2d(816, eps=0.001, momentum=0.01, affine=True, track_running_stats=True)
        (2): Swish()
      )
      (squeeze_excitation): SqueezeExcitation(
        (reduce_expand): Sequential(
          (0): Conv2d(816, 34, kernel_size=(1, 1), stride=(1, 1))
          (1): Swish()
          (2): Conv2d(34, 816, kernel_size=(1, 1), stride=(1, 1))
          (3): Sigmoid()
        )
      )
      (project_conv): Sequential(
        (0): Conv2d(816, 136, kernel_size=(1, 1), stride=(1, 1), bias=False)
        (1): BatchNorm2d(136, eps=0.001, momentum=0.01, affine=True, track_running_stats=True)
      )
    )
    (MBConv6_18): MBConv(
      (expansion_conv): Sequential(
        (0): Conv2d(136, 816, kernel_size=(1, 1), stride=(1, 1), bias=False)
        (1): BatchNorm2d(816, eps=0.001, momentum=0.01, affine=True, track_running_stats=True)
        (2): Swish()
      )
      (depthwise_conv): Sequential(
        (0): Conv2d(816, 816, kernel_size=(5, 5), stride=(2, 2), padding=(2, 2), groups=816, bias=False)
        (1): BatchNorm2d(816, eps=0.001, momentum=0.01, affine=True, track_running_stats=True)
        (2): Swish()
      )
      (squeeze_excitation): SqueezeExcitation(
        (reduce_expand): Sequential(
          (0): Conv2d(816, 34, kernel_size=(1, 1), stride=(1, 1))
          (1): Swish()
          (2): Conv2d(34, 816, kernel_size=(1, 1), stride=(1, 1))
          (3): Sigmoid()
        )
      )
      (project_conv): Sequential(
        (0): Conv2d(816, 232, kernel_size=(1, 1), stride=(1, 1), bias=False)
        (1): BatchNorm2d(232, eps=0.001, momentum=0.01, affine=True, track_running_stats=True)
      )
    )
    (MBConv6_19): MBConv(
      (expansion_conv): Sequential(
        (0): Conv2d(232, 1392, kernel_size=(1, 1), stride=(1, 1), bias=False)
        (1): BatchNorm2d(1392, eps=0.001, momentum=0.01, affine=True, track_running_stats=True)
        (2): Swish()
      )
      (depthwise_conv): Sequential(
        (0): Conv2d(1392, 1392, kernel_size=(5, 5), stride=(1, 1), padding=(2, 2), groups=1392, bias=False)
        (1): BatchNorm2d(1392, eps=0.001, momentum=0.01, affine=True, track_running_stats=True)
        (2): Swish()
      )
      (squeeze_excitation): SqueezeExcitation(
        (reduce_expand): Sequential(
          (0): Conv2d(1392, 58, kernel_size=(1, 1), stride=(1, 1))
          (1): Swish()
          (2): Conv2d(58, 1392, kernel_size=(1, 1), stride=(1, 1))
          (3): Sigmoid()
        )
      )
      (project_conv): Sequential(
        (0): Conv2d(1392, 232, kernel_size=(1, 1), stride=(1, 1), bias=False)
        (1): BatchNorm2d(232, eps=0.001, momentum=0.01, affine=True, track_running_stats=True)
      )
    )
    (MBConv6_20): MBConv(
      (expansion_conv): Sequential(
        (0): Conv2d(232, 1392, kernel_size=(1, 1), stride=(1, 1), bias=False)
        (1): BatchNorm2d(1392, eps=0.001, momentum=0.01, affine=True, track_running_stats=True)
        (2): Swish()
      )
      (depthwise_conv): Sequential(
        (0): Conv2d(1392, 1392, kernel_size=(5, 5), stride=(1, 1), padding=(2, 2), groups=1392, bias=False)
        (1): BatchNorm2d(1392, eps=0.001, momentum=0.01, affine=True, track_running_stats=True)
        (2): Swish()
      )
      (squeeze_excitation): SqueezeExcitation(
        (reduce_expand): Sequential(
          (0): Conv2d(1392, 58, kernel_size=(1, 1), stride=(1, 1))
          (1): Swish()
          (2): Conv2d(58, 1392, kernel_size=(1, 1), stride=(1, 1))
          (3): Sigmoid()
        )
      )
      (project_conv): Sequential(
        (0): Conv2d(1392, 232, kernel_size=(1, 1), stride=(1, 1), bias=False)
        (1): BatchNorm2d(232, eps=0.001, momentum=0.01, affine=True, track_running_stats=True)
      )
    )
    (MBConv6_21): MBConv(
      (expansion_conv): Sequential(
        (0): Conv2d(232, 1392, kernel_size=(1, 1), stride=(1, 1), bias=False)
        (1): BatchNorm2d(1392, eps=0.001, momentum=0.01, affine=True, track_running_stats=True)
        (2): Swish()
      )
      (depthwise_conv): Sequential(
        (0): Conv2d(1392, 1392, kernel_size=(5, 5), stride=(1, 1), padding=(2, 2), groups=1392, bias=False)
        (1): BatchNorm2d(1392, eps=0.001, momentum=0.01, affine=True, track_running_stats=True)
        (2): Swish()
      )
      (squeeze_excitation): SqueezeExcitation(
        (reduce_expand): Sequential(
          (0): Conv2d(1392, 58, kernel_size=(1, 1), stride=(1, 1))
          (1): Swish()
          (2): Conv2d(58, 1392, kernel_size=(1, 1), stride=(1, 1))
          (3): Sigmoid()
        )
      )
      (project_conv): Sequential(
        (0): Conv2d(1392, 232, kernel_size=(1, 1), stride=(1, 1), bias=False)
        (1): BatchNorm2d(232, eps=0.001, momentum=0.01, affine=True, track_running_stats=True)
      )
    )
    (MBConv6_22): MBConv(
      (expansion_conv): Sequential(
        (0): Conv2d(232, 1392, kernel_size=(1, 1), stride=(1, 1), bias=False)
        (1): BatchNorm2d(1392, eps=0.001, momentum=0.01, affine=True, track_running_stats=True)
        (2): Swish()
      )
      (depthwise_conv): Sequential(
        (0): Conv2d(1392, 1392, kernel_size=(5, 5), stride=(1, 1), padding=(2, 2), groups=1392, bias=False)
        (1): BatchNorm2d(1392, eps=0.001, momentum=0.01, affine=True, track_running_stats=True)
        (2): Swish()
      )
      (squeeze_excitation): SqueezeExcitation(
        (reduce_expand): Sequential(
          (0): Conv2d(1392, 58, kernel_size=(1, 1), stride=(1, 1))
          (1): Swish()
          (2): Conv2d(58, 1392, kernel_size=(1, 1), stride=(1, 1))
          (3): Sigmoid()
        )
      )
      (project_conv): Sequential(
        (0): Conv2d(1392, 232, kernel_size=(1, 1), stride=(1, 1), bias=False)
        (1): BatchNorm2d(232, eps=0.001, momentum=0.01, affine=True, track_running_stats=True)
      )
    )
    (MBConv6_23): MBConv(
      (expansion_conv): Sequential(
        (0): Conv2d(232, 1392, kernel_size=(1, 1), stride=(1, 1), bias=False)
        (1): BatchNorm2d(1392, eps=0.001, momentum=0.01, affine=True, track_running_stats=True)
        (2): Swish()
      )
      (depthwise_conv): Sequential(
        (0): Conv2d(1392, 1392, kernel_size=(5, 5), stride=(1, 1), padding=(2, 2), groups=1392, bias=False)
        (1): BatchNorm2d(1392, eps=0.001, momentum=0.01, affine=True, track_running_stats=True)
        (2): Swish()
      )
      (squeeze_excitation): SqueezeExcitation(
        (reduce_expand): Sequential(
          (0): Conv2d(1392, 58, kernel_size=(1, 1), stride=(1, 1))
          (1): Swish()
          (2): Conv2d(58, 1392, kernel_size=(1, 1), stride=(1, 1))
          (3): Sigmoid()
        )
      )
      (project_conv): Sequential(
        (0): Conv2d(1392, 232, kernel_size=(1, 1), stride=(1, 1), bias=False)
        (1): BatchNorm2d(232, eps=0.001, momentum=0.01, affine=True, track_running_stats=True)
      )
    )
    (MBConv6_24): MBConv(
      (expansion_conv): Sequential(
        (0): Conv2d(232, 1392, kernel_size=(1, 1), stride=(1, 1), bias=False)
        (1): BatchNorm2d(1392, eps=0.001, momentum=0.01, affine=True, track_running_stats=True)
        (2): Swish()
      )
      (depthwise_conv): Sequential(
        (0): Conv2d(1392, 1392, kernel_size=(3, 3), stride=(1, 1), padding=(1, 1), groups=1392, bias=False)
        (1): BatchNorm2d(1392, eps=0.001, momentum=0.01, affine=True, track_running_stats=True)
        (2): Swish()
      )
      (squeeze_excitation): SqueezeExcitation(
        (reduce_expand): Sequential(
          (0): Conv2d(1392, 58, kernel_size=(1, 1), stride=(1, 1))
          (1): Swish()
          (2): Conv2d(58, 1392, kernel_size=(1, 1), stride=(1, 1))
          (3): Sigmoid()
        )
      )
      (project_conv): Sequential(
        (0): Conv2d(1392, 384, kernel_size=(1, 1), stride=(1, 1), bias=False)
        (1): BatchNorm2d(384, eps=0.001, momentum=0.01, affine=True, track_running_stats=True)
      )
    )
    (MBConv6_25): MBConv(
      (expansion_conv): Sequential(
        (0): Conv2d(384, 2304, kernel_size=(1, 1), stride=(1, 1), bias=False)
        (1): BatchNorm2d(2304, eps=0.001, momentum=0.01, affine=True, track_running_stats=True)
        (2): Swish()
      )
      (depthwise_conv): Sequential(
        (0): Conv2d(2304, 2304, kernel_size=(3, 3), stride=(1, 1), padding=(1, 1), groups=2304, bias=False)
        (1): BatchNorm2d(2304, eps=0.001, momentum=0.01, affine=True, track_running_stats=True)
        (2): Swish()
      )
      (squeeze_excitation): SqueezeExcitation(
        (reduce_expand): Sequential(
          (0): Conv2d(2304, 96, kernel_size=(1, 1), stride=(1, 1))
          (1): Swish()
          (2): Conv2d(96, 2304, kernel_size=(1, 1), stride=(1, 1))
          (3): Sigmoid()
        )
      )
      (project_conv): Sequential(
        (0): Conv2d(2304, 384, kernel_size=(1, 1), stride=(1, 1), bias=False)
        (1): BatchNorm2d(384, eps=0.001, momentum=0.01, affine=True, track_running_stats=True)
      )
    )
  )
  (head): Sequential(
    (0): Conv2d(384, 1536, kernel_size=(1, 1), stride=(1, 1), bias=False)
    (1): BatchNorm2d(1536, eps=0.001, momentum=0.01, affine=True, track_running_stats=True)
    (2): Swish()
    (3): AdaptiveAvgPool2d(output_size=1)
    (4): Flatten()
    (5): Dropout(p=0.3, inplace=False)
    (6): Linear(in_features=1536, out_features=8, bias=True)
  )
)

Training finished at 2022-01-18 06:42:41.852382