

2022-01-13 19:51:32.352151

EfficientNet(
  (stem): Sequential(
    (0): Conv2d(1, 64, kernel_size=(3, 3), stride=(2, 2), padding=(1, 1), bias=False)
    (1): BatchNorm2d(64, eps=0.001, momentum=0.01, affine=True, track_running_stats=True)
    (2): Swish()
  )
  (blocks): Sequential(
    (MBConv1_0): MBConv(
      (depthwise_conv): Sequential(
        (0): Conv2d(64, 64, kernel_size=(3, 3), stride=(1, 1), padding=(1, 1), groups=64, bias=False)
        (1): BatchNorm2d(64, eps=0.001, momentum=0.01, affine=True, track_running_stats=True)
        (2): Swish()
      )
      (squeeze_excitation): SqueezeExcitation(
        (reduce_expand): Sequential(
          (0): Conv2d(64, 16, kernel_size=(1, 1), stride=(1, 1))
          (1): Swish()
          (2): Conv2d(16, 64, kernel_size=(1, 1), stride=(1, 1))
          (3): Sigmoid()
        )
      )
      (project_conv): Sequential(
        (0): Conv2d(64, 32, kernel_size=(1, 1), stride=(1, 1), bias=False)
        (1): BatchNorm2d(32, eps=0.001, momentum=0.01, affine=True, track_running_stats=True)
      )
    )
    (MBConv1_1): MBConv(
      (depthwise_conv): Sequential(
        (0): Conv2d(32, 32, kernel_size=(3, 3), stride=(1, 1), padding=(1, 1), groups=32, bias=False)
        (1): BatchNorm2d(32, eps=0.001, momentum=0.01, affine=True, track_running_stats=True)
        (2): Swish()
      )
      (squeeze_excitation): SqueezeExcitation(
        (reduce_expand): Sequential(
          (0): Conv2d(32, 8, kernel_size=(1, 1), stride=(1, 1))
          (1): Swish()
          (2): Conv2d(8, 32, kernel_size=(1, 1), stride=(1, 1))
          (3): Sigmoid()
        )
      )
      (project_conv): Sequential(
        (0): Conv2d(32, 32, kernel_size=(1, 1), stride=(1, 1), bias=False)
        (1): BatchNorm2d(32, eps=0.001, momentum=0.01, affine=True, track_running_stats=True)
      )
    )
    (MBConv1_2): MBConv(
      (depthwise_conv): Sequential(
        (0): Conv2d(32, 32, kernel_size=(3, 3), stride=(1, 1), padding=(1, 1), groups=32, bias=False)
        (1): BatchNorm2d(32, eps=0.001, momentum=0.01, affine=True, track_running_stats=True)
        (2): Swish()
      )
      (squeeze_excitation): SqueezeExcitation(
        (reduce_expand): Sequential(
          (0): Conv2d(32, 8, kernel_size=(1, 1), stride=(1, 1))
          (1): Swish()
          (2): Conv2d(8, 32, kernel_size=(1, 1), stride=(1, 1))
          (3): Sigmoid()
        )
      )
      (project_conv): Sequential(
        (0): Conv2d(32, 32, kernel_size=(1, 1), stride=(1, 1), bias=False)
        (1): BatchNorm2d(32, eps=0.001, momentum=0.01, affine=True, track_running_stats=True)
      )
    )
    (MBConv1_3): MBConv(
      (depthwise_conv): Sequential(
        (0): Conv2d(32, 32, kernel_size=(3, 3), stride=(1, 1), padding=(1, 1), groups=32, bias=False)
        (1): BatchNorm2d(32, eps=0.001, momentum=0.01, affine=True, track_running_stats=True)
        (2): Swish()
      )
      (squeeze_excitation): SqueezeExcitation(
        (reduce_expand): Sequential(
          (0): Conv2d(32, 8, kernel_size=(1, 1), stride=(1, 1))
          (1): Swish()
          (2): Conv2d(8, 32, kernel_size=(1, 1), stride=(1, 1))
          (3): Sigmoid()
        )
      )
      (project_conv): Sequential(
        (0): Conv2d(32, 32, kernel_size=(1, 1), stride=(1, 1), bias=False)
        (1): BatchNorm2d(32, eps=0.001, momentum=0.01, affine=True, track_running_stats=True)
      )
    )
    (MBConv6_4): MBConv(
      (expansion_conv): Sequential(
        (0): Conv2d(32, 192, kernel_size=(1, 1), stride=(1, 1), bias=False)
        (1): BatchNorm2d(192, eps=0.001, momentum=0.01, affine=True, track_running_stats=True)
        (2): Swish()
      )
      (depthwise_conv): Sequential(
        (0): Conv2d(192, 192, kernel_size=(3, 3), stride=(2, 2), padding=(1, 1), groups=192, bias=False)
        (1): BatchNorm2d(192, eps=0.001, momentum=0.01, affine=True, track_running_stats=True)
        (2): Swish()
      )
      (squeeze_excitation): SqueezeExcitation(
        (reduce_expand): Sequential(
          (0): Conv2d(192, 8, kernel_size=(1, 1), stride=(1, 1))
          (1): Swish()
          (2): Conv2d(8, 192, kernel_size=(1, 1), stride=(1, 1))
          (3): Sigmoid()
        )
      )
      (project_conv): Sequential(
        (0): Conv2d(192, 48, kernel_size=(1, 1), stride=(1, 1), bias=False)
        (1): BatchNorm2d(48, eps=0.001, momentum=0.01, affine=True, track_running_stats=True)
      )
    )
    (MBConv6_5): MBConv(
      (expansion_conv): Sequential(
        (0): Conv2d(48, 288, kernel_size=(1, 1), stride=(1, 1), bias=False)
        (1): BatchNorm2d(288, eps=0.001, momentum=0.01, affine=True, track_running_stats=True)
        (2): Swish()
      )
      (depthwise_conv): Sequential(
        (0): Conv2d(288, 288, kernel_size=(3, 3), stride=(1, 1), padding=(1, 1), groups=288, bias=False)
        (1): BatchNorm2d(288, eps=0.001, momentum=0.01, affine=True, track_running_stats=True)
        (2): Swish()
      )
      (squeeze_excitation): SqueezeExcitation(
        (reduce_expand): Sequential(
          (0): Conv2d(288, 12, kernel_size=(1, 1), stride=(1, 1))
          (1): Swish()
          (2): Conv2d(12, 288, kernel_size=(1, 1), stride=(1, 1))
          (3): Sigmoid()
        )
      )
      (project_conv): Sequential(
        (0): Conv2d(288, 48, kernel_size=(1, 1), stride=(1, 1), bias=False)
        (1): BatchNorm2d(48, eps=0.001, momentum=0.01, affine=True, track_running_stats=True)
      )
    )
    (MBConv6_6): MBConv(
      (expansion_conv): Sequential(
        (0): Conv2d(48, 288, kernel_size=(1, 1), stride=(1, 1), bias=False)
        (1): BatchNorm2d(288, eps=0.001, momentum=0.01, affine=True, track_running_stats=True)
        (2): Swish()
      )
      (depthwise_conv): Sequential(
        (0): Conv2d(288, 288, kernel_size=(3, 3), stride=(1, 1), padding=(1, 1), groups=288, bias=False)
        (1): BatchNorm2d(288, eps=0.001, momentum=0.01, affine=True, track_running_stats=True)
        (2): Swish()
      )
      (squeeze_excitation): SqueezeExcitation(
        (reduce_expand): Sequential(
          (0): Conv2d(288, 12, kernel_size=(1, 1), stride=(1, 1))
          (1): Swish()
          (2): Conv2d(12, 288, kernel_size=(1, 1), stride=(1, 1))
          (3): Sigmoid()
        )
      )
      (project_conv): Sequential(
        (0): Conv2d(288, 48, kernel_size=(1, 1), stride=(1, 1), bias=False)
        (1): BatchNorm2d(48, eps=0.001, momentum=0.01, affine=True, track_running_stats=True)
      )
    )
    (MBConv6_7): MBConv(
      (expansion_conv): Sequential(
        (0): Conv2d(48, 288, kernel_size=(1, 1), stride=(1, 1), bias=False)
        (1): BatchNorm2d(288, eps=0.001, momentum=0.01, affine=True, track_running_stats=True)
        (2): Swish()
      )
      (depthwise_conv): Sequential(
        (0): Conv2d(288, 288, kernel_size=(3, 3), stride=(1, 1), padding=(1, 1), groups=288, bias=False)
        (1): BatchNorm2d(288, eps=0.001, momentum=0.01, affine=True, track_running_stats=True)
        (2): Swish()
      )
      (squeeze_excitation): SqueezeExcitation(
        (reduce_expand): Sequential(
          (0): Conv2d(288, 12, kernel_size=(1, 1), stride=(1, 1))
          (1): Swish()
          (2): Conv2d(12, 288, kernel_size=(1, 1), stride=(1, 1))
          (3): Sigmoid()
        )
      )
      (project_conv): Sequential(
        (0): Conv2d(288, 48, kernel_size=(1, 1), stride=(1, 1), bias=False)
        (1): BatchNorm2d(48, eps=0.001, momentum=0.01, affine=True, track_running_stats=True)
      )
    )
    (MBConv6_8): MBConv(
      (expansion_conv): Sequential(
        (0): Conv2d(48, 288, kernel_size=(1, 1), stride=(1, 1), bias=False)
        (1): BatchNorm2d(288, eps=0.001, momentum=0.01, affine=True, track_running_stats=True)
        (2): Swish()
      )
      (depthwise_conv): Sequential(
        (0): Conv2d(288, 288, kernel_size=(3, 3), stride=(1, 1), padding=(1, 1), groups=288, bias=False)
        (1): BatchNorm2d(288, eps=0.001, momentum=0.01, affine=True, track_running_stats=True)
        (2): Swish()
      )
      (squeeze_excitation): SqueezeExcitation(
        (reduce_expand): Sequential(
          (0): Conv2d(288, 12, kernel_size=(1, 1), stride=(1, 1))
          (1): Swish()
          (2): Conv2d(12, 288, kernel_size=(1, 1), stride=(1, 1))
          (3): Sigmoid()
        )
      )
      (project_conv): Sequential(
        (0): Conv2d(288, 48, kernel_size=(1, 1), stride=(1, 1), bias=False)
        (1): BatchNorm2d(48, eps=0.001, momentum=0.01, affine=True, track_running_stats=True)
      )
    )
    (MBConv6_9): MBConv(
      (expansion_conv): Sequential(
        (0): Conv2d(48, 288, kernel_size=(1, 1), stride=(1, 1), bias=False)
        (1): BatchNorm2d(288, eps=0.001, momentum=0.01, affine=True, track_running_stats=True)
        (2): Swish()
      )
      (depthwise_conv): Sequential(
        (0): Conv2d(288, 288, kernel_size=(3, 3), stride=(1, 1), padding=(1, 1), groups=288, bias=False)
        (1): BatchNorm2d(288, eps=0.001, momentum=0.01, affine=True, track_running_stats=True)
        (2): Swish()
      )
      (squeeze_excitation): SqueezeExcitation(
        (reduce_expand): Sequential(
          (0): Conv2d(288, 12, kernel_size=(1, 1), stride=(1, 1))
          (1): Swish()
          (2): Conv2d(12, 288, kernel_size=(1, 1), stride=(1, 1))
          (3): Sigmoid()
        )
      )
      (project_conv): Sequential(
        (0): Conv2d(288, 48, kernel_size=(1, 1), stride=(1, 1), bias=False)
        (1): BatchNorm2d(48, eps=0.001, momentum=0.01, affine=True, track_running_stats=True)
      )
    )
    (MBConv6_10): MBConv(
      (expansion_conv): Sequential(
        (0): Conv2d(48, 288, kernel_size=(1, 1), stride=(1, 1), bias=False)
        (1): BatchNorm2d(288, eps=0.001, momentum=0.01, affine=True, track_running_stats=True)
        (2): Swish()
      )
      (depthwise_conv): Sequential(
        (0): Conv2d(288, 288, kernel_size=(3, 3), stride=(1, 1), padding=(1, 1), groups=288, bias=False)
        (1): BatchNorm2d(288, eps=0.001, momentum=0.01, affine=True, track_running_stats=True)
        (2): Swish()
      )
      (squeeze_excitation): SqueezeExcitation(
        (reduce_expand): Sequential(
          (0): Conv2d(288, 12, kernel_size=(1, 1), stride=(1, 1))
          (1): Swish()
          (2): Conv2d(12, 288, kernel_size=(1, 1), stride=(1, 1))
          (3): Sigmoid()
        )
      )
      (project_conv): Sequential(
        (0): Conv2d(288, 48, kernel_size=(1, 1), stride=(1, 1), bias=False)
        (1): BatchNorm2d(48, eps=0.001, momentum=0.01, affine=True, track_running_stats=True)
      )
    )
    (MBConv6_11): MBConv(
      (expansion_conv): Sequential(
        (0): Conv2d(48, 288, kernel_size=(1, 1), stride=(1, 1), bias=False)
        (1): BatchNorm2d(288, eps=0.001, momentum=0.01, affine=True, track_running_stats=True)
        (2): Swish()
      )
      (depthwise_conv): Sequential(
        (0): Conv2d(288, 288, kernel_size=(5, 5), stride=(2, 2), padding=(2, 2), groups=288, bias=False)
        (1): BatchNorm2d(288, eps=0.001, momentum=0.01, affine=True, track_running_stats=True)
        (2): Swish()
      )
      (squeeze_excitation): SqueezeExcitation(
        (reduce_expand): Sequential(
          (0): Conv2d(288, 12, kernel_size=(1, 1), stride=(1, 1))
          (1): Swish()
          (2): Conv2d(12, 288, kernel_size=(1, 1), stride=(1, 1))
          (3): Sigmoid()
        )
      )
      (project_conv): Sequential(
        (0): Conv2d(288, 80, kernel_size=(1, 1), stride=(1, 1), bias=False)
        (1): BatchNorm2d(80, eps=0.001, momentum=0.01, affine=True, track_running_stats=True)
      )
    )
    (MBConv6_12): MBConv(
      (expansion_conv): Sequential(
        (0): Conv2d(80, 480, kernel_size=(1, 1), stride=(1, 1), bias=False)
        (1): BatchNorm2d(480, eps=0.001, momentum=0.01, affine=True, track_running_stats=True)
        (2): Swish()
      )
      (depthwise_conv): Sequential(
        (0): Conv2d(480, 480, kernel_size=(5, 5), stride=(1, 1), padding=(2, 2), groups=480, bias=False)
        (1): BatchNorm2d(480, eps=0.001, momentum=0.01, affine=True, track_running_stats=True)
        (2): Swish()
      )
      (squeeze_excitation): SqueezeExcitation(
        (reduce_expand): Sequential(
          (0): Conv2d(480, 20, kernel_size=(1, 1), stride=(1, 1))
          (1): Swish()
          (2): Conv2d(20, 480, kernel_size=(1, 1), stride=(1, 1))
          (3): Sigmoid()
        )
      )
      (project_conv): Sequential(
        (0): Conv2d(480, 80, kernel_size=(1, 1), stride=(1, 1), bias=False)
        (1): BatchNorm2d(80, eps=0.001, momentum=0.01, affine=True, track_running_stats=True)
      )
    )
    (MBConv6_13): MBConv(
      (expansion_conv): Sequential(
        (0): Conv2d(80, 480, kernel_size=(1, 1), stride=(1, 1), bias=False)
        (1): BatchNorm2d(480, eps=0.001, momentum=0.01, affine=True, track_running_stats=True)
        (2): Swish()
      )
      (depthwise_conv): Sequential(
        (0): Conv2d(480, 480, kernel_size=(5, 5), stride=(1, 1), padding=(2, 2), groups=480, bias=False)
        (1): BatchNorm2d(480, eps=0.001, momentum=0.01, affine=True, track_running_stats=True)
        (2): Swish()
      )
      (squeeze_excitation): SqueezeExcitation(
        (reduce_expand): Sequential(
          (0): Conv2d(480, 20, kernel_size=(1, 1), stride=(1, 1))
          (1): Swish()
          (2): Conv2d(20, 480, kernel_size=(1, 1), stride=(1, 1))
          (3): Sigmoid()
        )
      )
      (project_conv): Sequential(
        (0): Conv2d(480, 80, kernel_size=(1, 1), stride=(1, 1), bias=False)
        (1): BatchNorm2d(80, eps=0.001, momentum=0.01, affine=True, track_running_stats=True)
      )
    )
    (MBConv6_14): MBConv(
      (expansion_conv): Sequential(
        (0): Conv2d(80, 480, kernel_size=(1, 1), stride=(1, 1), bias=False)
        (1): BatchNorm2d(480, eps=0.001, momentum=0.01, affine=True, track_running_stats=True)
        (2): Swish()
      )
      (depthwise_conv): Sequential(
        (0): Conv2d(480, 480, kernel_size=(5, 5), stride=(1, 1), padding=(2, 2), groups=480, bias=False)
        (1): BatchNorm2d(480, eps=0.001, momentum=0.01, affine=True, track_running_stats=True)
        (2): Swish()
      )
      (squeeze_excitation): SqueezeExcitation(
        (reduce_expand): Sequential(
          (0): Conv2d(480, 20, kernel_size=(1, 1), stride=(1, 1))
          (1): Swish()
          (2): Conv2d(20, 480, kernel_size=(1, 1), stride=(1, 1))
          (3): Sigmoid()
        )
      )
      (project_conv): Sequential(
        (0): Conv2d(480, 80, kernel_size=(1, 1), stride=(1, 1), bias=False)
        (1): BatchNorm2d(80, eps=0.001, momentum=0.01, affine=True, track_running_stats=True)
      )
    )
    (MBConv6_15): MBConv(
      (expansion_conv): Sequential(
        (0): Conv2d(80, 480, kernel_size=(1, 1), stride=(1, 1), bias=False)
        (1): BatchNorm2d(480, eps=0.001, momentum=0.01, affine=True, track_running_stats=True)
        (2): Swish()
      )
      (depthwise_conv): Sequential(
        (0): Conv2d(480, 480, kernel_size=(5, 5), stride=(1, 1), padding=(2, 2), groups=480, bias=False)
        (1): BatchNorm2d(480, eps=0.001, momentum=0.01, affine=True, track_running_stats=True)
        (2): Swish()
      )
      (squeeze_excitation): SqueezeExcitation(
        (reduce_expand): Sequential(
          (0): Conv2d(480, 20, kernel_size=(1, 1), stride=(1, 1))
          (1): Swish()
          (2): Conv2d(20, 480, kernel_size=(1, 1), stride=(1, 1))
          (3): Sigmoid()
        )
      )
      (project_conv): Sequential(
        (0): Conv2d(480, 80, kernel_size=(1, 1), stride=(1, 1), bias=False)
        (1): BatchNorm2d(80, eps=0.001, momentum=0.01, affine=True, track_running_stats=True)
      )
    )
    (MBConv6_16): MBConv(
      (expansion_conv): Sequential(
        (0): Conv2d(80, 480, kernel_size=(1, 1), stride=(1, 1), bias=False)
        (1): BatchNorm2d(480, eps=0.001, momentum=0.01, affine=True, track_running_stats=True)
        (2): Swish()
      )
      (depthwise_conv): Sequential(
        (0): Conv2d(480, 480, kernel_size=(5, 5), stride=(1, 1), padding=(2, 2), groups=480, bias=False)
        (1): BatchNorm2d(480, eps=0.001, momentum=0.01, affine=True, track_running_stats=True)
        (2): Swish()
      )
      (squeeze_excitation): SqueezeExcitation(
        (reduce_expand): Sequential(
          (0): Conv2d(480, 20, kernel_size=(1, 1), stride=(1, 1))
          (1): Swish()
          (2): Conv2d(20, 480, kernel_size=(1, 1), stride=(1, 1))
          (3): Sigmoid()
        )
      )
      (project_conv): Sequential(
        (0): Conv2d(480, 80, kernel_size=(1, 1), stride=(1, 1), bias=False)
        (1): BatchNorm2d(80, eps=0.001, momentum=0.01, affine=True, track_running_stats=True)
      )
    )
    (MBConv6_17): MBConv(
      (expansion_conv): Sequential(
        (0): Conv2d(80, 480, kernel_size=(1, 1), stride=(1, 1), bias=False)
        (1): BatchNorm2d(480, eps=0.001, momentum=0.01, affine=True, track_running_stats=True)
        (2): Swish()
      )
      (depthwise_conv): Sequential(
        (0): Conv2d(480, 480, kernel_size=(5, 5), stride=(1, 1), padding=(2, 2), groups=480, bias=False)
        (1): BatchNorm2d(480, eps=0.001, momentum=0.01, affine=True, track_running_stats=True)
        (2): Swish()
      )
      (squeeze_excitation): SqueezeExcitation(
        (reduce_expand): Sequential(
          (0): Conv2d(480, 20, kernel_size=(1, 1), stride=(1, 1))
          (1): Swish()
          (2): Conv2d(20, 480, kernel_size=(1, 1), stride=(1, 1))
          (3): Sigmoid()
        )
      )
      (project_conv): Sequential(
        (0): Conv2d(480, 80, kernel_size=(1, 1), stride=(1, 1), bias=False)
        (1): BatchNorm2d(80, eps=0.001, momentum=0.01, affine=True, track_running_stats=True)
      )
    )
    (MBConv6_18): MBConv(
      (expansion_conv): Sequential(
        (0): Conv2d(80, 480, kernel_size=(1, 1), stride=(1, 1), bias=False)
        (1): BatchNorm2d(480, eps=0.001, momentum=0.01, affine=True, track_running_stats=True)
        (2): Swish()
      )
      (depthwise_conv): Sequential(
        (0): Conv2d(480, 480, kernel_size=(3, 3), stride=(2, 2), padding=(1, 1), groups=480, bias=False)
        (1): BatchNorm2d(480, eps=0.001, momentum=0.01, affine=True, track_running_stats=True)
        (2): Swish()
      )
      (squeeze_excitation): SqueezeExcitation(
        (reduce_expand): Sequential(
          (0): Conv2d(480, 20, kernel_size=(1, 1), stride=(1, 1))
          (1): Swish()
          (2): Conv2d(20, 480, kernel_size=(1, 1), stride=(1, 1))
          (3): Sigmoid()
        )
      )
      (project_conv): Sequential(
        (0): Conv2d(480, 160, kernel_size=(1, 1), stride=(1, 1), bias=False)
        (1): BatchNorm2d(160, eps=0.001, momentum=0.01, affine=True, track_running_stats=True)
      )
    )
    (MBConv6_19): MBConv(
      (expansion_conv): Sequential(
        (0): Conv2d(160, 960, kernel_size=(1, 1), stride=(1, 1), bias=False)
        (1): BatchNorm2d(960, eps=0.001, momentum=0.01, affine=True, track_running_stats=True)
        (2): Swish()
      )
      (depthwise_conv): Sequential(
        (0): Conv2d(960, 960, kernel_size=(3, 3), stride=(1, 1), padding=(1, 1), groups=960, bias=False)
        (1): BatchNorm2d(960, eps=0.001, momentum=0.01, affine=True, track_running_stats=True)
        (2): Swish()
      )
      (squeeze_excitation): SqueezeExcitation(
        (reduce_expand): Sequential(
          (0): Conv2d(960, 40, kernel_size=(1, 1), stride=(1, 1))
          (1): Swish()
          (2): Conv2d(40, 960, kernel_size=(1, 1), stride=(1, 1))
          (3): Sigmoid()
        )
      )
      (project_conv): Sequential(
        (0): Conv2d(960, 160, kernel_size=(1, 1), stride=(1, 1), bias=False)
        (1): BatchNorm2d(160, eps=0.001, momentum=0.01, affine=True, track_running_stats=True)
      )
    )
    (MBConv6_20): MBConv(
      (expansion_conv): Sequential(
        (0): Conv2d(160, 960, kernel_size=(1, 1), stride=(1, 1), bias=False)
        (1): BatchNorm2d(960, eps=0.001, momentum=0.01, affine=True, track_running_stats=True)
        (2): Swish()
      )
      (depthwise_conv): Sequential(
        (0): Conv2d(960, 960, kernel_size=(3, 3), stride=(1, 1), padding=(1, 1), groups=960, bias=False)
        (1): BatchNorm2d(960, eps=0.001, momentum=0.01, affine=True, track_running_stats=True)
        (2): Swish()
      )
      (squeeze_excitation): SqueezeExcitation(
        (reduce_expand): Sequential(
          (0): Conv2d(960, 40, kernel_size=(1, 1), stride=(1, 1))
          (1): Swish()
          (2): Conv2d(40, 960, kernel_size=(1, 1), stride=(1, 1))
          (3): Sigmoid()
        )
      )
      (project_conv): Sequential(
        (0): Conv2d(960, 160, kernel_size=(1, 1), stride=(1, 1), bias=False)
        (1): BatchNorm2d(160, eps=0.001, momentum=0.01, affine=True, track_running_stats=True)
      )
    )
    (MBConv6_21): MBConv(
      (expansion_conv): Sequential(
        (0): Conv2d(160, 960, kernel_size=(1, 1), stride=(1, 1), bias=False)
        (1): BatchNorm2d(960, eps=0.001, momentum=0.01, affine=True, track_running_stats=True)
        (2): Swish()
      )
      (depthwise_conv): Sequential(
        (0): Conv2d(960, 960, kernel_size=(3, 3), stride=(1, 1), padding=(1, 1), groups=960, bias=False)
        (1): BatchNorm2d(960, eps=0.001, momentum=0.01, affine=True, track_running_stats=True)
        (2): Swish()
      )
      (squeeze_excitation): SqueezeExcitation(
        (reduce_expand): Sequential(
          (0): Conv2d(960, 40, kernel_size=(1, 1), stride=(1, 1))
          (1): Swish()
          (2): Conv2d(40, 960, kernel_size=(1, 1), stride=(1, 1))
          (3): Sigmoid()
        )
      )
      (project_conv): Sequential(
        (0): Conv2d(960, 160, kernel_size=(1, 1), stride=(1, 1), bias=False)
        (1): BatchNorm2d(160, eps=0.001, momentum=0.01, affine=True, track_running_stats=True)
      )
    )
    (MBConv6_22): MBConv(
      (expansion_conv): Sequential(
        (0): Conv2d(160, 960, kernel_size=(1, 1), stride=(1, 1), bias=False)
        (1): BatchNorm2d(960, eps=0.001, momentum=0.01, affine=True, track_running_stats=True)
        (2): Swish()
      )
      (depthwise_conv): Sequential(
        (0): Conv2d(960, 960, kernel_size=(3, 3), stride=(1, 1), padding=(1, 1), groups=960, bias=False)
        (1): BatchNorm2d(960, eps=0.001, momentum=0.01, affine=True, track_running_stats=True)
        (2): Swish()
      )
      (squeeze_excitation): SqueezeExcitation(
        (reduce_expand): Sequential(
          (0): Conv2d(960, 40, kernel_size=(1, 1), stride=(1, 1))
          (1): Swish()
          (2): Conv2d(40, 960, kernel_size=(1, 1), stride=(1, 1))
          (3): Sigmoid()
        )
      )
      (project_conv): Sequential(
        (0): Conv2d(960, 160, kernel_size=(1, 1), stride=(1, 1), bias=False)
        (1): BatchNorm2d(160, eps=0.001, momentum=0.01, affine=True, track_running_stats=True)
      )
    )
    (MBConv6_23): MBConv(
      (expansion_conv): Sequential(
        (0): Conv2d(160, 960, kernel_size=(1, 1), stride=(1, 1), bias=False)
        (1): BatchNorm2d(960, eps=0.001, momentum=0.01, affine=True, track_running_stats=True)
        (2): Swish()
      )
      (depthwise_conv): Sequential(
        (0): Conv2d(960, 960, kernel_size=(3, 3), stride=(1, 1), padding=(1, 1), groups=960, bias=False)
        (1): BatchNorm2d(960, eps=0.001, momentum=0.01, affine=True, track_running_stats=True)
        (2): Swish()
      )
      (squeeze_excitation): SqueezeExcitation(
        (reduce_expand): Sequential(
          (0): Conv2d(960, 40, kernel_size=(1, 1), stride=(1, 1))
          (1): Swish()
          (2): Conv2d(40, 960, kernel_size=(1, 1), stride=(1, 1))
          (3): Sigmoid()
        )
      )
      (project_conv): Sequential(
        (0): Conv2d(960, 160, kernel_size=(1, 1), stride=(1, 1), bias=False)
        (1): BatchNorm2d(160, eps=0.001, momentum=0.01, affine=True, track_running_stats=True)
      )
    )
    (MBConv6_24): MBConv(
      (expansion_conv): Sequential(
        (0): Conv2d(160, 960, kernel_size=(1, 1), stride=(1, 1), bias=False)
        (1): BatchNorm2d(960, eps=0.001, momentum=0.01, affine=True, track_running_stats=True)
        (2): Swish()
      )
      (depthwise_conv): Sequential(
        (0): Conv2d(960, 960, kernel_size=(3, 3), stride=(1, 1), padding=(1, 1), groups=960, bias=False)
        (1): BatchNorm2d(960, eps=0.001, momentum=0.01, affine=True, track_running_stats=True)
        (2): Swish()
      )
      (squeeze_excitation): SqueezeExcitation(
        (reduce_expand): Sequential(
          (0): Conv2d(960, 40, kernel_size=(1, 1), stride=(1, 1))
          (1): Swish()
          (2): Conv2d(40, 960, kernel_size=(1, 1), stride=(1, 1))
          (3): Sigmoid()
        )
      )
      (project_conv): Sequential(
        (0): Conv2d(960, 160, kernel_size=(1, 1), stride=(1, 1), bias=False)
        (1): BatchNorm2d(160, eps=0.001, momentum=0.01, affine=True, track_running_stats=True)
      )
    )
    (MBConv6_25): MBConv(
      (expansion_conv): Sequential(
        (0): Conv2d(160, 960, kernel_size=(1, 1), stride=(1, 1), bias=False)
        (1): BatchNorm2d(960, eps=0.001, momentum=0.01, affine=True, track_running_stats=True)
        (2): Swish()
      )
      (depthwise_conv): Sequential(
        (0): Conv2d(960, 960, kernel_size=(3, 3), stride=(1, 1), padding=(1, 1), groups=960, bias=False)
        (1): BatchNorm2d(960, eps=0.001, momentum=0.01, affine=True, track_running_stats=True)
        (2): Swish()
      )
      (squeeze_excitation): SqueezeExcitation(
        (reduce_expand): Sequential(
          (0): Conv2d(960, 40, kernel_size=(1, 1), stride=(1, 1))
          (1): Swish()
          (2): Conv2d(40, 960, kernel_size=(1, 1), stride=(1, 1))
          (3): Sigmoid()
        )
      )
      (project_conv): Sequential(
        (0): Conv2d(960, 160, kernel_size=(1, 1), stride=(1, 1), bias=False)
        (1): BatchNorm2d(160, eps=0.001, momentum=0.01, affine=True, track_running_stats=True)
      )
    )
    (MBConv6_26): MBConv(
      (expansion_conv): Sequential(
        (0): Conv2d(160, 960, kernel_size=(1, 1), stride=(1, 1), bias=False)
        (1): BatchNorm2d(960, eps=0.001, momentum=0.01, affine=True, track_running_stats=True)
        (2): Swish()
      )
      (depthwise_conv): Sequential(
        (0): Conv2d(960, 960, kernel_size=(3, 3), stride=(1, 1), padding=(1, 1), groups=960, bias=False)
        (1): BatchNorm2d(960, eps=0.001, momentum=0.01, affine=True, track_running_stats=True)
        (2): Swish()
      )
      (squeeze_excitation): SqueezeExcitation(
        (reduce_expand): Sequential(
          (0): Conv2d(960, 40, kernel_size=(1, 1), stride=(1, 1))
          (1): Swish()
          (2): Conv2d(40, 960, kernel_size=(1, 1), stride=(1, 1))
          (3): Sigmoid()
        )
      )
      (project_conv): Sequential(
        (0): Conv2d(960, 160, kernel_size=(1, 1), stride=(1, 1), bias=False)
        (1): BatchNorm2d(160, eps=0.001, momentum=0.01, affine=True, track_running_stats=True)
      )
    )
    (MBConv6_27): MBConv(
      (expansion_conv): Sequential(
        (0): Conv2d(160, 960, kernel_size=(1, 1), stride=(1, 1), bias=False)
        (1): BatchNorm2d(960, eps=0.001, momentum=0.01, affine=True, track_running_stats=True)
        (2): Swish()
      )
      (depthwise_conv): Sequential(
        (0): Conv2d(960, 960, kernel_size=(3, 3), stride=(1, 1), padding=(1, 1), groups=960, bias=False)
        (1): BatchNorm2d(960, eps=0.001, momentum=0.01, affine=True, track_running_stats=True)
        (2): Swish()
      )
      (squeeze_excitation): SqueezeExcitation(
        (reduce_expand): Sequential(
          (0): Conv2d(960, 40, kernel_size=(1, 1), stride=(1, 1))
          (1): Swish()
          (2): Conv2d(40, 960, kernel_size=(1, 1), stride=(1, 1))
          (3): Sigmoid()
        )
      )
      (project_conv): Sequential(
        (0): Conv2d(960, 160, kernel_size=(1, 1), stride=(1, 1), bias=False)
        (1): BatchNorm2d(160, eps=0.001, momentum=0.01, affine=True, track_running_stats=True)
      )
    )
    (MBConv6_28): MBConv(
      (expansion_conv): Sequential(
        (0): Conv2d(160, 960, kernel_size=(1, 1), stride=(1, 1), bias=False)
        (1): BatchNorm2d(960, eps=0.001, momentum=0.01, affine=True, track_running_stats=True)
        (2): Swish()
      )
      (depthwise_conv): Sequential(
        (0): Conv2d(960, 960, kernel_size=(5, 5), stride=(1, 1), padding=(2, 2), groups=960, bias=False)
        (1): BatchNorm2d(960, eps=0.001, momentum=0.01, affine=True, track_running_stats=True)
        (2): Swish()
      )
      (squeeze_excitation): SqueezeExcitation(
        (reduce_expand): Sequential(
          (0): Conv2d(960, 40, kernel_size=(1, 1), stride=(1, 1))
          (1): Swish()
          (2): Conv2d(40, 960, kernel_size=(1, 1), stride=(1, 1))
          (3): Sigmoid()
        )
      )
      (project_conv): Sequential(
        (0): Conv2d(960, 224, kernel_size=(1, 1), stride=(1, 1), bias=False)
        (1): BatchNorm2d(224, eps=0.001, momentum=0.01, affine=True, track_running_stats=True)
      )
    )
    (MBConv6_29): MBConv(
      (expansion_conv): Sequential(
        (0): Conv2d(224, 1344, kernel_size=(1, 1), stride=(1, 1), bias=False)
        (1): BatchNorm2d(1344, eps=0.001, momentum=0.01, affine=True, track_running_stats=True)
        (2): Swish()
      )
      (depthwise_conv): Sequential(
        (0): Conv2d(1344, 1344, kernel_size=(5, 5), stride=(1, 1), padding=(2, 2), groups=1344, bias=False)
        (1): BatchNorm2d(1344, eps=0.001, momentum=0.01, affine=True, track_running_stats=True)
        (2): Swish()
      )
      (squeeze_excitation): SqueezeExcitation(
        (reduce_expand): Sequential(
          (0): Conv2d(1344, 56, kernel_size=(1, 1), stride=(1, 1))
          (1): Swish()
          (2): Conv2d(56, 1344, kernel_size=(1, 1), stride=(1, 1))
          (3): Sigmoid()
        )
      )
      (project_conv): Sequential(
        (0): Conv2d(1344, 224, kernel_size=(1, 1), stride=(1, 1), bias=False)
        (1): BatchNorm2d(224, eps=0.001, momentum=0.01, affine=True, track_running_stats=True)
      )
    )
    (MBConv6_30): MBConv(
      (expansion_conv): Sequential(
        (0): Conv2d(224, 1344, kernel_size=(1, 1), stride=(1, 1), bias=False)
        (1): BatchNorm2d(1344, eps=0.001, momentum=0.01, affine=True, track_running_stats=True)
        (2): Swish()
      )
      (depthwise_conv): Sequential(
        (0): Conv2d(1344, 1344, kernel_size=(5, 5), stride=(1, 1), padding=(2, 2), groups=1344, bias=False)
        (1): BatchNorm2d(1344, eps=0.001, momentum=0.01, affine=True, track_running_stats=True)
        (2): Swish()
      )
      (squeeze_excitation): SqueezeExcitation(
        (reduce_expand): Sequential(
          (0): Conv2d(1344, 56, kernel_size=(1, 1), stride=(1, 1))
          (1): Swish()
          (2): Conv2d(56, 1344, kernel_size=(1, 1), stride=(1, 1))
          (3): Sigmoid()
        )
      )
      (project_conv): Sequential(
        (0): Conv2d(1344, 224, kernel_size=(1, 1), stride=(1, 1), bias=False)
        (1): BatchNorm2d(224, eps=0.001, momentum=0.01, affine=True, track_running_stats=True)
      )
    )
    (MBConv6_31): MBConv(
      (expansion_conv): Sequential(
        (0): Conv2d(224, 1344, kernel_size=(1, 1), stride=(1, 1), bias=False)
        (1): BatchNorm2d(1344, eps=0.001, momentum=0.01, affine=True, track_running_stats=True)
        (2): Swish()
      )
      (depthwise_conv): Sequential(
        (0): Conv2d(1344, 1344, kernel_size=(5, 5), stride=(1, 1), padding=(2, 2), groups=1344, bias=False)
        (1): BatchNorm2d(1344, eps=0.001, momentum=0.01, affine=True, track_running_stats=True)
        (2): Swish()
      )
      (squeeze_excitation): SqueezeExcitation(
        (reduce_expand): Sequential(
          (0): Conv2d(1344, 56, kernel_size=(1, 1), stride=(1, 1))
          (1): Swish()
          (2): Conv2d(56, 1344, kernel_size=(1, 1), stride=(1, 1))
          (3): Sigmoid()
        )
      )
      (project_conv): Sequential(
        (0): Conv2d(1344, 224, kernel_size=(1, 1), stride=(1, 1), bias=False)
        (1): BatchNorm2d(224, eps=0.001, momentum=0.01, affine=True, track_running_stats=True)
      )
    )
    (MBConv6_32): MBConv(
      (expansion_conv): Sequential(
        (0): Conv2d(224, 1344, kernel_size=(1, 1), stride=(1, 1), bias=False)
        (1): BatchNorm2d(1344, eps=0.001, momentum=0.01, affine=True, track_running_stats=True)
        (2): Swish()
      )
      (depthwise_conv): Sequential(
        (0): Conv2d(1344, 1344, kernel_size=(5, 5), stride=(1, 1), padding=(2, 2), groups=1344, bias=False)
        (1): BatchNorm2d(1344, eps=0.001, momentum=0.01, affine=True, track_running_stats=True)
        (2): Swish()
      )
      (squeeze_excitation): SqueezeExcitation(
        (reduce_expand): Sequential(
          (0): Conv2d(1344, 56, kernel_size=(1, 1), stride=(1, 1))
          (1): Swish()
          (2): Conv2d(56, 1344, kernel_size=(1, 1), stride=(1, 1))
          (3): Sigmoid()
        )
      )
      (project_conv): Sequential(
        (0): Conv2d(1344, 224, kernel_size=(1, 1), stride=(1, 1), bias=False)
        (1): BatchNorm2d(224, eps=0.001, momentum=0.01, affine=True, track_running_stats=True)
      )
    )
    (MBConv6_33): MBConv(
      (expansion_conv): Sequential(
        (0): Conv2d(224, 1344, kernel_size=(1, 1), stride=(1, 1), bias=False)
        (1): BatchNorm2d(1344, eps=0.001, momentum=0.01, affine=True, track_running_stats=True)
        (2): Swish()
      )
      (depthwise_conv): Sequential(
        (0): Conv2d(1344, 1344, kernel_size=(5, 5), stride=(1, 1), padding=(2, 2), groups=1344, bias=False)
        (1): BatchNorm2d(1344, eps=0.001, momentum=0.01, affine=True, track_running_stats=True)
        (2): Swish()
      )
      (squeeze_excitation): SqueezeExcitation(
        (reduce_expand): Sequential(
          (0): Conv2d(1344, 56, kernel_size=(1, 1), stride=(1, 1))
          (1): Swish()
          (2): Conv2d(56, 1344, kernel_size=(1, 1), stride=(1, 1))
          (3): Sigmoid()
        )
      )
      (project_conv): Sequential(
        (0): Conv2d(1344, 224, kernel_size=(1, 1), stride=(1, 1), bias=False)
        (1): BatchNorm2d(224, eps=0.001, momentum=0.01, affine=True, track_running_stats=True)
      )
    )
    (MBConv6_34): MBConv(
      (expansion_conv): Sequential(
        (0): Conv2d(224, 1344, kernel_size=(1, 1), stride=(1, 1), bias=False)
        (1): BatchNorm2d(1344, eps=0.001, momentum=0.01, affine=True, track_running_stats=True)
        (2): Swish()
      )
      (depthwise_conv): Sequential(
        (0): Conv2d(1344, 1344, kernel_size=(5, 5), stride=(1, 1), padding=(2, 2), groups=1344, bias=False)
        (1): BatchNorm2d(1344, eps=0.001, momentum=0.01, affine=True, track_running_stats=True)
        (2): Swish()
      )
      (squeeze_excitation): SqueezeExcitation(
        (reduce_expand): Sequential(
          (0): Conv2d(1344, 56, kernel_size=(1, 1), stride=(1, 1))
          (1): Swish()
          (2): Conv2d(56, 1344, kernel_size=(1, 1), stride=(1, 1))
          (3): Sigmoid()
        )
      )
      (project_conv): Sequential(
        (0): Conv2d(1344, 224, kernel_size=(1, 1), stride=(1, 1), bias=False)
        (1): BatchNorm2d(224, eps=0.001, momentum=0.01, affine=True, track_running_stats=True)
      )
    )
    (MBConv6_35): MBConv(
      (expansion_conv): Sequential(
        (0): Conv2d(224, 1344, kernel_size=(1, 1), stride=(1, 1), bias=False)
        (1): BatchNorm2d(1344, eps=0.001, momentum=0.01, affine=True, track_running_stats=True)
        (2): Swish()
      )
      (depthwise_conv): Sequential(
        (0): Conv2d(1344, 1344, kernel_size=(5, 5), stride=(1, 1), padding=(2, 2), groups=1344, bias=False)
        (1): BatchNorm2d(1344, eps=0.001, momentum=0.01, affine=True, track_running_stats=True)
        (2): Swish()
      )
      (squeeze_excitation): SqueezeExcitation(
        (reduce_expand): Sequential(
          (0): Conv2d(1344, 56, kernel_size=(1, 1), stride=(1, 1))
          (1): Swish()
          (2): Conv2d(56, 1344, kernel_size=(1, 1), stride=(1, 1))
          (3): Sigmoid()
        )
      )
      (project_conv): Sequential(
        (0): Conv2d(1344, 224, kernel_size=(1, 1), stride=(1, 1), bias=False)
        (1): BatchNorm2d(224, eps=0.001, momentum=0.01, affine=True, track_running_stats=True)
      )
    )
    (MBConv6_36): MBConv(
      (expansion_conv): Sequential(
        (0): Conv2d(224, 1344, kernel_size=(1, 1), stride=(1, 1), bias=False)
        (1): BatchNorm2d(1344, eps=0.001, momentum=0.01, affine=True, track_running_stats=True)
        (2): Swish()
      )
      (depthwise_conv): Sequential(
        (0): Conv2d(1344, 1344, kernel_size=(5, 5), stride=(1, 1), padding=(2, 2), groups=1344, bias=False)
        (1): BatchNorm2d(1344, eps=0.001, momentum=0.01, affine=True, track_running_stats=True)
        (2): Swish()
      )
      (squeeze_excitation): SqueezeExcitation(
        (reduce_expand): Sequential(
          (0): Conv2d(1344, 56, kernel_size=(1, 1), stride=(1, 1))
          (1): Swish()
          (2): Conv2d(56, 1344, kernel_size=(1, 1), stride=(1, 1))
          (3): Sigmoid()
        )
      )
      (project_conv): Sequential(
        (0): Conv2d(1344, 224, kernel_size=(1, 1), stride=(1, 1), bias=False)
        (1): BatchNorm2d(224, eps=0.001, momentum=0.01, affine=True, track_running_stats=True)
      )
    )
    (MBConv6_37): MBConv(
      (expansion_conv): Sequential(
        (0): Conv2d(224, 1344, kernel_size=(1, 1), stride=(1, 1), bias=False)
        (1): BatchNorm2d(1344, eps=0.001, momentum=0.01, affine=True, track_running_stats=True)
        (2): Swish()
      )
      (depthwise_conv): Sequential(
        (0): Conv2d(1344, 1344, kernel_size=(5, 5), stride=(1, 1), padding=(2, 2), groups=1344, bias=False)
        (1): BatchNorm2d(1344, eps=0.001, momentum=0.01, affine=True, track_running_stats=True)
        (2): Swish()
      )
      (squeeze_excitation): SqueezeExcitation(
        (reduce_expand): Sequential(
          (0): Conv2d(1344, 56, kernel_size=(1, 1), stride=(1, 1))
          (1): Swish()
          (2): Conv2d(56, 1344, kernel_size=(1, 1), stride=(1, 1))
          (3): Sigmoid()
        )
      )
      (project_conv): Sequential(
        (0): Conv2d(1344, 224, kernel_size=(1, 1), stride=(1, 1), bias=False)
        (1): BatchNorm2d(224, eps=0.001, momentum=0.01, affine=True, track_running_stats=True)
      )
    )
    (MBConv6_38): MBConv(
      (expansion_conv): Sequential(
        (0): Conv2d(224, 1344, kernel_size=(1, 1), stride=(1, 1), bias=False)
        (1): BatchNorm2d(1344, eps=0.001, momentum=0.01, affine=True, track_running_stats=True)
        (2): Swish()
      )
      (depthwise_conv): Sequential(
        (0): Conv2d(1344, 1344, kernel_size=(5, 5), stride=(2, 2), padding=(2, 2), groups=1344, bias=False)
        (1): BatchNorm2d(1344, eps=0.001, momentum=0.01, affine=True, track_running_stats=True)
        (2): Swish()
      )
      (squeeze_excitation): SqueezeExcitation(
        (reduce_expand): Sequential(
          (0): Conv2d(1344, 56, kernel_size=(1, 1), stride=(1, 1))
          (1): Swish()
          (2): Conv2d(56, 1344, kernel_size=(1, 1), stride=(1, 1))
          (3): Sigmoid()
        )
      )
      (project_conv): Sequential(
        (0): Conv2d(1344, 384, kernel_size=(1, 1), stride=(1, 1), bias=False)
        (1): BatchNorm2d(384, eps=0.001, momentum=0.01, affine=True, track_running_stats=True)
      )
    )
    (MBConv6_39): MBConv(
      (expansion_conv): Sequential(
        (0): Conv2d(384, 2304, kernel_size=(1, 1), stride=(1, 1), bias=False)
        (1): BatchNorm2d(2304, eps=0.001, momentum=0.01, affine=True, track_running_stats=True)
        (2): Swish()
      )
      (depthwise_conv): Sequential(
        (0): Conv2d(2304, 2304, kernel_size=(5, 5), stride=(1, 1), padding=(2, 2), groups=2304, bias=False)
        (1): BatchNorm2d(2304, eps=0.001, momentum=0.01, affine=True, track_running_stats=True)
        (2): Swish()
      )
      (squeeze_excitation): SqueezeExcitation(
        (reduce_expand): Sequential(
          (0): Conv2d(2304, 96, kernel_size=(1, 1), stride=(1, 1))
          (1): Swish()
          (2): Conv2d(96, 2304, kernel_size=(1, 1), stride=(1, 1))
          (3): Sigmoid()
        )
      )
      (project_conv): Sequential(
        (0): Conv2d(2304, 384, kernel_size=(1, 1), stride=(1, 1), bias=False)
        (1): BatchNorm2d(384, eps=0.001, momentum=0.01, affine=True, track_running_stats=True)
      )
    )
    (MBConv6_40): MBConv(
      (expansion_conv): Sequential(
        (0): Conv2d(384, 2304, kernel_size=(1, 1), stride=(1, 1), bias=False)
        (1): BatchNorm2d(2304, eps=0.001, momentum=0.01, affine=True, track_running_stats=True)
        (2): Swish()
      )
      (depthwise_conv): Sequential(
        (0): Conv2d(2304, 2304, kernel_size=(5, 5), stride=(1, 1), padding=(2, 2), groups=2304, bias=False)
        (1): BatchNorm2d(2304, eps=0.001, momentum=0.01, affine=True, track_running_stats=True)
        (2): Swish()
      )
      (squeeze_excitation): SqueezeExcitation(
        (reduce_expand): Sequential(
          (0): Conv2d(2304, 96, kernel_size=(1, 1), stride=(1, 1))
          (1): Swish()
          (2): Conv2d(96, 2304, kernel_size=(1, 1), stride=(1, 1))
          (3): Sigmoid()
        )
      )
      (project_conv): Sequential(
        (0): Conv2d(2304, 384, kernel_size=(1, 1), stride=(1, 1), bias=False)
        (1): BatchNorm2d(384, eps=0.001, momentum=0.01, affine=True, track_running_stats=True)
      )
    )
    (MBConv6_41): MBConv(
      (expansion_conv): Sequential(
        (0): Conv2d(384, 2304, kernel_size=(1, 1), stride=(1, 1), bias=False)
        (1): BatchNorm2d(2304, eps=0.001, momentum=0.01, affine=True, track_running_stats=True)
        (2): Swish()
      )
      (depthwise_conv): Sequential(
        (0): Conv2d(2304, 2304, kernel_size=(5, 5), stride=(1, 1), padding=(2, 2), groups=2304, bias=False)
        (1): BatchNorm2d(2304, eps=0.001, momentum=0.01, affine=True, track_running_stats=True)
        (2): Swish()
      )
      (squeeze_excitation): SqueezeExcitation(
        (reduce_expand): Sequential(
          (0): Conv2d(2304, 96, kernel_size=(1, 1), stride=(1, 1))
          (1): Swish()
          (2): Conv2d(96, 2304, kernel_size=(1, 1), stride=(1, 1))
          (3): Sigmoid()
        )
      )
      (project_conv): Sequential(
        (0): Conv2d(2304, 384, kernel_size=(1, 1), stride=(1, 1), bias=False)
        (1): BatchNorm2d(384, eps=0.001, momentum=0.01, affine=True, track_running_stats=True)
      )
    )
    (MBConv6_42): MBConv(
      (expansion_conv): Sequential(
        (0): Conv2d(384, 2304, kernel_size=(1, 1), stride=(1, 1), bias=False)
        (1): BatchNorm2d(2304, eps=0.001, momentum=0.01, affine=True, track_running_stats=True)
        (2): Swish()
      )
      (depthwise_conv): Sequential(
        (0): Conv2d(2304, 2304, kernel_size=(5, 5), stride=(1, 1), padding=(2, 2), groups=2304, bias=False)
        (1): BatchNorm2d(2304, eps=0.001, momentum=0.01, affine=True, track_running_stats=True)
        (2): Swish()
      )
      (squeeze_excitation): SqueezeExcitation(
        (reduce_expand): Sequential(
          (0): Conv2d(2304, 96, kernel_size=(1, 1), stride=(1, 1))
          (1): Swish()
          (2): Conv2d(96, 2304, kernel_size=(1, 1), stride=(1, 1))
          (3): Sigmoid()
        )
      )
      (project_conv): Sequential(
        (0): Conv2d(2304, 384, kernel_size=(1, 1), stride=(1, 1), bias=False)
        (1): BatchNorm2d(384, eps=0.001, momentum=0.01, affine=True, track_running_stats=True)
      )
    )
    (MBConv6_43): MBConv(
      (expansion_conv): Sequential(
        (0): Conv2d(384, 2304, kernel_size=(1, 1), stride=(1, 1), bias=False)
        (1): BatchNorm2d(2304, eps=0.001, momentum=0.01, affine=True, track_running_stats=True)
        (2): Swish()
      )
      (depthwise_conv): Sequential(
        (0): Conv2d(2304, 2304, kernel_size=(5, 5), stride=(1, 1), padding=(2, 2), groups=2304, bias=False)
        (1): BatchNorm2d(2304, eps=0.001, momentum=0.01, affine=True, track_running_stats=True)
        (2): Swish()
      )
      (squeeze_excitation): SqueezeExcitation(
        (reduce_expand): Sequential(
          (0): Conv2d(2304, 96, kernel_size=(1, 1), stride=(1, 1))
          (1): Swish()
          (2): Conv2d(96, 2304, kernel_size=(1, 1), stride=(1, 1))
          (3): Sigmoid()
        )
      )
      (project_conv): Sequential(
        (0): Conv2d(2304, 384, kernel_size=(1, 1), stride=(1, 1), bias=False)
        (1): BatchNorm2d(384, eps=0.001, momentum=0.01, affine=True, track_running_stats=True)
      )
    )
    (MBConv6_44): MBConv(
      (expansion_conv): Sequential(
        (0): Conv2d(384, 2304, kernel_size=(1, 1), stride=(1, 1), bias=False)
        (1): BatchNorm2d(2304, eps=0.001, momentum=0.01, affine=True, track_running_stats=True)
        (2): Swish()
      )
      (depthwise_conv): Sequential(
        (0): Conv2d(2304, 2304, kernel_size=(5, 5), stride=(1, 1), padding=(2, 2), groups=2304, bias=False)
        (1): BatchNorm2d(2304, eps=0.001, momentum=0.01, affine=True, track_running_stats=True)
        (2): Swish()
      )
      (squeeze_excitation): SqueezeExcitation(
        (reduce_expand): Sequential(
          (0): Conv2d(2304, 96, kernel_size=(1, 1), stride=(1, 1))
          (1): Swish()
          (2): Conv2d(96, 2304, kernel_size=(1, 1), stride=(1, 1))
          (3): Sigmoid()
        )
      )
      (project_conv): Sequential(
        (0): Conv2d(2304, 384, kernel_size=(1, 1), stride=(1, 1), bias=False)
        (1): BatchNorm2d(384, eps=0.001, momentum=0.01, affine=True, track_running_stats=True)
      )
    )
    (MBConv6_45): MBConv(
      (expansion_conv): Sequential(
        (0): Conv2d(384, 2304, kernel_size=(1, 1), stride=(1, 1), bias=False)
        (1): BatchNorm2d(2304, eps=0.001, momentum=0.01, affine=True, track_running_stats=True)
        (2): Swish()
      )
      (depthwise_conv): Sequential(
        (0): Conv2d(2304, 2304, kernel_size=(5, 5), stride=(1, 1), padding=(2, 2), groups=2304, bias=False)
        (1): BatchNorm2d(2304, eps=0.001, momentum=0.01, affine=True, track_running_stats=True)
        (2): Swish()
      )
      (squeeze_excitation): SqueezeExcitation(
        (reduce_expand): Sequential(
          (0): Conv2d(2304, 96, kernel_size=(1, 1), stride=(1, 1))
          (1): Swish()
          (2): Conv2d(96, 2304, kernel_size=(1, 1), stride=(1, 1))
          (3): Sigmoid()
        )
      )
      (project_conv): Sequential(
        (0): Conv2d(2304, 384, kernel_size=(1, 1), stride=(1, 1), bias=False)
        (1): BatchNorm2d(384, eps=0.001, momentum=0.01, affine=True, track_running_stats=True)
      )
    )
    (MBConv6_46): MBConv(
      (expansion_conv): Sequential(
        (0): Conv2d(384, 2304, kernel_size=(1, 1), stride=(1, 1), bias=False)
        (1): BatchNorm2d(2304, eps=0.001, momentum=0.01, affine=True, track_running_stats=True)
        (2): Swish()
      )
      (depthwise_conv): Sequential(
        (0): Conv2d(2304, 2304, kernel_size=(5, 5), stride=(1, 1), padding=(2, 2), groups=2304, bias=False)
        (1): BatchNorm2d(2304, eps=0.001, momentum=0.01, affine=True, track_running_stats=True)
        (2): Swish()
      )
      (squeeze_excitation): SqueezeExcitation(
        (reduce_expand): Sequential(
          (0): Conv2d(2304, 96, kernel_size=(1, 1), stride=(1, 1))
          (1): Swish()
          (2): Conv2d(96, 2304, kernel_size=(1, 1), stride=(1, 1))
          (3): Sigmoid()
        )
      )
      (project_conv): Sequential(
        (0): Conv2d(2304, 384, kernel_size=(1, 1), stride=(1, 1), bias=False)
        (1): BatchNorm2d(384, eps=0.001, momentum=0.01, affine=True, track_running_stats=True)
      )
    )
    (MBConv6_47): MBConv(
      (expansion_conv): Sequential(
        (0): Conv2d(384, 2304, kernel_size=(1, 1), stride=(1, 1), bias=False)
        (1): BatchNorm2d(2304, eps=0.001, momentum=0.01, affine=True, track_running_stats=True)
        (2): Swish()
      )
      (depthwise_conv): Sequential(
        (0): Conv2d(2304, 2304, kernel_size=(5, 5), stride=(1, 1), padding=(2, 2), groups=2304, bias=False)
        (1): BatchNorm2d(2304, eps=0.001, momentum=0.01, affine=True, track_running_stats=True)
        (2): Swish()
      )
      (squeeze_excitation): SqueezeExcitation(
        (reduce_expand): Sequential(
          (0): Conv2d(2304, 96, kernel_size=(1, 1), stride=(1, 1))
          (1): Swish()
          (2): Conv2d(96, 2304, kernel_size=(1, 1), stride=(1, 1))
          (3): Sigmoid()
        )
      )
      (project_conv): Sequential(
        (0): Conv2d(2304, 384, kernel_size=(1, 1), stride=(1, 1), bias=False)
        (1): BatchNorm2d(384, eps=0.001, momentum=0.01, affine=True, track_running_stats=True)
      )
    )
    (MBConv6_48): MBConv(
      (expansion_conv): Sequential(
        (0): Conv2d(384, 2304, kernel_size=(1, 1), stride=(1, 1), bias=False)
        (1): BatchNorm2d(2304, eps=0.001, momentum=0.01, affine=True, track_running_stats=True)
        (2): Swish()
      )
      (depthwise_conv): Sequential(
        (0): Conv2d(2304, 2304, kernel_size=(5, 5), stride=(1, 1), padding=(2, 2), groups=2304, bias=False)
        (1): BatchNorm2d(2304, eps=0.001, momentum=0.01, affine=True, track_running_stats=True)
        (2): Swish()
      )
      (squeeze_excitation): SqueezeExcitation(
        (reduce_expand): Sequential(
          (0): Conv2d(2304, 96, kernel_size=(1, 1), stride=(1, 1))
          (1): Swish()
          (2): Conv2d(96, 2304, kernel_size=(1, 1), stride=(1, 1))
          (3): Sigmoid()
        )
      )
      (project_conv): Sequential(
        (0): Conv2d(2304, 384, kernel_size=(1, 1), stride=(1, 1), bias=False)
        (1): BatchNorm2d(384, eps=0.001, momentum=0.01, affine=True, track_running_stats=True)
      )
    )
    (MBConv6_49): MBConv(
      (expansion_conv): Sequential(
        (0): Conv2d(384, 2304, kernel_size=(1, 1), stride=(1, 1), bias=False)
        (1): BatchNorm2d(2304, eps=0.001, momentum=0.01, affine=True, track_running_stats=True)
        (2): Swish()
      )
      (depthwise_conv): Sequential(
        (0): Conv2d(2304, 2304, kernel_size=(5, 5), stride=(1, 1), padding=(2, 2), groups=2304, bias=False)
        (1): BatchNorm2d(2304, eps=0.001, momentum=0.01, affine=True, track_running_stats=True)
        (2): Swish()
      )
      (squeeze_excitation): SqueezeExcitation(
        (reduce_expand): Sequential(
          (0): Conv2d(2304, 96, kernel_size=(1, 1), stride=(1, 1))
          (1): Swish()
          (2): Conv2d(96, 2304, kernel_size=(1, 1), stride=(1, 1))
          (3): Sigmoid()
        )
      )
      (project_conv): Sequential(
        (0): Conv2d(2304, 384, kernel_size=(1, 1), stride=(1, 1), bias=False)
        (1): BatchNorm2d(384, eps=0.001, momentum=0.01, affine=True, track_running_stats=True)
      )
    )
    (MBConv6_50): MBConv(
      (expansion_conv): Sequential(
        (0): Conv2d(384, 2304, kernel_size=(1, 1), stride=(1, 1), bias=False)
        (1): BatchNorm2d(2304, eps=0.001, momentum=0.01, affine=True, track_running_stats=True)
        (2): Swish()
      )
      (depthwise_conv): Sequential(
        (0): Conv2d(2304, 2304, kernel_size=(5, 5), stride=(1, 1), padding=(2, 2), groups=2304, bias=False)
        (1): BatchNorm2d(2304, eps=0.001, momentum=0.01, affine=True, track_running_stats=True)
        (2): Swish()
      )
      (squeeze_excitation): SqueezeExcitation(
        (reduce_expand): Sequential(
          (0): Conv2d(2304, 96, kernel_size=(1, 1), stride=(1, 1))
          (1): Swish()
          (2): Conv2d(96, 2304, kernel_size=(1, 1), stride=(1, 1))
          (3): Sigmoid()
        )
      )
      (project_conv): Sequential(
        (0): Conv2d(2304, 384, kernel_size=(1, 1), stride=(1, 1), bias=False)
        (1): BatchNorm2d(384, eps=0.001, momentum=0.01, affine=True, track_running_stats=True)
      )
    )
    (MBConv6_51): MBConv(
      (expansion_conv): Sequential(
        (0): Conv2d(384, 2304, kernel_size=(1, 1), stride=(1, 1), bias=False)
        (1): BatchNorm2d(2304, eps=0.001, momentum=0.01, affine=True, track_running_stats=True)
        (2): Swish()
      )
      (depthwise_conv): Sequential(
        (0): Conv2d(2304, 2304, kernel_size=(3, 3), stride=(1, 1), padding=(1, 1), groups=2304, bias=False)
        (1): BatchNorm2d(2304, eps=0.001, momentum=0.01, affine=True, track_running_stats=True)
        (2): Swish()
      )
      (squeeze_excitation): SqueezeExcitation(
        (reduce_expand): Sequential(
          (0): Conv2d(2304, 96, kernel_size=(1, 1), stride=(1, 1))
          (1): Swish()
          (2): Conv2d(96, 2304, kernel_size=(1, 1), stride=(1, 1))
          (3): Sigmoid()
        )
      )
      (project_conv): Sequential(
        (0): Conv2d(2304, 640, kernel_size=(1, 1), stride=(1, 1), bias=False)
        (1): BatchNorm2d(640, eps=0.001, momentum=0.01, affine=True, track_running_stats=True)
      )
    )
    (MBConv6_52): MBConv(
      (expansion_conv): Sequential(
        (0): Conv2d(640, 3840, kernel_size=(1, 1), stride=(1, 1), bias=False)
        (1): BatchNorm2d(3840, eps=0.001, momentum=0.01, affine=True, track_running_stats=True)
        (2): Swish()
      )
      (depthwise_conv): Sequential(
        (0): Conv2d(3840, 3840, kernel_size=(3, 3), stride=(1, 1), padding=(1, 1), groups=3840, bias=False)
        (1): BatchNorm2d(3840, eps=0.001, momentum=0.01, affine=True, track_running_stats=True)
        (2): Swish()
      )
      (squeeze_excitation): SqueezeExcitation(
        (reduce_expand): Sequential(
          (0): Conv2d(3840, 160, kernel_size=(1, 1), stride=(1, 1))
          (1): Swish()
          (2): Conv2d(160, 3840, kernel_size=(1, 1), stride=(1, 1))
          (3): Sigmoid()
        )
      )
      (project_conv): Sequential(
        (0): Conv2d(3840, 640, kernel_size=(1, 1), stride=(1, 1), bias=False)
        (1): BatchNorm2d(640, eps=0.001, momentum=0.01, affine=True, track_running_stats=True)
      )
    )
    (MBConv6_53): MBConv(
      (expansion_conv): Sequential(
        (0): Conv2d(640, 3840, kernel_size=(1, 1), stride=(1, 1), bias=False)
        (1): BatchNorm2d(3840, eps=0.001, momentum=0.01, affine=True, track_running_stats=True)
        (2): Swish()
      )
      (depthwise_conv): Sequential(
        (0): Conv2d(3840, 3840, kernel_size=(3, 3), stride=(1, 1), padding=(1, 1), groups=3840, bias=False)
        (1): BatchNorm2d(3840, eps=0.001, momentum=0.01, affine=True, track_running_stats=True)
        (2): Swish()
      )
      (squeeze_excitation): SqueezeExcitation(
        (reduce_expand): Sequential(
          (0): Conv2d(3840, 160, kernel_size=(1, 1), stride=(1, 1))
          (1): Swish()
          (2): Conv2d(160, 3840, kernel_size=(1, 1), stride=(1, 1))
          (3): Sigmoid()
        )
      )
      (project_conv): Sequential(
        (0): Conv2d(3840, 640, kernel_size=(1, 1), stride=(1, 1), bias=False)
        (1): BatchNorm2d(640, eps=0.001, momentum=0.01, affine=True, track_running_stats=True)
      )
    )
    (MBConv6_54): MBConv(
      (expansion_conv): Sequential(
        (0): Conv2d(640, 3840, kernel_size=(1, 1), stride=(1, 1), bias=False)
        (1): BatchNorm2d(3840, eps=0.001, momentum=0.01, affine=True, track_running_stats=True)
        (2): Swish()
      )
      (depthwise_conv): Sequential(
        (0): Conv2d(3840, 3840, kernel_size=(3, 3), stride=(1, 1), padding=(1, 1), groups=3840, bias=False)
        (1): BatchNorm2d(3840, eps=0.001, momentum=0.01, affine=True, track_running_stats=True)
        (2): Swish()
      )
      (squeeze_excitation): SqueezeExcitation(
        (reduce_expand): Sequential(
          (0): Conv2d(3840, 160, kernel_size=(1, 1), stride=(1, 1))
          (1): Swish()
          (2): Conv2d(160, 3840, kernel_size=(1, 1), stride=(1, 1))
          (3): Sigmoid()
        )
      )
      (project_conv): Sequential(
        (0): Conv2d(3840, 640, kernel_size=(1, 1), stride=(1, 1), bias=False)
        (1): BatchNorm2d(640, eps=0.001, momentum=0.01, affine=True, track_running_stats=True)
      )
    )
  )
  (head): Sequential(
    (0): Conv2d(640, 2560, kernel_size=(1, 1), stride=(1, 1), bias=False)
    (1): BatchNorm2d(2560, eps=0.001, momentum=0.01, affine=True, track_running_stats=True)
    (2): Swish()
    (3): AdaptiveAvgPool2d(output_size=1)
    (4): Flatten()
    (5): Dropout(p=0.5, inplace=False)
    (6): Linear(in_features=2560, out_features=1, bias=True)
  )
)

2022-01-13 20:43:50.553825

EfficientNet(
  (stem): Sequential(
    (0): Conv2d(1, 64, kernel_size=(3, 3), stride=(2, 2), padding=(1, 1), bias=False)
    (1): BatchNorm2d(64, eps=0.001, momentum=0.01, affine=True, track_running_stats=True)
    (2): Swish()
  )
  (blocks): Sequential(
    (MBConv1_0): MBConv(
      (depthwise_conv): Sequential(
        (0): Conv2d(64, 64, kernel_size=(3, 3), stride=(1, 1), padding=(1, 1), groups=64, bias=False)
        (1): BatchNorm2d(64, eps=0.001, momentum=0.01, affine=True, track_running_stats=True)
        (2): Swish()
      )
      (squeeze_excitation): SqueezeExcitation(
        (reduce_expand): Sequential(
          (0): Conv2d(64, 16, kernel_size=(1, 1), stride=(1, 1))
          (1): Swish()
          (2): Conv2d(16, 64, kernel_size=(1, 1), stride=(1, 1))
          (3): Sigmoid()
        )
      )
      (project_conv): Sequential(
        (0): Conv2d(64, 32, kernel_size=(1, 1), stride=(1, 1), bias=False)
        (1): BatchNorm2d(32, eps=0.001, momentum=0.01, affine=True, track_running_stats=True)
      )
    )
    (MBConv1_1): MBConv(
      (depthwise_conv): Sequential(
        (0): Conv2d(32, 32, kernel_size=(3, 3), stride=(1, 1), padding=(1, 1), groups=32, bias=False)
        (1): BatchNorm2d(32, eps=0.001, momentum=0.01, affine=True, track_running_stats=True)
        (2): Swish()
      )
      (squeeze_excitation): SqueezeExcitation(
        (reduce_expand): Sequential(
          (0): Conv2d(32, 8, kernel_size=(1, 1), stride=(1, 1))
          (1): Swish()
          (2): Conv2d(8, 32, kernel_size=(1, 1), stride=(1, 1))
          (3): Sigmoid()
        )
      )
      (project_conv): Sequential(
        (0): Conv2d(32, 32, kernel_size=(1, 1), stride=(1, 1), bias=False)
        (1): BatchNorm2d(32, eps=0.001, momentum=0.01, affine=True, track_running_stats=True)
      )
    )
    (MBConv1_2): MBConv(
      (depthwise_conv): Sequential(
        (0): Conv2d(32, 32, kernel_size=(3, 3), stride=(1, 1), padding=(1, 1), groups=32, bias=False)
        (1): BatchNorm2d(32, eps=0.001, momentum=0.01, affine=True, track_running_stats=True)
        (2): Swish()
      )
      (squeeze_excitation): SqueezeExcitation(
        (reduce_expand): Sequential(
          (0): Conv2d(32, 8, kernel_size=(1, 1), stride=(1, 1))
          (1): Swish()
          (2): Conv2d(8, 32, kernel_size=(1, 1), stride=(1, 1))
          (3): Sigmoid()
        )
      )
      (project_conv): Sequential(
        (0): Conv2d(32, 32, kernel_size=(1, 1), stride=(1, 1), bias=False)
        (1): BatchNorm2d(32, eps=0.001, momentum=0.01, affine=True, track_running_stats=True)
      )
    )
    (MBConv1_3): MBConv(
      (depthwise_conv): Sequential(
        (0): Conv2d(32, 32, kernel_size=(3, 3), stride=(1, 1), padding=(1, 1), groups=32, bias=False)
        (1): BatchNorm2d(32, eps=0.001, momentum=0.01, affine=True, track_running_stats=True)
        (2): Swish()
      )
      (squeeze_excitation): SqueezeExcitation(
        (reduce_expand): Sequential(
          (0): Conv2d(32, 8, kernel_size=(1, 1), stride=(1, 1))
          (1): Swish()
          (2): Conv2d(8, 32, kernel_size=(1, 1), stride=(1, 1))
          (3): Sigmoid()
        )
      )
      (project_conv): Sequential(
        (0): Conv2d(32, 32, kernel_size=(1, 1), stride=(1, 1), bias=False)
        (1): BatchNorm2d(32, eps=0.001, momentum=0.01, affine=True, track_running_stats=True)
      )
    )
    (MBConv6_4): MBConv(
      (expansion_conv): Sequential(
        (0): Conv2d(32, 192, kernel_size=(1, 1), stride=(1, 1), bias=False)
        (1): BatchNorm2d(192, eps=0.001, momentum=0.01, affine=True, track_running_stats=True)
        (2): Swish()
      )
      (depthwise_conv): Sequential(
        (0): Conv2d(192, 192, kernel_size=(3, 3), stride=(2, 2), padding=(1, 1), groups=192, bias=False)
        (1): BatchNorm2d(192, eps=0.001, momentum=0.01, affine=True, track_running_stats=True)
        (2): Swish()
      )
      (squeeze_excitation): SqueezeExcitation(
        (reduce_expand): Sequential(
          (0): Conv2d(192, 8, kernel_size=(1, 1), stride=(1, 1))
          (1): Swish()
          (2): Conv2d(8, 192, kernel_size=(1, 1), stride=(1, 1))
          (3): Sigmoid()
        )
      )
      (project_conv): Sequential(
        (0): Conv2d(192, 48, kernel_size=(1, 1), stride=(1, 1), bias=False)
        (1): BatchNorm2d(48, eps=0.001, momentum=0.01, affine=True, track_running_stats=True)
      )
    )
    (MBConv6_5): MBConv(
      (expansion_conv): Sequential(
        (0): Conv2d(48, 288, kernel_size=(1, 1), stride=(1, 1), bias=False)
        (1): BatchNorm2d(288, eps=0.001, momentum=0.01, affine=True, track_running_stats=True)
        (2): Swish()
      )
      (depthwise_conv): Sequential(
        (0): Conv2d(288, 288, kernel_size=(3, 3), stride=(1, 1), padding=(1, 1), groups=288, bias=False)
        (1): BatchNorm2d(288, eps=0.001, momentum=0.01, affine=True, track_running_stats=True)
        (2): Swish()
      )
      (squeeze_excitation): SqueezeExcitation(
        (reduce_expand): Sequential(
          (0): Conv2d(288, 12, kernel_size=(1, 1), stride=(1, 1))
          (1): Swish()
          (2): Conv2d(12, 288, kernel_size=(1, 1), stride=(1, 1))
          (3): Sigmoid()
        )
      )
      (project_conv): Sequential(
        (0): Conv2d(288, 48, kernel_size=(1, 1), stride=(1, 1), bias=False)
        (1): BatchNorm2d(48, eps=0.001, momentum=0.01, affine=True, track_running_stats=True)
      )
    )
    (MBConv6_6): MBConv(
      (expansion_conv): Sequential(
        (0): Conv2d(48, 288, kernel_size=(1, 1), stride=(1, 1), bias=False)
        (1): BatchNorm2d(288, eps=0.001, momentum=0.01, affine=True, track_running_stats=True)
        (2): Swish()
      )
      (depthwise_conv): Sequential(
        (0): Conv2d(288, 288, kernel_size=(3, 3), stride=(1, 1), padding=(1, 1), groups=288, bias=False)
        (1): BatchNorm2d(288, eps=0.001, momentum=0.01, affine=True, track_running_stats=True)
        (2): Swish()
      )
      (squeeze_excitation): SqueezeExcitation(
        (reduce_expand): Sequential(
          (0): Conv2d(288, 12, kernel_size=(1, 1), stride=(1, 1))
          (1): Swish()
          (2): Conv2d(12, 288, kernel_size=(1, 1), stride=(1, 1))
          (3): Sigmoid()
        )
      )
      (project_conv): Sequential(
        (0): Conv2d(288, 48, kernel_size=(1, 1), stride=(1, 1), bias=False)
        (1): BatchNorm2d(48, eps=0.001, momentum=0.01, affine=True, track_running_stats=True)
      )
    )
    (MBConv6_7): MBConv(
      (expansion_conv): Sequential(
        (0): Conv2d(48, 288, kernel_size=(1, 1), stride=(1, 1), bias=False)
        (1): BatchNorm2d(288, eps=0.001, momentum=0.01, affine=True, track_running_stats=True)
        (2): Swish()
      )
      (depthwise_conv): Sequential(
        (0): Conv2d(288, 288, kernel_size=(3, 3), stride=(1, 1), padding=(1, 1), groups=288, bias=False)
        (1): BatchNorm2d(288, eps=0.001, momentum=0.01, affine=True, track_running_stats=True)
        (2): Swish()
      )
      (squeeze_excitation): SqueezeExcitation(
        (reduce_expand): Sequential(
          (0): Conv2d(288, 12, kernel_size=(1, 1), stride=(1, 1))
          (1): Swish()
          (2): Conv2d(12, 288, kernel_size=(1, 1), stride=(1, 1))
          (3): Sigmoid()
        )
      )
      (project_conv): Sequential(
        (0): Conv2d(288, 48, kernel_size=(1, 1), stride=(1, 1), bias=False)
        (1): BatchNorm2d(48, eps=0.001, momentum=0.01, affine=True, track_running_stats=True)
      )
    )
    (MBConv6_8): MBConv(
      (expansion_conv): Sequential(
        (0): Conv2d(48, 288, kernel_size=(1, 1), stride=(1, 1), bias=False)
        (1): BatchNorm2d(288, eps=0.001, momentum=0.01, affine=True, track_running_stats=True)
        (2): Swish()
      )
      (depthwise_conv): Sequential(
        (0): Conv2d(288, 288, kernel_size=(3, 3), stride=(1, 1), padding=(1, 1), groups=288, bias=False)
        (1): BatchNorm2d(288, eps=0.001, momentum=0.01, affine=True, track_running_stats=True)
        (2): Swish()
      )
      (squeeze_excitation): SqueezeExcitation(
        (reduce_expand): Sequential(
          (0): Conv2d(288, 12, kernel_size=(1, 1), stride=(1, 1))
          (1): Swish()
          (2): Conv2d(12, 288, kernel_size=(1, 1), stride=(1, 1))
          (3): Sigmoid()
        )
      )
      (project_conv): Sequential(
        (0): Conv2d(288, 48, kernel_size=(1, 1), stride=(1, 1), bias=False)
        (1): BatchNorm2d(48, eps=0.001, momentum=0.01, affine=True, track_running_stats=True)
      )
    )
    (MBConv6_9): MBConv(
      (expansion_conv): Sequential(
        (0): Conv2d(48, 288, kernel_size=(1, 1), stride=(1, 1), bias=False)
        (1): BatchNorm2d(288, eps=0.001, momentum=0.01, affine=True, track_running_stats=True)
        (2): Swish()
      )
      (depthwise_conv): Sequential(
        (0): Conv2d(288, 288, kernel_size=(3, 3), stride=(1, 1), padding=(1, 1), groups=288, bias=False)
        (1): BatchNorm2d(288, eps=0.001, momentum=0.01, affine=True, track_running_stats=True)
        (2): Swish()
      )
      (squeeze_excitation): SqueezeExcitation(
        (reduce_expand): Sequential(
          (0): Conv2d(288, 12, kernel_size=(1, 1), stride=(1, 1))
          (1): Swish()
          (2): Conv2d(12, 288, kernel_size=(1, 1), stride=(1, 1))
          (3): Sigmoid()
        )
      )
      (project_conv): Sequential(
        (0): Conv2d(288, 48, kernel_size=(1, 1), stride=(1, 1), bias=False)
        (1): BatchNorm2d(48, eps=0.001, momentum=0.01, affine=True, track_running_stats=True)
      )
    )
    (MBConv6_10): MBConv(
      (expansion_conv): Sequential(
        (0): Conv2d(48, 288, kernel_size=(1, 1), stride=(1, 1), bias=False)
        (1): BatchNorm2d(288, eps=0.001, momentum=0.01, affine=True, track_running_stats=True)
        (2): Swish()
      )
      (depthwise_conv): Sequential(
        (0): Conv2d(288, 288, kernel_size=(3, 3), stride=(1, 1), padding=(1, 1), groups=288, bias=False)
        (1): BatchNorm2d(288, eps=0.001, momentum=0.01, affine=True, track_running_stats=True)
        (2): Swish()
      )
      (squeeze_excitation): SqueezeExcitation(
        (reduce_expand): Sequential(
          (0): Conv2d(288, 12, kernel_size=(1, 1), stride=(1, 1))
          (1): Swish()
          (2): Conv2d(12, 288, kernel_size=(1, 1), stride=(1, 1))
          (3): Sigmoid()
        )
      )
      (project_conv): Sequential(
        (0): Conv2d(288, 48, kernel_size=(1, 1), stride=(1, 1), bias=False)
        (1): BatchNorm2d(48, eps=0.001, momentum=0.01, affine=True, track_running_stats=True)
      )
    )
    (MBConv6_11): MBConv(
      (expansion_conv): Sequential(
        (0): Conv2d(48, 288, kernel_size=(1, 1), stride=(1, 1), bias=False)
        (1): BatchNorm2d(288, eps=0.001, momentum=0.01, affine=True, track_running_stats=True)
        (2): Swish()
      )
      (depthwise_conv): Sequential(
        (0): Conv2d(288, 288, kernel_size=(5, 5), stride=(2, 2), padding=(2, 2), groups=288, bias=False)
        (1): BatchNorm2d(288, eps=0.001, momentum=0.01, affine=True, track_running_stats=True)
        (2): Swish()
      )
      (squeeze_excitation): SqueezeExcitation(
        (reduce_expand): Sequential(
          (0): Conv2d(288, 12, kernel_size=(1, 1), stride=(1, 1))
          (1): Swish()
          (2): Conv2d(12, 288, kernel_size=(1, 1), stride=(1, 1))
          (3): Sigmoid()
        )
      )
      (project_conv): Sequential(
        (0): Conv2d(288, 80, kernel_size=(1, 1), stride=(1, 1), bias=False)
        (1): BatchNorm2d(80, eps=0.001, momentum=0.01, affine=True, track_running_stats=True)
      )
    )
    (MBConv6_12): MBConv(
      (expansion_conv): Sequential(
        (0): Conv2d(80, 480, kernel_size=(1, 1), stride=(1, 1), bias=False)
        (1): BatchNorm2d(480, eps=0.001, momentum=0.01, affine=True, track_running_stats=True)
        (2): Swish()
      )
      (depthwise_conv): Sequential(
        (0): Conv2d(480, 480, kernel_size=(5, 5), stride=(1, 1), padding=(2, 2), groups=480, bias=False)
        (1): BatchNorm2d(480, eps=0.001, momentum=0.01, affine=True, track_running_stats=True)
        (2): Swish()
      )
      (squeeze_excitation): SqueezeExcitation(
        (reduce_expand): Sequential(
          (0): Conv2d(480, 20, kernel_size=(1, 1), stride=(1, 1))
          (1): Swish()
          (2): Conv2d(20, 480, kernel_size=(1, 1), stride=(1, 1))
          (3): Sigmoid()
        )
      )
      (project_conv): Sequential(
        (0): Conv2d(480, 80, kernel_size=(1, 1), stride=(1, 1), bias=False)
        (1): BatchNorm2d(80, eps=0.001, momentum=0.01, affine=True, track_running_stats=True)
      )
    )
    (MBConv6_13): MBConv(
      (expansion_conv): Sequential(
        (0): Conv2d(80, 480, kernel_size=(1, 1), stride=(1, 1), bias=False)
        (1): BatchNorm2d(480, eps=0.001, momentum=0.01, affine=True, track_running_stats=True)
        (2): Swish()
      )
      (depthwise_conv): Sequential(
        (0): Conv2d(480, 480, kernel_size=(5, 5), stride=(1, 1), padding=(2, 2), groups=480, bias=False)
        (1): BatchNorm2d(480, eps=0.001, momentum=0.01, affine=True, track_running_stats=True)
        (2): Swish()
      )
      (squeeze_excitation): SqueezeExcitation(
        (reduce_expand): Sequential(
          (0): Conv2d(480, 20, kernel_size=(1, 1), stride=(1, 1))
          (1): Swish()
          (2): Conv2d(20, 480, kernel_size=(1, 1), stride=(1, 1))
          (3): Sigmoid()
        )
      )
      (project_conv): Sequential(
        (0): Conv2d(480, 80, kernel_size=(1, 1), stride=(1, 1), bias=False)
        (1): BatchNorm2d(80, eps=0.001, momentum=0.01, affine=True, track_running_stats=True)
      )
    )
    (MBConv6_14): MBConv(
      (expansion_conv): Sequential(
        (0): Conv2d(80, 480, kernel_size=(1, 1), stride=(1, 1), bias=False)
        (1): BatchNorm2d(480, eps=0.001, momentum=0.01, affine=True, track_running_stats=True)
        (2): Swish()
      )
      (depthwise_conv): Sequential(
        (0): Conv2d(480, 480, kernel_size=(5, 5), stride=(1, 1), padding=(2, 2), groups=480, bias=False)
        (1): BatchNorm2d(480, eps=0.001, momentum=0.01, affine=True, track_running_stats=True)
        (2): Swish()
      )
      (squeeze_excitation): SqueezeExcitation(
        (reduce_expand): Sequential(
          (0): Conv2d(480, 20, kernel_size=(1, 1), stride=(1, 1))
          (1): Swish()
          (2): Conv2d(20, 480, kernel_size=(1, 1), stride=(1, 1))
          (3): Sigmoid()
        )
      )
      (project_conv): Sequential(
        (0): Conv2d(480, 80, kernel_size=(1, 1), stride=(1, 1), bias=False)
        (1): BatchNorm2d(80, eps=0.001, momentum=0.01, affine=True, track_running_stats=True)
      )
    )
    (MBConv6_15): MBConv(
      (expansion_conv): Sequential(
        (0): Conv2d(80, 480, kernel_size=(1, 1), stride=(1, 1), bias=False)
        (1): BatchNorm2d(480, eps=0.001, momentum=0.01, affine=True, track_running_stats=True)
        (2): Swish()
      )
      (depthwise_conv): Sequential(
        (0): Conv2d(480, 480, kernel_size=(5, 5), stride=(1, 1), padding=(2, 2), groups=480, bias=False)
        (1): BatchNorm2d(480, eps=0.001, momentum=0.01, affine=True, track_running_stats=True)
        (2): Swish()
      )
      (squeeze_excitation): SqueezeExcitation(
        (reduce_expand): Sequential(
          (0): Conv2d(480, 20, kernel_size=(1, 1), stride=(1, 1))
          (1): Swish()
          (2): Conv2d(20, 480, kernel_size=(1, 1), stride=(1, 1))
          (3): Sigmoid()
        )
      )
      (project_conv): Sequential(
        (0): Conv2d(480, 80, kernel_size=(1, 1), stride=(1, 1), bias=False)
        (1): BatchNorm2d(80, eps=0.001, momentum=0.01, affine=True, track_running_stats=True)
      )
    )
    (MBConv6_16): MBConv(
      (expansion_conv): Sequential(
        (0): Conv2d(80, 480, kernel_size=(1, 1), stride=(1, 1), bias=False)
        (1): BatchNorm2d(480, eps=0.001, momentum=0.01, affine=True, track_running_stats=True)
        (2): Swish()
      )
      (depthwise_conv): Sequential(
        (0): Conv2d(480, 480, kernel_size=(5, 5), stride=(1, 1), padding=(2, 2), groups=480, bias=False)
        (1): BatchNorm2d(480, eps=0.001, momentum=0.01, affine=True, track_running_stats=True)
        (2): Swish()
      )
      (squeeze_excitation): SqueezeExcitation(
        (reduce_expand): Sequential(
          (0): Conv2d(480, 20, kernel_size=(1, 1), stride=(1, 1))
          (1): Swish()
          (2): Conv2d(20, 480, kernel_size=(1, 1), stride=(1, 1))
          (3): Sigmoid()
        )
      )
      (project_conv): Sequential(
        (0): Conv2d(480, 80, kernel_size=(1, 1), stride=(1, 1), bias=False)
        (1): BatchNorm2d(80, eps=0.001, momentum=0.01, affine=True, track_running_stats=True)
      )
    )
    (MBConv6_17): MBConv(
      (expansion_conv): Sequential(
        (0): Conv2d(80, 480, kernel_size=(1, 1), stride=(1, 1), bias=False)
        (1): BatchNorm2d(480, eps=0.001, momentum=0.01, affine=True, track_running_stats=True)
        (2): Swish()
      )
      (depthwise_conv): Sequential(
        (0): Conv2d(480, 480, kernel_size=(5, 5), stride=(1, 1), padding=(2, 2), groups=480, bias=False)
        (1): BatchNorm2d(480, eps=0.001, momentum=0.01, affine=True, track_running_stats=True)
        (2): Swish()
      )
      (squeeze_excitation): SqueezeExcitation(
        (reduce_expand): Sequential(
          (0): Conv2d(480, 20, kernel_size=(1, 1), stride=(1, 1))
          (1): Swish()
          (2): Conv2d(20, 480, kernel_size=(1, 1), stride=(1, 1))
          (3): Sigmoid()
        )
      )
      (project_conv): Sequential(
        (0): Conv2d(480, 80, kernel_size=(1, 1), stride=(1, 1), bias=False)
        (1): BatchNorm2d(80, eps=0.001, momentum=0.01, affine=True, track_running_stats=True)
      )
    )
    (MBConv6_18): MBConv(
      (expansion_conv): Sequential(
        (0): Conv2d(80, 480, kernel_size=(1, 1), stride=(1, 1), bias=False)
        (1): BatchNorm2d(480, eps=0.001, momentum=0.01, affine=True, track_running_stats=True)
        (2): Swish()
      )
      (depthwise_conv): Sequential(
        (0): Conv2d(480, 480, kernel_size=(3, 3), stride=(2, 2), padding=(1, 1), groups=480, bias=False)
        (1): BatchNorm2d(480, eps=0.001, momentum=0.01, affine=True, track_running_stats=True)
        (2): Swish()
      )
      (squeeze_excitation): SqueezeExcitation(
        (reduce_expand): Sequential(
          (0): Conv2d(480, 20, kernel_size=(1, 1), stride=(1, 1))
          (1): Swish()
          (2): Conv2d(20, 480, kernel_size=(1, 1), stride=(1, 1))
          (3): Sigmoid()
        )
      )
      (project_conv): Sequential(
        (0): Conv2d(480, 160, kernel_size=(1, 1), stride=(1, 1), bias=False)
        (1): BatchNorm2d(160, eps=0.001, momentum=0.01, affine=True, track_running_stats=True)
      )
    )
    (MBConv6_19): MBConv(
      (expansion_conv): Sequential(
        (0): Conv2d(160, 960, kernel_size=(1, 1), stride=(1, 1), bias=False)
        (1): BatchNorm2d(960, eps=0.001, momentum=0.01, affine=True, track_running_stats=True)
        (2): Swish()
      )
      (depthwise_conv): Sequential(
        (0): Conv2d(960, 960, kernel_size=(3, 3), stride=(1, 1), padding=(1, 1), groups=960, bias=False)
        (1): BatchNorm2d(960, eps=0.001, momentum=0.01, affine=True, track_running_stats=True)
        (2): Swish()
      )
      (squeeze_excitation): SqueezeExcitation(
        (reduce_expand): Sequential(
          (0): Conv2d(960, 40, kernel_size=(1, 1), stride=(1, 1))
          (1): Swish()
          (2): Conv2d(40, 960, kernel_size=(1, 1), stride=(1, 1))
          (3): Sigmoid()
        )
      )
      (project_conv): Sequential(
        (0): Conv2d(960, 160, kernel_size=(1, 1), stride=(1, 1), bias=False)
        (1): BatchNorm2d(160, eps=0.001, momentum=0.01, affine=True, track_running_stats=True)
      )
    )
    (MBConv6_20): MBConv(
      (expansion_conv): Sequential(
        (0): Conv2d(160, 960, kernel_size=(1, 1), stride=(1, 1), bias=False)
        (1): BatchNorm2d(960, eps=0.001, momentum=0.01, affine=True, track_running_stats=True)
        (2): Swish()
      )
      (depthwise_conv): Sequential(
        (0): Conv2d(960, 960, kernel_size=(3, 3), stride=(1, 1), padding=(1, 1), groups=960, bias=False)
        (1): BatchNorm2d(960, eps=0.001, momentum=0.01, affine=True, track_running_stats=True)
        (2): Swish()
      )
      (squeeze_excitation): SqueezeExcitation(
        (reduce_expand): Sequential(
          (0): Conv2d(960, 40, kernel_size=(1, 1), stride=(1, 1))
          (1): Swish()
          (2): Conv2d(40, 960, kernel_size=(1, 1), stride=(1, 1))
          (3): Sigmoid()
        )
      )
      (project_conv): Sequential(
        (0): Conv2d(960, 160, kernel_size=(1, 1), stride=(1, 1), bias=False)
        (1): BatchNorm2d(160, eps=0.001, momentum=0.01, affine=True, track_running_stats=True)
      )
    )
    (MBConv6_21): MBConv(
      (expansion_conv): Sequential(
        (0): Conv2d(160, 960, kernel_size=(1, 1), stride=(1, 1), bias=False)
        (1): BatchNorm2d(960, eps=0.001, momentum=0.01, affine=True, track_running_stats=True)
        (2): Swish()
      )
      (depthwise_conv): Sequential(
        (0): Conv2d(960, 960, kernel_size=(3, 3), stride=(1, 1), padding=(1, 1), groups=960, bias=False)
        (1): BatchNorm2d(960, eps=0.001, momentum=0.01, affine=True, track_running_stats=True)
        (2): Swish()
      )
      (squeeze_excitation): SqueezeExcitation(
        (reduce_expand): Sequential(
          (0): Conv2d(960, 40, kernel_size=(1, 1), stride=(1, 1))
          (1): Swish()
          (2): Conv2d(40, 960, kernel_size=(1, 1), stride=(1, 1))
          (3): Sigmoid()
        )
      )
      (project_conv): Sequential(
        (0): Conv2d(960, 160, kernel_size=(1, 1), stride=(1, 1), bias=False)
        (1): BatchNorm2d(160, eps=0.001, momentum=0.01, affine=True, track_running_stats=True)
      )
    )
    (MBConv6_22): MBConv(
      (expansion_conv): Sequential(
        (0): Conv2d(160, 960, kernel_size=(1, 1), stride=(1, 1), bias=False)
        (1): BatchNorm2d(960, eps=0.001, momentum=0.01, affine=True, track_running_stats=True)
        (2): Swish()
      )
      (depthwise_conv): Sequential(
        (0): Conv2d(960, 960, kernel_size=(3, 3), stride=(1, 1), padding=(1, 1), groups=960, bias=False)
        (1): BatchNorm2d(960, eps=0.001, momentum=0.01, affine=True, track_running_stats=True)
        (2): Swish()
      )
      (squeeze_excitation): SqueezeExcitation(
        (reduce_expand): Sequential(
          (0): Conv2d(960, 40, kernel_size=(1, 1), stride=(1, 1))
          (1): Swish()
          (2): Conv2d(40, 960, kernel_size=(1, 1), stride=(1, 1))
          (3): Sigmoid()
        )
      )
      (project_conv): Sequential(
        (0): Conv2d(960, 160, kernel_size=(1, 1), stride=(1, 1), bias=False)
        (1): BatchNorm2d(160, eps=0.001, momentum=0.01, affine=True, track_running_stats=True)
      )
    )
    (MBConv6_23): MBConv(
      (expansion_conv): Sequential(
        (0): Conv2d(160, 960, kernel_size=(1, 1), stride=(1, 1), bias=False)
        (1): BatchNorm2d(960, eps=0.001, momentum=0.01, affine=True, track_running_stats=True)
        (2): Swish()
      )
      (depthwise_conv): Sequential(
        (0): Conv2d(960, 960, kernel_size=(3, 3), stride=(1, 1), padding=(1, 1), groups=960, bias=False)
        (1): BatchNorm2d(960, eps=0.001, momentum=0.01, affine=True, track_running_stats=True)
        (2): Swish()
      )
      (squeeze_excitation): SqueezeExcitation(
        (reduce_expand): Sequential(
          (0): Conv2d(960, 40, kernel_size=(1, 1), stride=(1, 1))
          (1): Swish()
          (2): Conv2d(40, 960, kernel_size=(1, 1), stride=(1, 1))
          (3): Sigmoid()
        )
      )
      (project_conv): Sequential(
        (0): Conv2d(960, 160, kernel_size=(1, 1), stride=(1, 1), bias=False)
        (1): BatchNorm2d(160, eps=0.001, momentum=0.01, affine=True, track_running_stats=True)
      )
    )
    (MBConv6_24): MBConv(
      (expansion_conv): Sequential(
        (0): Conv2d(160, 960, kernel_size=(1, 1), stride=(1, 1), bias=False)
        (1): BatchNorm2d(960, eps=0.001, momentum=0.01, affine=True, track_running_stats=True)
        (2): Swish()
      )
      (depthwise_conv): Sequential(
        (0): Conv2d(960, 960, kernel_size=(3, 3), stride=(1, 1), padding=(1, 1), groups=960, bias=False)
        (1): BatchNorm2d(960, eps=0.001, momentum=0.01, affine=True, track_running_stats=True)
        (2): Swish()
      )
      (squeeze_excitation): SqueezeExcitation(
        (reduce_expand): Sequential(
          (0): Conv2d(960, 40, kernel_size=(1, 1), stride=(1, 1))
          (1): Swish()
          (2): Conv2d(40, 960, kernel_size=(1, 1), stride=(1, 1))
          (3): Sigmoid()
        )
      )
      (project_conv): Sequential(
        (0): Conv2d(960, 160, kernel_size=(1, 1), stride=(1, 1), bias=False)
        (1): BatchNorm2d(160, eps=0.001, momentum=0.01, affine=True, track_running_stats=True)
      )
    )
    (MBConv6_25): MBConv(
      (expansion_conv): Sequential(
        (0): Conv2d(160, 960, kernel_size=(1, 1), stride=(1, 1), bias=False)
        (1): BatchNorm2d(960, eps=0.001, momentum=0.01, affine=True, track_running_stats=True)
        (2): Swish()
      )
      (depthwise_conv): Sequential(
        (0): Conv2d(960, 960, kernel_size=(3, 3), stride=(1, 1), padding=(1, 1), groups=960, bias=False)
        (1): BatchNorm2d(960, eps=0.001, momentum=0.01, affine=True, track_running_stats=True)
        (2): Swish()
      )
      (squeeze_excitation): SqueezeExcitation(
        (reduce_expand): Sequential(
          (0): Conv2d(960, 40, kernel_size=(1, 1), stride=(1, 1))
          (1): Swish()
          (2): Conv2d(40, 960, kernel_size=(1, 1), stride=(1, 1))
          (3): Sigmoid()
        )
      )
      (project_conv): Sequential(
        (0): Conv2d(960, 160, kernel_size=(1, 1), stride=(1, 1), bias=False)
        (1): BatchNorm2d(160, eps=0.001, momentum=0.01, affine=True, track_running_stats=True)
      )
    )
    (MBConv6_26): MBConv(
      (expansion_conv): Sequential(
        (0): Conv2d(160, 960, kernel_size=(1, 1), stride=(1, 1), bias=False)
        (1): BatchNorm2d(960, eps=0.001, momentum=0.01, affine=True, track_running_stats=True)
        (2): Swish()
      )
      (depthwise_conv): Sequential(
        (0): Conv2d(960, 960, kernel_size=(3, 3), stride=(1, 1), padding=(1, 1), groups=960, bias=False)
        (1): BatchNorm2d(960, eps=0.001, momentum=0.01, affine=True, track_running_stats=True)
        (2): Swish()
      )
      (squeeze_excitation): SqueezeExcitation(
        (reduce_expand): Sequential(
          (0): Conv2d(960, 40, kernel_size=(1, 1), stride=(1, 1))
          (1): Swish()
          (2): Conv2d(40, 960, kernel_size=(1, 1), stride=(1, 1))
          (3): Sigmoid()
        )
      )
      (project_conv): Sequential(
        (0): Conv2d(960, 160, kernel_size=(1, 1), stride=(1, 1), bias=False)
        (1): BatchNorm2d(160, eps=0.001, momentum=0.01, affine=True, track_running_stats=True)
      )
    )
    (MBConv6_27): MBConv(
      (expansion_conv): Sequential(
        (0): Conv2d(160, 960, kernel_size=(1, 1), stride=(1, 1), bias=False)
        (1): BatchNorm2d(960, eps=0.001, momentum=0.01, affine=True, track_running_stats=True)
        (2): Swish()
      )
      (depthwise_conv): Sequential(
        (0): Conv2d(960, 960, kernel_size=(3, 3), stride=(1, 1), padding=(1, 1), groups=960, bias=False)
        (1): BatchNorm2d(960, eps=0.001, momentum=0.01, affine=True, track_running_stats=True)
        (2): Swish()
      )
      (squeeze_excitation): SqueezeExcitation(
        (reduce_expand): Sequential(
          (0): Conv2d(960, 40, kernel_size=(1, 1), stride=(1, 1))
          (1): Swish()
          (2): Conv2d(40, 960, kernel_size=(1, 1), stride=(1, 1))
          (3): Sigmoid()
        )
      )
      (project_conv): Sequential(
        (0): Conv2d(960, 160, kernel_size=(1, 1), stride=(1, 1), bias=False)
        (1): BatchNorm2d(160, eps=0.001, momentum=0.01, affine=True, track_running_stats=True)
      )
    )
    (MBConv6_28): MBConv(
      (expansion_conv): Sequential(
        (0): Conv2d(160, 960, kernel_size=(1, 1), stride=(1, 1), bias=False)
        (1): BatchNorm2d(960, eps=0.001, momentum=0.01, affine=True, track_running_stats=True)
        (2): Swish()
      )
      (depthwise_conv): Sequential(
        (0): Conv2d(960, 960, kernel_size=(5, 5), stride=(1, 1), padding=(2, 2), groups=960, bias=False)
        (1): BatchNorm2d(960, eps=0.001, momentum=0.01, affine=True, track_running_stats=True)
        (2): Swish()
      )
      (squeeze_excitation): SqueezeExcitation(
        (reduce_expand): Sequential(
          (0): Conv2d(960, 40, kernel_size=(1, 1), stride=(1, 1))
          (1): Swish()
          (2): Conv2d(40, 960, kernel_size=(1, 1), stride=(1, 1))
          (3): Sigmoid()
        )
      )
      (project_conv): Sequential(
        (0): Conv2d(960, 224, kernel_size=(1, 1), stride=(1, 1), bias=False)
        (1): BatchNorm2d(224, eps=0.001, momentum=0.01, affine=True, track_running_stats=True)
      )
    )
    (MBConv6_29): MBConv(
      (expansion_conv): Sequential(
        (0): Conv2d(224, 1344, kernel_size=(1, 1), stride=(1, 1), bias=False)
        (1): BatchNorm2d(1344, eps=0.001, momentum=0.01, affine=True, track_running_stats=True)
        (2): Swish()
      )
      (depthwise_conv): Sequential(
        (0): Conv2d(1344, 1344, kernel_size=(5, 5), stride=(1, 1), padding=(2, 2), groups=1344, bias=False)
        (1): BatchNorm2d(1344, eps=0.001, momentum=0.01, affine=True, track_running_stats=True)
        (2): Swish()
      )
      (squeeze_excitation): SqueezeExcitation(
        (reduce_expand): Sequential(
          (0): Conv2d(1344, 56, kernel_size=(1, 1), stride=(1, 1))
          (1): Swish()
          (2): Conv2d(56, 1344, kernel_size=(1, 1), stride=(1, 1))
          (3): Sigmoid()
        )
      )
      (project_conv): Sequential(
        (0): Conv2d(1344, 224, kernel_size=(1, 1), stride=(1, 1), bias=False)
        (1): BatchNorm2d(224, eps=0.001, momentum=0.01, affine=True, track_running_stats=True)
      )
    )
    (MBConv6_30): MBConv(
      (expansion_conv): Sequential(
        (0): Conv2d(224, 1344, kernel_size=(1, 1), stride=(1, 1), bias=False)
        (1): BatchNorm2d(1344, eps=0.001, momentum=0.01, affine=True, track_running_stats=True)
        (2): Swish()
      )
      (depthwise_conv): Sequential(
        (0): Conv2d(1344, 1344, kernel_size=(5, 5), stride=(1, 1), padding=(2, 2), groups=1344, bias=False)
        (1): BatchNorm2d(1344, eps=0.001, momentum=0.01, affine=True, track_running_stats=True)
        (2): Swish()
      )
      (squeeze_excitation): SqueezeExcitation(
        (reduce_expand): Sequential(
          (0): Conv2d(1344, 56, kernel_size=(1, 1), stride=(1, 1))
          (1): Swish()
          (2): Conv2d(56, 1344, kernel_size=(1, 1), stride=(1, 1))
          (3): Sigmoid()
        )
      )
      (project_conv): Sequential(
        (0): Conv2d(1344, 224, kernel_size=(1, 1), stride=(1, 1), bias=False)
        (1): BatchNorm2d(224, eps=0.001, momentum=0.01, affine=True, track_running_stats=True)
      )
    )
    (MBConv6_31): MBConv(
      (expansion_conv): Sequential(
        (0): Conv2d(224, 1344, kernel_size=(1, 1), stride=(1, 1), bias=False)
        (1): BatchNorm2d(1344, eps=0.001, momentum=0.01, affine=True, track_running_stats=True)
        (2): Swish()
      )
      (depthwise_conv): Sequential(
        (0): Conv2d(1344, 1344, kernel_size=(5, 5), stride=(1, 1), padding=(2, 2), groups=1344, bias=False)
        (1): BatchNorm2d(1344, eps=0.001, momentum=0.01, affine=True, track_running_stats=True)
        (2): Swish()
      )
      (squeeze_excitation): SqueezeExcitation(
        (reduce_expand): Sequential(
          (0): Conv2d(1344, 56, kernel_size=(1, 1), stride=(1, 1))
          (1): Swish()
          (2): Conv2d(56, 1344, kernel_size=(1, 1), stride=(1, 1))
          (3): Sigmoid()
        )
      )
      (project_conv): Sequential(
        (0): Conv2d(1344, 224, kernel_size=(1, 1), stride=(1, 1), bias=False)
        (1): BatchNorm2d(224, eps=0.001, momentum=0.01, affine=True, track_running_stats=True)
      )
    )
    (MBConv6_32): MBConv(
      (expansion_conv): Sequential(
        (0): Conv2d(224, 1344, kernel_size=(1, 1), stride=(1, 1), bias=False)
        (1): BatchNorm2d(1344, eps=0.001, momentum=0.01, affine=True, track_running_stats=True)
        (2): Swish()
      )
      (depthwise_conv): Sequential(
        (0): Conv2d(1344, 1344, kernel_size=(5, 5), stride=(1, 1), padding=(2, 2), groups=1344, bias=False)
        (1): BatchNorm2d(1344, eps=0.001, momentum=0.01, affine=True, track_running_stats=True)
        (2): Swish()
      )
      (squeeze_excitation): SqueezeExcitation(
        (reduce_expand): Sequential(
          (0): Conv2d(1344, 56, kernel_size=(1, 1), stride=(1, 1))
          (1): Swish()
          (2): Conv2d(56, 1344, kernel_size=(1, 1), stride=(1, 1))
          (3): Sigmoid()
        )
      )
      (project_conv): Sequential(
        (0): Conv2d(1344, 224, kernel_size=(1, 1), stride=(1, 1), bias=False)
        (1): BatchNorm2d(224, eps=0.001, momentum=0.01, affine=True, track_running_stats=True)
      )
    )
    (MBConv6_33): MBConv(
      (expansion_conv): Sequential(
        (0): Conv2d(224, 1344, kernel_size=(1, 1), stride=(1, 1), bias=False)
        (1): BatchNorm2d(1344, eps=0.001, momentum=0.01, affine=True, track_running_stats=True)
        (2): Swish()
      )
      (depthwise_conv): Sequential(
        (0): Conv2d(1344, 1344, kernel_size=(5, 5), stride=(1, 1), padding=(2, 2), groups=1344, bias=False)
        (1): BatchNorm2d(1344, eps=0.001, momentum=0.01, affine=True, track_running_stats=True)
        (2): Swish()
      )
      (squeeze_excitation): SqueezeExcitation(
        (reduce_expand): Sequential(
          (0): Conv2d(1344, 56, kernel_size=(1, 1), stride=(1, 1))
          (1): Swish()
          (2): Conv2d(56, 1344, kernel_size=(1, 1), stride=(1, 1))
          (3): Sigmoid()
        )
      )
      (project_conv): Sequential(
        (0): Conv2d(1344, 224, kernel_size=(1, 1), stride=(1, 1), bias=False)
        (1): BatchNorm2d(224, eps=0.001, momentum=0.01, affine=True, track_running_stats=True)
      )
    )
    (MBConv6_34): MBConv(
      (expansion_conv): Sequential(
        (0): Conv2d(224, 1344, kernel_size=(1, 1), stride=(1, 1), bias=False)
        (1): BatchNorm2d(1344, eps=0.001, momentum=0.01, affine=True, track_running_stats=True)
        (2): Swish()
      )
      (depthwise_conv): Sequential(
        (0): Conv2d(1344, 1344, kernel_size=(5, 5), stride=(1, 1), padding=(2, 2), groups=1344, bias=False)
        (1): BatchNorm2d(1344, eps=0.001, momentum=0.01, affine=True, track_running_stats=True)
        (2): Swish()
      )
      (squeeze_excitation): SqueezeExcitation(
        (reduce_expand): Sequential(
          (0): Conv2d(1344, 56, kernel_size=(1, 1), stride=(1, 1))
          (1): Swish()
          (2): Conv2d(56, 1344, kernel_size=(1, 1), stride=(1, 1))
          (3): Sigmoid()
        )
      )
      (project_conv): Sequential(
        (0): Conv2d(1344, 224, kernel_size=(1, 1), stride=(1, 1), bias=False)
        (1): BatchNorm2d(224, eps=0.001, momentum=0.01, affine=True, track_running_stats=True)
      )
    )
    (MBConv6_35): MBConv(
      (expansion_conv): Sequential(
        (0): Conv2d(224, 1344, kernel_size=(1, 1), stride=(1, 1), bias=False)
        (1): BatchNorm2d(1344, eps=0.001, momentum=0.01, affine=True, track_running_stats=True)
        (2): Swish()
      )
      (depthwise_conv): Sequential(
        (0): Conv2d(1344, 1344, kernel_size=(5, 5), stride=(1, 1), padding=(2, 2), groups=1344, bias=False)
        (1): BatchNorm2d(1344, eps=0.001, momentum=0.01, affine=True, track_running_stats=True)
        (2): Swish()
      )
      (squeeze_excitation): SqueezeExcitation(
        (reduce_expand): Sequential(
          (0): Conv2d(1344, 56, kernel_size=(1, 1), stride=(1, 1))
          (1): Swish()
          (2): Conv2d(56, 1344, kernel_size=(1, 1), stride=(1, 1))
          (3): Sigmoid()
        )
      )
      (project_conv): Sequential(
        (0): Conv2d(1344, 224, kernel_size=(1, 1), stride=(1, 1), bias=False)
        (1): BatchNorm2d(224, eps=0.001, momentum=0.01, affine=True, track_running_stats=True)
      )
    )
    (MBConv6_36): MBConv(
      (expansion_conv): Sequential(
        (0): Conv2d(224, 1344, kernel_size=(1, 1), stride=(1, 1), bias=False)
        (1): BatchNorm2d(1344, eps=0.001, momentum=0.01, affine=True, track_running_stats=True)
        (2): Swish()
      )
      (depthwise_conv): Sequential(
        (0): Conv2d(1344, 1344, kernel_size=(5, 5), stride=(1, 1), padding=(2, 2), groups=1344, bias=False)
        (1): BatchNorm2d(1344, eps=0.001, momentum=0.01, affine=True, track_running_stats=True)
        (2): Swish()
      )
      (squeeze_excitation): SqueezeExcitation(
        (reduce_expand): Sequential(
          (0): Conv2d(1344, 56, kernel_size=(1, 1), stride=(1, 1))
          (1): Swish()
          (2): Conv2d(56, 1344, kernel_size=(1, 1), stride=(1, 1))
          (3): Sigmoid()
        )
      )
      (project_conv): Sequential(
        (0): Conv2d(1344, 224, kernel_size=(1, 1), stride=(1, 1), bias=False)
        (1): BatchNorm2d(224, eps=0.001, momentum=0.01, affine=True, track_running_stats=True)
      )
    )
    (MBConv6_37): MBConv(
      (expansion_conv): Sequential(
        (0): Conv2d(224, 1344, kernel_size=(1, 1), stride=(1, 1), bias=False)
        (1): BatchNorm2d(1344, eps=0.001, momentum=0.01, affine=True, track_running_stats=True)
        (2): Swish()
      )
      (depthwise_conv): Sequential(
        (0): Conv2d(1344, 1344, kernel_size=(5, 5), stride=(1, 1), padding=(2, 2), groups=1344, bias=False)
        (1): BatchNorm2d(1344, eps=0.001, momentum=0.01, affine=True, track_running_stats=True)
        (2): Swish()
      )
      (squeeze_excitation): SqueezeExcitation(
        (reduce_expand): Sequential(
          (0): Conv2d(1344, 56, kernel_size=(1, 1), stride=(1, 1))
          (1): Swish()
          (2): Conv2d(56, 1344, kernel_size=(1, 1), stride=(1, 1))
          (3): Sigmoid()
        )
      )
      (project_conv): Sequential(
        (0): Conv2d(1344, 224, kernel_size=(1, 1), stride=(1, 1), bias=False)
        (1): BatchNorm2d(224, eps=0.001, momentum=0.01, affine=True, track_running_stats=True)
      )
    )
    (MBConv6_38): MBConv(
      (expansion_conv): Sequential(
        (0): Conv2d(224, 1344, kernel_size=(1, 1), stride=(1, 1), bias=False)
        (1): BatchNorm2d(1344, eps=0.001, momentum=0.01, affine=True, track_running_stats=True)
        (2): Swish()
      )
      (depthwise_conv): Sequential(
        (0): Conv2d(1344, 1344, kernel_size=(5, 5), stride=(2, 2), padding=(2, 2), groups=1344, bias=False)
        (1): BatchNorm2d(1344, eps=0.001, momentum=0.01, affine=True, track_running_stats=True)
        (2): Swish()
      )
      (squeeze_excitation): SqueezeExcitation(
        (reduce_expand): Sequential(
          (0): Conv2d(1344, 56, kernel_size=(1, 1), stride=(1, 1))
          (1): Swish()
          (2): Conv2d(56, 1344, kernel_size=(1, 1), stride=(1, 1))
          (3): Sigmoid()
        )
      )
      (project_conv): Sequential(
        (0): Conv2d(1344, 384, kernel_size=(1, 1), stride=(1, 1), bias=False)
        (1): BatchNorm2d(384, eps=0.001, momentum=0.01, affine=True, track_running_stats=True)
      )
    )
    (MBConv6_39): MBConv(
      (expansion_conv): Sequential(
        (0): Conv2d(384, 2304, kernel_size=(1, 1), stride=(1, 1), bias=False)
        (1): BatchNorm2d(2304, eps=0.001, momentum=0.01, affine=True, track_running_stats=True)
        (2): Swish()
      )
      (depthwise_conv): Sequential(
        (0): Conv2d(2304, 2304, kernel_size=(5, 5), stride=(1, 1), padding=(2, 2), groups=2304, bias=False)
        (1): BatchNorm2d(2304, eps=0.001, momentum=0.01, affine=True, track_running_stats=True)
        (2): Swish()
      )
      (squeeze_excitation): SqueezeExcitation(
        (reduce_expand): Sequential(
          (0): Conv2d(2304, 96, kernel_size=(1, 1), stride=(1, 1))
          (1): Swish()
          (2): Conv2d(96, 2304, kernel_size=(1, 1), stride=(1, 1))
          (3): Sigmoid()
        )
      )
      (project_conv): Sequential(
        (0): Conv2d(2304, 384, kernel_size=(1, 1), stride=(1, 1), bias=False)
        (1): BatchNorm2d(384, eps=0.001, momentum=0.01, affine=True, track_running_stats=True)
      )
    )
    (MBConv6_40): MBConv(
      (expansion_conv): Sequential(
        (0): Conv2d(384, 2304, kernel_size=(1, 1), stride=(1, 1), bias=False)
        (1): BatchNorm2d(2304, eps=0.001, momentum=0.01, affine=True, track_running_stats=True)
        (2): Swish()
      )
      (depthwise_conv): Sequential(
        (0): Conv2d(2304, 2304, kernel_size=(5, 5), stride=(1, 1), padding=(2, 2), groups=2304, bias=False)
        (1): BatchNorm2d(2304, eps=0.001, momentum=0.01, affine=True, track_running_stats=True)
        (2): Swish()
      )
      (squeeze_excitation): SqueezeExcitation(
        (reduce_expand): Sequential(
          (0): Conv2d(2304, 96, kernel_size=(1, 1), stride=(1, 1))
          (1): Swish()
          (2): Conv2d(96, 2304, kernel_size=(1, 1), stride=(1, 1))
          (3): Sigmoid()
        )
      )
      (project_conv): Sequential(
        (0): Conv2d(2304, 384, kernel_size=(1, 1), stride=(1, 1), bias=False)
        (1): BatchNorm2d(384, eps=0.001, momentum=0.01, affine=True, track_running_stats=True)
      )
    )
    (MBConv6_41): MBConv(
      (expansion_conv): Sequential(
        (0): Conv2d(384, 2304, kernel_size=(1, 1), stride=(1, 1), bias=False)
        (1): BatchNorm2d(2304, eps=0.001, momentum=0.01, affine=True, track_running_stats=True)
        (2): Swish()
      )
      (depthwise_conv): Sequential(
        (0): Conv2d(2304, 2304, kernel_size=(5, 5), stride=(1, 1), padding=(2, 2), groups=2304, bias=False)
        (1): BatchNorm2d(2304, eps=0.001, momentum=0.01, affine=True, track_running_stats=True)
        (2): Swish()
      )
      (squeeze_excitation): SqueezeExcitation(
        (reduce_expand): Sequential(
          (0): Conv2d(2304, 96, kernel_size=(1, 1), stride=(1, 1))
          (1): Swish()
          (2): Conv2d(96, 2304, kernel_size=(1, 1), stride=(1, 1))
          (3): Sigmoid()
        )
      )
      (project_conv): Sequential(
        (0): Conv2d(2304, 384, kernel_size=(1, 1), stride=(1, 1), bias=False)
        (1): BatchNorm2d(384, eps=0.001, momentum=0.01, affine=True, track_running_stats=True)
      )
    )
    (MBConv6_42): MBConv(
      (expansion_conv): Sequential(
        (0): Conv2d(384, 2304, kernel_size=(1, 1), stride=(1, 1), bias=False)
        (1): BatchNorm2d(2304, eps=0.001, momentum=0.01, affine=True, track_running_stats=True)
        (2): Swish()
      )
      (depthwise_conv): Sequential(
        (0): Conv2d(2304, 2304, kernel_size=(5, 5), stride=(1, 1), padding=(2, 2), groups=2304, bias=False)
        (1): BatchNorm2d(2304, eps=0.001, momentum=0.01, affine=True, track_running_stats=True)
        (2): Swish()
      )
      (squeeze_excitation): SqueezeExcitation(
        (reduce_expand): Sequential(
          (0): Conv2d(2304, 96, kernel_size=(1, 1), stride=(1, 1))
          (1): Swish()
          (2): Conv2d(96, 2304, kernel_size=(1, 1), stride=(1, 1))
          (3): Sigmoid()
        )
      )
      (project_conv): Sequential(
        (0): Conv2d(2304, 384, kernel_size=(1, 1), stride=(1, 1), bias=False)
        (1): BatchNorm2d(384, eps=0.001, momentum=0.01, affine=True, track_running_stats=True)
      )
    )
    (MBConv6_43): MBConv(
      (expansion_conv): Sequential(
        (0): Conv2d(384, 2304, kernel_size=(1, 1), stride=(1, 1), bias=False)
        (1): BatchNorm2d(2304, eps=0.001, momentum=0.01, affine=True, track_running_stats=True)
        (2): Swish()
      )
      (depthwise_conv): Sequential(
        (0): Conv2d(2304, 2304, kernel_size=(5, 5), stride=(1, 1), padding=(2, 2), groups=2304, bias=False)
        (1): BatchNorm2d(2304, eps=0.001, momentum=0.01, affine=True, track_running_stats=True)
        (2): Swish()
      )
      (squeeze_excitation): SqueezeExcitation(
        (reduce_expand): Sequential(
          (0): Conv2d(2304, 96, kernel_size=(1, 1), stride=(1, 1))
          (1): Swish()
          (2): Conv2d(96, 2304, kernel_size=(1, 1), stride=(1, 1))
          (3): Sigmoid()
        )
      )
      (project_conv): Sequential(
        (0): Conv2d(2304, 384, kernel_size=(1, 1), stride=(1, 1), bias=False)
        (1): BatchNorm2d(384, eps=0.001, momentum=0.01, affine=True, track_running_stats=True)
      )
    )
    (MBConv6_44): MBConv(
      (expansion_conv): Sequential(
        (0): Conv2d(384, 2304, kernel_size=(1, 1), stride=(1, 1), bias=False)
        (1): BatchNorm2d(2304, eps=0.001, momentum=0.01, affine=True, track_running_stats=True)
        (2): Swish()
      )
      (depthwise_conv): Sequential(
        (0): Conv2d(2304, 2304, kernel_size=(5, 5), stride=(1, 1), padding=(2, 2), groups=2304, bias=False)
        (1): BatchNorm2d(2304, eps=0.001, momentum=0.01, affine=True, track_running_stats=True)
        (2): Swish()
      )
      (squeeze_excitation): SqueezeExcitation(
        (reduce_expand): Sequential(
          (0): Conv2d(2304, 96, kernel_size=(1, 1), stride=(1, 1))
          (1): Swish()
          (2): Conv2d(96, 2304, kernel_size=(1, 1), stride=(1, 1))
          (3): Sigmoid()
        )
      )
      (project_conv): Sequential(
        (0): Conv2d(2304, 384, kernel_size=(1, 1), stride=(1, 1), bias=False)
        (1): BatchNorm2d(384, eps=0.001, momentum=0.01, affine=True, track_running_stats=True)
      )
    )
    (MBConv6_45): MBConv(
      (expansion_conv): Sequential(
        (0): Conv2d(384, 2304, kernel_size=(1, 1), stride=(1, 1), bias=False)
        (1): BatchNorm2d(2304, eps=0.001, momentum=0.01, affine=True, track_running_stats=True)
        (2): Swish()
      )
      (depthwise_conv): Sequential(
        (0): Conv2d(2304, 2304, kernel_size=(5, 5), stride=(1, 1), padding=(2, 2), groups=2304, bias=False)
        (1): BatchNorm2d(2304, eps=0.001, momentum=0.01, affine=True, track_running_stats=True)
        (2): Swish()
      )
      (squeeze_excitation): SqueezeExcitation(
        (reduce_expand): Sequential(
          (0): Conv2d(2304, 96, kernel_size=(1, 1), stride=(1, 1))
          (1): Swish()
          (2): Conv2d(96, 2304, kernel_size=(1, 1), stride=(1, 1))
          (3): Sigmoid()
        )
      )
      (project_conv): Sequential(
        (0): Conv2d(2304, 384, kernel_size=(1, 1), stride=(1, 1), bias=False)
        (1): BatchNorm2d(384, eps=0.001, momentum=0.01, affine=True, track_running_stats=True)
      )
    )
    (MBConv6_46): MBConv(
      (expansion_conv): Sequential(
        (0): Conv2d(384, 2304, kernel_size=(1, 1), stride=(1, 1), bias=False)
        (1): BatchNorm2d(2304, eps=0.001, momentum=0.01, affine=True, track_running_stats=True)
        (2): Swish()
      )
      (depthwise_conv): Sequential(
        (0): Conv2d(2304, 2304, kernel_size=(5, 5), stride=(1, 1), padding=(2, 2), groups=2304, bias=False)
        (1): BatchNorm2d(2304, eps=0.001, momentum=0.01, affine=True, track_running_stats=True)
        (2): Swish()
      )
      (squeeze_excitation): SqueezeExcitation(
        (reduce_expand): Sequential(
          (0): Conv2d(2304, 96, kernel_size=(1, 1), stride=(1, 1))
          (1): Swish()
          (2): Conv2d(96, 2304, kernel_size=(1, 1), stride=(1, 1))
          (3): Sigmoid()
        )
      )
      (project_conv): Sequential(
        (0): Conv2d(2304, 384, kernel_size=(1, 1), stride=(1, 1), bias=False)
        (1): BatchNorm2d(384, eps=0.001, momentum=0.01, affine=True, track_running_stats=True)
      )
    )
    (MBConv6_47): MBConv(
      (expansion_conv): Sequential(
        (0): Conv2d(384, 2304, kernel_size=(1, 1), stride=(1, 1), bias=False)
        (1): BatchNorm2d(2304, eps=0.001, momentum=0.01, affine=True, track_running_stats=True)
        (2): Swish()
      )
      (depthwise_conv): Sequential(
        (0): Conv2d(2304, 2304, kernel_size=(5, 5), stride=(1, 1), padding=(2, 2), groups=2304, bias=False)
        (1): BatchNorm2d(2304, eps=0.001, momentum=0.01, affine=True, track_running_stats=True)
        (2): Swish()
      )
      (squeeze_excitation): SqueezeExcitation(
        (reduce_expand): Sequential(
          (0): Conv2d(2304, 96, kernel_size=(1, 1), stride=(1, 1))
          (1): Swish()
          (2): Conv2d(96, 2304, kernel_size=(1, 1), stride=(1, 1))
          (3): Sigmoid()
        )
      )
      (project_conv): Sequential(
        (0): Conv2d(2304, 384, kernel_size=(1, 1), stride=(1, 1), bias=False)
        (1): BatchNorm2d(384, eps=0.001, momentum=0.01, affine=True, track_running_stats=True)
      )
    )
    (MBConv6_48): MBConv(
      (expansion_conv): Sequential(
        (0): Conv2d(384, 2304, kernel_size=(1, 1), stride=(1, 1), bias=False)
        (1): BatchNorm2d(2304, eps=0.001, momentum=0.01, affine=True, track_running_stats=True)
        (2): Swish()
      )
      (depthwise_conv): Sequential(
        (0): Conv2d(2304, 2304, kernel_size=(5, 5), stride=(1, 1), padding=(2, 2), groups=2304, bias=False)
        (1): BatchNorm2d(2304, eps=0.001, momentum=0.01, affine=True, track_running_stats=True)
        (2): Swish()
      )
      (squeeze_excitation): SqueezeExcitation(
        (reduce_expand): Sequential(
          (0): Conv2d(2304, 96, kernel_size=(1, 1), stride=(1, 1))
          (1): Swish()
          (2): Conv2d(96, 2304, kernel_size=(1, 1), stride=(1, 1))
          (3): Sigmoid()
        )
      )
      (project_conv): Sequential(
        (0): Conv2d(2304, 384, kernel_size=(1, 1), stride=(1, 1), bias=False)
        (1): BatchNorm2d(384, eps=0.001, momentum=0.01, affine=True, track_running_stats=True)
      )
    )
    (MBConv6_49): MBConv(
      (expansion_conv): Sequential(
        (0): Conv2d(384, 2304, kernel_size=(1, 1), stride=(1, 1), bias=False)
        (1): BatchNorm2d(2304, eps=0.001, momentum=0.01, affine=True, track_running_stats=True)
        (2): Swish()
      )
      (depthwise_conv): Sequential(
        (0): Conv2d(2304, 2304, kernel_size=(5, 5), stride=(1, 1), padding=(2, 2), groups=2304, bias=False)
        (1): BatchNorm2d(2304, eps=0.001, momentum=0.01, affine=True, track_running_stats=True)
        (2): Swish()
      )
      (squeeze_excitation): SqueezeExcitation(
        (reduce_expand): Sequential(
          (0): Conv2d(2304, 96, kernel_size=(1, 1), stride=(1, 1))
          (1): Swish()
          (2): Conv2d(96, 2304, kernel_size=(1, 1), stride=(1, 1))
          (3): Sigmoid()
        )
      )
      (project_conv): Sequential(
        (0): Conv2d(2304, 384, kernel_size=(1, 1), stride=(1, 1), bias=False)
        (1): BatchNorm2d(384, eps=0.001, momentum=0.01, affine=True, track_running_stats=True)
      )
    )
    (MBConv6_50): MBConv(
      (expansion_conv): Sequential(
        (0): Conv2d(384, 2304, kernel_size=(1, 1), stride=(1, 1), bias=False)
        (1): BatchNorm2d(2304, eps=0.001, momentum=0.01, affine=True, track_running_stats=True)
        (2): Swish()
      )
      (depthwise_conv): Sequential(
        (0): Conv2d(2304, 2304, kernel_size=(5, 5), stride=(1, 1), padding=(2, 2), groups=2304, bias=False)
        (1): BatchNorm2d(2304, eps=0.001, momentum=0.01, affine=True, track_running_stats=True)
        (2): Swish()
      )
      (squeeze_excitation): SqueezeExcitation(
        (reduce_expand): Sequential(
          (0): Conv2d(2304, 96, kernel_size=(1, 1), stride=(1, 1))
          (1): Swish()
          (2): Conv2d(96, 2304, kernel_size=(1, 1), stride=(1, 1))
          (3): Sigmoid()
        )
      )
      (project_conv): Sequential(
        (0): Conv2d(2304, 384, kernel_size=(1, 1), stride=(1, 1), bias=False)
        (1): BatchNorm2d(384, eps=0.001, momentum=0.01, affine=True, track_running_stats=True)
      )
    )
    (MBConv6_51): MBConv(
      (expansion_conv): Sequential(
        (0): Conv2d(384, 2304, kernel_size=(1, 1), stride=(1, 1), bias=False)
        (1): BatchNorm2d(2304, eps=0.001, momentum=0.01, affine=True, track_running_stats=True)
        (2): Swish()
      )
      (depthwise_conv): Sequential(
        (0): Conv2d(2304, 2304, kernel_size=(3, 3), stride=(1, 1), padding=(1, 1), groups=2304, bias=False)
        (1): BatchNorm2d(2304, eps=0.001, momentum=0.01, affine=True, track_running_stats=True)
        (2): Swish()
      )
      (squeeze_excitation): SqueezeExcitation(
        (reduce_expand): Sequential(
          (0): Conv2d(2304, 96, kernel_size=(1, 1), stride=(1, 1))
          (1): Swish()
          (2): Conv2d(96, 2304, kernel_size=(1, 1), stride=(1, 1))
          (3): Sigmoid()
        )
      )
      (project_conv): Sequential(
        (0): Conv2d(2304, 640, kernel_size=(1, 1), stride=(1, 1), bias=False)
        (1): BatchNorm2d(640, eps=0.001, momentum=0.01, affine=True, track_running_stats=True)
      )
    )
    (MBConv6_52): MBConv(
      (expansion_conv): Sequential(
        (0): Conv2d(640, 3840, kernel_size=(1, 1), stride=(1, 1), bias=False)
        (1): BatchNorm2d(3840, eps=0.001, momentum=0.01, affine=True, track_running_stats=True)
        (2): Swish()
      )
      (depthwise_conv): Sequential(
        (0): Conv2d(3840, 3840, kernel_size=(3, 3), stride=(1, 1), padding=(1, 1), groups=3840, bias=False)
        (1): BatchNorm2d(3840, eps=0.001, momentum=0.01, affine=True, track_running_stats=True)
        (2): Swish()
      )
      (squeeze_excitation): SqueezeExcitation(
        (reduce_expand): Sequential(
          (0): Conv2d(3840, 160, kernel_size=(1, 1), stride=(1, 1))
          (1): Swish()
          (2): Conv2d(160, 3840, kernel_size=(1, 1), stride=(1, 1))
          (3): Sigmoid()
        )
      )
      (project_conv): Sequential(
        (0): Conv2d(3840, 640, kernel_size=(1, 1), stride=(1, 1), bias=False)
        (1): BatchNorm2d(640, eps=0.001, momentum=0.01, affine=True, track_running_stats=True)
      )
    )
    (MBConv6_53): MBConv(
      (expansion_conv): Sequential(
        (0): Conv2d(640, 3840, kernel_size=(1, 1), stride=(1, 1), bias=False)
        (1): BatchNorm2d(3840, eps=0.001, momentum=0.01, affine=True, track_running_stats=True)
        (2): Swish()
      )
      (depthwise_conv): Sequential(
        (0): Conv2d(3840, 3840, kernel_size=(3, 3), stride=(1, 1), padding=(1, 1), groups=3840, bias=False)
        (1): BatchNorm2d(3840, eps=0.001, momentum=0.01, affine=True, track_running_stats=True)
        (2): Swish()
      )
      (squeeze_excitation): SqueezeExcitation(
        (reduce_expand): Sequential(
          (0): Conv2d(3840, 160, kernel_size=(1, 1), stride=(1, 1))
          (1): Swish()
          (2): Conv2d(160, 3840, kernel_size=(1, 1), stride=(1, 1))
          (3): Sigmoid()
        )
      )
      (project_conv): Sequential(
        (0): Conv2d(3840, 640, kernel_size=(1, 1), stride=(1, 1), bias=False)
        (1): BatchNorm2d(640, eps=0.001, momentum=0.01, affine=True, track_running_stats=True)
      )
    )
    (MBConv6_54): MBConv(
      (expansion_conv): Sequential(
        (0): Conv2d(640, 3840, kernel_size=(1, 1), stride=(1, 1), bias=False)
        (1): BatchNorm2d(3840, eps=0.001, momentum=0.01, affine=True, track_running_stats=True)
        (2): Swish()
      )
      (depthwise_conv): Sequential(
        (0): Conv2d(3840, 3840, kernel_size=(3, 3), stride=(1, 1), padding=(1, 1), groups=3840, bias=False)
        (1): BatchNorm2d(3840, eps=0.001, momentum=0.01, affine=True, track_running_stats=True)
        (2): Swish()
      )
      (squeeze_excitation): SqueezeExcitation(
        (reduce_expand): Sequential(
          (0): Conv2d(3840, 160, kernel_size=(1, 1), stride=(1, 1))
          (1): Swish()
          (2): Conv2d(160, 3840, kernel_size=(1, 1), stride=(1, 1))
          (3): Sigmoid()
        )
      )
      (project_conv): Sequential(
        (0): Conv2d(3840, 640, kernel_size=(1, 1), stride=(1, 1), bias=False)
        (1): BatchNorm2d(640, eps=0.001, momentum=0.01, affine=True, track_running_stats=True)
      )
    )
  )
  (head): Sequential(
    (0): Conv2d(640, 2560, kernel_size=(1, 1), stride=(1, 1), bias=False)
    (1): BatchNorm2d(2560, eps=0.001, momentum=0.01, affine=True, track_running_stats=True)
    (2): Swish()
    (3): AdaptiveAvgPool2d(output_size=1)
    (4): Flatten()
    (5): Dropout(p=0.5, inplace=False)
    (6): Linear(in_features=2560, out_features=1, bias=True)
  )
)

2022-01-13 20:48:43.673498

EfficientNet(
  (stem): Sequential(
    (0): Conv2d(1, 64, kernel_size=(3, 3), stride=(2, 2), padding=(1, 1), bias=False)
    (1): BatchNorm2d(64, eps=0.001, momentum=0.01, affine=True, track_running_stats=True)
    (2): Swish()
  )
  (blocks): Sequential(
    (MBConv1_0): MBConv(
      (depthwise_conv): Sequential(
        (0): Conv2d(64, 64, kernel_size=(3, 3), stride=(1, 1), padding=(1, 1), groups=64, bias=False)
        (1): BatchNorm2d(64, eps=0.001, momentum=0.01, affine=True, track_running_stats=True)
        (2): Swish()
      )
      (squeeze_excitation): SqueezeExcitation(
        (reduce_expand): Sequential(
          (0): Conv2d(64, 16, kernel_size=(1, 1), stride=(1, 1))
          (1): Swish()
          (2): Conv2d(16, 64, kernel_size=(1, 1), stride=(1, 1))
          (3): Sigmoid()
        )
      )
      (project_conv): Sequential(
        (0): Conv2d(64, 32, kernel_size=(1, 1), stride=(1, 1), bias=False)
        (1): BatchNorm2d(32, eps=0.001, momentum=0.01, affine=True, track_running_stats=True)
      )
    )
    (MBConv1_1): MBConv(
      (depthwise_conv): Sequential(
        (0): Conv2d(32, 32, kernel_size=(3, 3), stride=(1, 1), padding=(1, 1), groups=32, bias=False)
        (1): BatchNorm2d(32, eps=0.001, momentum=0.01, affine=True, track_running_stats=True)
        (2): Swish()
      )
      (squeeze_excitation): SqueezeExcitation(
        (reduce_expand): Sequential(
          (0): Conv2d(32, 8, kernel_size=(1, 1), stride=(1, 1))
          (1): Swish()
          (2): Conv2d(8, 32, kernel_size=(1, 1), stride=(1, 1))
          (3): Sigmoid()
        )
      )
      (project_conv): Sequential(
        (0): Conv2d(32, 32, kernel_size=(1, 1), stride=(1, 1), bias=False)
        (1): BatchNorm2d(32, eps=0.001, momentum=0.01, affine=True, track_running_stats=True)
      )
    )
    (MBConv1_2): MBConv(
      (depthwise_conv): Sequential(
        (0): Conv2d(32, 32, kernel_size=(3, 3), stride=(1, 1), padding=(1, 1), groups=32, bias=False)
        (1): BatchNorm2d(32, eps=0.001, momentum=0.01, affine=True, track_running_stats=True)
        (2): Swish()
      )
      (squeeze_excitation): SqueezeExcitation(
        (reduce_expand): Sequential(
          (0): Conv2d(32, 8, kernel_size=(1, 1), stride=(1, 1))
          (1): Swish()
          (2): Conv2d(8, 32, kernel_size=(1, 1), stride=(1, 1))
          (3): Sigmoid()
        )
      )
      (project_conv): Sequential(
        (0): Conv2d(32, 32, kernel_size=(1, 1), stride=(1, 1), bias=False)
        (1): BatchNorm2d(32, eps=0.001, momentum=0.01, affine=True, track_running_stats=True)
      )
    )
    (MBConv1_3): MBConv(
      (depthwise_conv): Sequential(
        (0): Conv2d(32, 32, kernel_size=(3, 3), stride=(1, 1), padding=(1, 1), groups=32, bias=False)
        (1): BatchNorm2d(32, eps=0.001, momentum=0.01, affine=True, track_running_stats=True)
        (2): Swish()
      )
      (squeeze_excitation): SqueezeExcitation(
        (reduce_expand): Sequential(
          (0): Conv2d(32, 8, kernel_size=(1, 1), stride=(1, 1))
          (1): Swish()
          (2): Conv2d(8, 32, kernel_size=(1, 1), stride=(1, 1))
          (3): Sigmoid()
        )
      )
      (project_conv): Sequential(
        (0): Conv2d(32, 32, kernel_size=(1, 1), stride=(1, 1), bias=False)
        (1): BatchNorm2d(32, eps=0.001, momentum=0.01, affine=True, track_running_stats=True)
      )
    )
    (MBConv6_4): MBConv(
      (expansion_conv): Sequential(
        (0): Conv2d(32, 192, kernel_size=(1, 1), stride=(1, 1), bias=False)
        (1): BatchNorm2d(192, eps=0.001, momentum=0.01, affine=True, track_running_stats=True)
        (2): Swish()
      )
      (depthwise_conv): Sequential(
        (0): Conv2d(192, 192, kernel_size=(3, 3), stride=(2, 2), padding=(1, 1), groups=192, bias=False)
        (1): BatchNorm2d(192, eps=0.001, momentum=0.01, affine=True, track_running_stats=True)
        (2): Swish()
      )
      (squeeze_excitation): SqueezeExcitation(
        (reduce_expand): Sequential(
          (0): Conv2d(192, 8, kernel_size=(1, 1), stride=(1, 1))
          (1): Swish()
          (2): Conv2d(8, 192, kernel_size=(1, 1), stride=(1, 1))
          (3): Sigmoid()
        )
      )
      (project_conv): Sequential(
        (0): Conv2d(192, 48, kernel_size=(1, 1), stride=(1, 1), bias=False)
        (1): BatchNorm2d(48, eps=0.001, momentum=0.01, affine=True, track_running_stats=True)
      )
    )
    (MBConv6_5): MBConv(
      (expansion_conv): Sequential(
        (0): Conv2d(48, 288, kernel_size=(1, 1), stride=(1, 1), bias=False)
        (1): BatchNorm2d(288, eps=0.001, momentum=0.01, affine=True, track_running_stats=True)
        (2): Swish()
      )
      (depthwise_conv): Sequential(
        (0): Conv2d(288, 288, kernel_size=(3, 3), stride=(1, 1), padding=(1, 1), groups=288, bias=False)
        (1): BatchNorm2d(288, eps=0.001, momentum=0.01, affine=True, track_running_stats=True)
        (2): Swish()
      )
      (squeeze_excitation): SqueezeExcitation(
        (reduce_expand): Sequential(
          (0): Conv2d(288, 12, kernel_size=(1, 1), stride=(1, 1))
          (1): Swish()
          (2): Conv2d(12, 288, kernel_size=(1, 1), stride=(1, 1))
          (3): Sigmoid()
        )
      )
      (project_conv): Sequential(
        (0): Conv2d(288, 48, kernel_size=(1, 1), stride=(1, 1), bias=False)
        (1): BatchNorm2d(48, eps=0.001, momentum=0.01, affine=True, track_running_stats=True)
      )
    )
    (MBConv6_6): MBConv(
      (expansion_conv): Sequential(
        (0): Conv2d(48, 288, kernel_size=(1, 1), stride=(1, 1), bias=False)
        (1): BatchNorm2d(288, eps=0.001, momentum=0.01, affine=True, track_running_stats=True)
        (2): Swish()
      )
      (depthwise_conv): Sequential(
        (0): Conv2d(288, 288, kernel_size=(3, 3), stride=(1, 1), padding=(1, 1), groups=288, bias=False)
        (1): BatchNorm2d(288, eps=0.001, momentum=0.01, affine=True, track_running_stats=True)
        (2): Swish()
      )
      (squeeze_excitation): SqueezeExcitation(
        (reduce_expand): Sequential(
          (0): Conv2d(288, 12, kernel_size=(1, 1), stride=(1, 1))
          (1): Swish()
          (2): Conv2d(12, 288, kernel_size=(1, 1), stride=(1, 1))
          (3): Sigmoid()
        )
      )
      (project_conv): Sequential(
        (0): Conv2d(288, 48, kernel_size=(1, 1), stride=(1, 1), bias=False)
        (1): BatchNorm2d(48, eps=0.001, momentum=0.01, affine=True, track_running_stats=True)
      )
    )
    (MBConv6_7): MBConv(
      (expansion_conv): Sequential(
        (0): Conv2d(48, 288, kernel_size=(1, 1), stride=(1, 1), bias=False)
        (1): BatchNorm2d(288, eps=0.001, momentum=0.01, affine=True, track_running_stats=True)
        (2): Swish()
      )
      (depthwise_conv): Sequential(
        (0): Conv2d(288, 288, kernel_size=(3, 3), stride=(1, 1), padding=(1, 1), groups=288, bias=False)
        (1): BatchNorm2d(288, eps=0.001, momentum=0.01, affine=True, track_running_stats=True)
        (2): Swish()
      )
      (squeeze_excitation): SqueezeExcitation(
        (reduce_expand): Sequential(
          (0): Conv2d(288, 12, kernel_size=(1, 1), stride=(1, 1))
          (1): Swish()
          (2): Conv2d(12, 288, kernel_size=(1, 1), stride=(1, 1))
          (3): Sigmoid()
        )
      )
      (project_conv): Sequential(
        (0): Conv2d(288, 48, kernel_size=(1, 1), stride=(1, 1), bias=False)
        (1): BatchNorm2d(48, eps=0.001, momentum=0.01, affine=True, track_running_stats=True)
      )
    )
    (MBConv6_8): MBConv(
      (expansion_conv): Sequential(
        (0): Conv2d(48, 288, kernel_size=(1, 1), stride=(1, 1), bias=False)
        (1): BatchNorm2d(288, eps=0.001, momentum=0.01, affine=True, track_running_stats=True)
        (2): Swish()
      )
      (depthwise_conv): Sequential(
        (0): Conv2d(288, 288, kernel_size=(3, 3), stride=(1, 1), padding=(1, 1), groups=288, bias=False)
        (1): BatchNorm2d(288, eps=0.001, momentum=0.01, affine=True, track_running_stats=True)
        (2): Swish()
      )
      (squeeze_excitation): SqueezeExcitation(
        (reduce_expand): Sequential(
          (0): Conv2d(288, 12, kernel_size=(1, 1), stride=(1, 1))
          (1): Swish()
          (2): Conv2d(12, 288, kernel_size=(1, 1), stride=(1, 1))
          (3): Sigmoid()
        )
      )
      (project_conv): Sequential(
        (0): Conv2d(288, 48, kernel_size=(1, 1), stride=(1, 1), bias=False)
        (1): BatchNorm2d(48, eps=0.001, momentum=0.01, affine=True, track_running_stats=True)
      )
    )
    (MBConv6_9): MBConv(
      (expansion_conv): Sequential(
        (0): Conv2d(48, 288, kernel_size=(1, 1), stride=(1, 1), bias=False)
        (1): BatchNorm2d(288, eps=0.001, momentum=0.01, affine=True, track_running_stats=True)
        (2): Swish()
      )
      (depthwise_conv): Sequential(
        (0): Conv2d(288, 288, kernel_size=(3, 3), stride=(1, 1), padding=(1, 1), groups=288, bias=False)
        (1): BatchNorm2d(288, eps=0.001, momentum=0.01, affine=True, track_running_stats=True)
        (2): Swish()
      )
      (squeeze_excitation): SqueezeExcitation(
        (reduce_expand): Sequential(
          (0): Conv2d(288, 12, kernel_size=(1, 1), stride=(1, 1))
          (1): Swish()
          (2): Conv2d(12, 288, kernel_size=(1, 1), stride=(1, 1))
          (3): Sigmoid()
        )
      )
      (project_conv): Sequential(
        (0): Conv2d(288, 48, kernel_size=(1, 1), stride=(1, 1), bias=False)
        (1): BatchNorm2d(48, eps=0.001, momentum=0.01, affine=True, track_running_stats=True)
      )
    )
    (MBConv6_10): MBConv(
      (expansion_conv): Sequential(
        (0): Conv2d(48, 288, kernel_size=(1, 1), stride=(1, 1), bias=False)
        (1): BatchNorm2d(288, eps=0.001, momentum=0.01, affine=True, track_running_stats=True)
        (2): Swish()
      )
      (depthwise_conv): Sequential(
        (0): Conv2d(288, 288, kernel_size=(3, 3), stride=(1, 1), padding=(1, 1), groups=288, bias=False)
        (1): BatchNorm2d(288, eps=0.001, momentum=0.01, affine=True, track_running_stats=True)
        (2): Swish()
      )
      (squeeze_excitation): SqueezeExcitation(
        (reduce_expand): Sequential(
          (0): Conv2d(288, 12, kernel_size=(1, 1), stride=(1, 1))
          (1): Swish()
          (2): Conv2d(12, 288, kernel_size=(1, 1), stride=(1, 1))
          (3): Sigmoid()
        )
      )
      (project_conv): Sequential(
        (0): Conv2d(288, 48, kernel_size=(1, 1), stride=(1, 1), bias=False)
        (1): BatchNorm2d(48, eps=0.001, momentum=0.01, affine=True, track_running_stats=True)
      )
    )
    (MBConv6_11): MBConv(
      (expansion_conv): Sequential(
        (0): Conv2d(48, 288, kernel_size=(1, 1), stride=(1, 1), bias=False)
        (1): BatchNorm2d(288, eps=0.001, momentum=0.01, affine=True, track_running_stats=True)
        (2): Swish()
      )
      (depthwise_conv): Sequential(
        (0): Conv2d(288, 288, kernel_size=(5, 5), stride=(2, 2), padding=(2, 2), groups=288, bias=False)
        (1): BatchNorm2d(288, eps=0.001, momentum=0.01, affine=True, track_running_stats=True)
        (2): Swish()
      )
      (squeeze_excitation): SqueezeExcitation(
        (reduce_expand): Sequential(
          (0): Conv2d(288, 12, kernel_size=(1, 1), stride=(1, 1))
          (1): Swish()
          (2): Conv2d(12, 288, kernel_size=(1, 1), stride=(1, 1))
          (3): Sigmoid()
        )
      )
      (project_conv): Sequential(
        (0): Conv2d(288, 80, kernel_size=(1, 1), stride=(1, 1), bias=False)
        (1): BatchNorm2d(80, eps=0.001, momentum=0.01, affine=True, track_running_stats=True)
      )
    )
    (MBConv6_12): MBConv(
      (expansion_conv): Sequential(
        (0): Conv2d(80, 480, kernel_size=(1, 1), stride=(1, 1), bias=False)
        (1): BatchNorm2d(480, eps=0.001, momentum=0.01, affine=True, track_running_stats=True)
        (2): Swish()
      )
      (depthwise_conv): Sequential(
        (0): Conv2d(480, 480, kernel_size=(5, 5), stride=(1, 1), padding=(2, 2), groups=480, bias=False)
        (1): BatchNorm2d(480, eps=0.001, momentum=0.01, affine=True, track_running_stats=True)
        (2): Swish()
      )
      (squeeze_excitation): SqueezeExcitation(
        (reduce_expand): Sequential(
          (0): Conv2d(480, 20, kernel_size=(1, 1), stride=(1, 1))
          (1): Swish()
          (2): Conv2d(20, 480, kernel_size=(1, 1), stride=(1, 1))
          (3): Sigmoid()
        )
      )
      (project_conv): Sequential(
        (0): Conv2d(480, 80, kernel_size=(1, 1), stride=(1, 1), bias=False)
        (1): BatchNorm2d(80, eps=0.001, momentum=0.01, affine=True, track_running_stats=True)
      )
    )
    (MBConv6_13): MBConv(
      (expansion_conv): Sequential(
        (0): Conv2d(80, 480, kernel_size=(1, 1), stride=(1, 1), bias=False)
        (1): BatchNorm2d(480, eps=0.001, momentum=0.01, affine=True, track_running_stats=True)
        (2): Swish()
      )
      (depthwise_conv): Sequential(
        (0): Conv2d(480, 480, kernel_size=(5, 5), stride=(1, 1), padding=(2, 2), groups=480, bias=False)
        (1): BatchNorm2d(480, eps=0.001, momentum=0.01, affine=True, track_running_stats=True)
        (2): Swish()
      )
      (squeeze_excitation): SqueezeExcitation(
        (reduce_expand): Sequential(
          (0): Conv2d(480, 20, kernel_size=(1, 1), stride=(1, 1))
          (1): Swish()
          (2): Conv2d(20, 480, kernel_size=(1, 1), stride=(1, 1))
          (3): Sigmoid()
        )
      )
      (project_conv): Sequential(
        (0): Conv2d(480, 80, kernel_size=(1, 1), stride=(1, 1), bias=False)
        (1): BatchNorm2d(80, eps=0.001, momentum=0.01, affine=True, track_running_stats=True)
      )
    )
    (MBConv6_14): MBConv(
      (expansion_conv): Sequential(
        (0): Conv2d(80, 480, kernel_size=(1, 1), stride=(1, 1), bias=False)
        (1): BatchNorm2d(480, eps=0.001, momentum=0.01, affine=True, track_running_stats=True)
        (2): Swish()
      )
      (depthwise_conv): Sequential(
        (0): Conv2d(480, 480, kernel_size=(5, 5), stride=(1, 1), padding=(2, 2), groups=480, bias=False)
        (1): BatchNorm2d(480, eps=0.001, momentum=0.01, affine=True, track_running_stats=True)
        (2): Swish()
      )
      (squeeze_excitation): SqueezeExcitation(
        (reduce_expand): Sequential(
          (0): Conv2d(480, 20, kernel_size=(1, 1), stride=(1, 1))
          (1): Swish()
          (2): Conv2d(20, 480, kernel_size=(1, 1), stride=(1, 1))
          (3): Sigmoid()
        )
      )
      (project_conv): Sequential(
        (0): Conv2d(480, 80, kernel_size=(1, 1), stride=(1, 1), bias=False)
        (1): BatchNorm2d(80, eps=0.001, momentum=0.01, affine=True, track_running_stats=True)
      )
    )
    (MBConv6_15): MBConv(
      (expansion_conv): Sequential(
        (0): Conv2d(80, 480, kernel_size=(1, 1), stride=(1, 1), bias=False)
        (1): BatchNorm2d(480, eps=0.001, momentum=0.01, affine=True, track_running_stats=True)
        (2): Swish()
      )
      (depthwise_conv): Sequential(
        (0): Conv2d(480, 480, kernel_size=(5, 5), stride=(1, 1), padding=(2, 2), groups=480, bias=False)
        (1): BatchNorm2d(480, eps=0.001, momentum=0.01, affine=True, track_running_stats=True)
        (2): Swish()
      )
      (squeeze_excitation): SqueezeExcitation(
        (reduce_expand): Sequential(
          (0): Conv2d(480, 20, kernel_size=(1, 1), stride=(1, 1))
          (1): Swish()
          (2): Conv2d(20, 480, kernel_size=(1, 1), stride=(1, 1))
          (3): Sigmoid()
        )
      )
      (project_conv): Sequential(
        (0): Conv2d(480, 80, kernel_size=(1, 1), stride=(1, 1), bias=False)
        (1): BatchNorm2d(80, eps=0.001, momentum=0.01, affine=True, track_running_stats=True)
      )
    )
    (MBConv6_16): MBConv(
      (expansion_conv): Sequential(
        (0): Conv2d(80, 480, kernel_size=(1, 1), stride=(1, 1), bias=False)
        (1): BatchNorm2d(480, eps=0.001, momentum=0.01, affine=True, track_running_stats=True)
        (2): Swish()
      )
      (depthwise_conv): Sequential(
        (0): Conv2d(480, 480, kernel_size=(5, 5), stride=(1, 1), padding=(2, 2), groups=480, bias=False)
        (1): BatchNorm2d(480, eps=0.001, momentum=0.01, affine=True, track_running_stats=True)
        (2): Swish()
      )
      (squeeze_excitation): SqueezeExcitation(
        (reduce_expand): Sequential(
          (0): Conv2d(480, 20, kernel_size=(1, 1), stride=(1, 1))
          (1): Swish()
          (2): Conv2d(20, 480, kernel_size=(1, 1), stride=(1, 1))
          (3): Sigmoid()
        )
      )
      (project_conv): Sequential(
        (0): Conv2d(480, 80, kernel_size=(1, 1), stride=(1, 1), bias=False)
        (1): BatchNorm2d(80, eps=0.001, momentum=0.01, affine=True, track_running_stats=True)
      )
    )
    (MBConv6_17): MBConv(
      (expansion_conv): Sequential(
        (0): Conv2d(80, 480, kernel_size=(1, 1), stride=(1, 1), bias=False)
        (1): BatchNorm2d(480, eps=0.001, momentum=0.01, affine=True, track_running_stats=True)
        (2): Swish()
      )
      (depthwise_conv): Sequential(
        (0): Conv2d(480, 480, kernel_size=(5, 5), stride=(1, 1), padding=(2, 2), groups=480, bias=False)
        (1): BatchNorm2d(480, eps=0.001, momentum=0.01, affine=True, track_running_stats=True)
        (2): Swish()
      )
      (squeeze_excitation): SqueezeExcitation(
        (reduce_expand): Sequential(
          (0): Conv2d(480, 20, kernel_size=(1, 1), stride=(1, 1))
          (1): Swish()
          (2): Conv2d(20, 480, kernel_size=(1, 1), stride=(1, 1))
          (3): Sigmoid()
        )
      )
      (project_conv): Sequential(
        (0): Conv2d(480, 80, kernel_size=(1, 1), stride=(1, 1), bias=False)
        (1): BatchNorm2d(80, eps=0.001, momentum=0.01, affine=True, track_running_stats=True)
      )
    )
    (MBConv6_18): MBConv(
      (expansion_conv): Sequential(
        (0): Conv2d(80, 480, kernel_size=(1, 1), stride=(1, 1), bias=False)
        (1): BatchNorm2d(480, eps=0.001, momentum=0.01, affine=True, track_running_stats=True)
        (2): Swish()
      )
      (depthwise_conv): Sequential(
        (0): Conv2d(480, 480, kernel_size=(3, 3), stride=(2, 2), padding=(1, 1), groups=480, bias=False)
        (1): BatchNorm2d(480, eps=0.001, momentum=0.01, affine=True, track_running_stats=True)
        (2): Swish()
      )
      (squeeze_excitation): SqueezeExcitation(
        (reduce_expand): Sequential(
          (0): Conv2d(480, 20, kernel_size=(1, 1), stride=(1, 1))
          (1): Swish()
          (2): Conv2d(20, 480, kernel_size=(1, 1), stride=(1, 1))
          (3): Sigmoid()
        )
      )
      (project_conv): Sequential(
        (0): Conv2d(480, 160, kernel_size=(1, 1), stride=(1, 1), bias=False)
        (1): BatchNorm2d(160, eps=0.001, momentum=0.01, affine=True, track_running_stats=True)
      )
    )
    (MBConv6_19): MBConv(
      (expansion_conv): Sequential(
        (0): Conv2d(160, 960, kernel_size=(1, 1), stride=(1, 1), bias=False)
        (1): BatchNorm2d(960, eps=0.001, momentum=0.01, affine=True, track_running_stats=True)
        (2): Swish()
      )
      (depthwise_conv): Sequential(
        (0): Conv2d(960, 960, kernel_size=(3, 3), stride=(1, 1), padding=(1, 1), groups=960, bias=False)
        (1): BatchNorm2d(960, eps=0.001, momentum=0.01, affine=True, track_running_stats=True)
        (2): Swish()
      )
      (squeeze_excitation): SqueezeExcitation(
        (reduce_expand): Sequential(
          (0): Conv2d(960, 40, kernel_size=(1, 1), stride=(1, 1))
          (1): Swish()
          (2): Conv2d(40, 960, kernel_size=(1, 1), stride=(1, 1))
          (3): Sigmoid()
        )
      )
      (project_conv): Sequential(
        (0): Conv2d(960, 160, kernel_size=(1, 1), stride=(1, 1), bias=False)
        (1): BatchNorm2d(160, eps=0.001, momentum=0.01, affine=True, track_running_stats=True)
      )
    )
    (MBConv6_20): MBConv(
      (expansion_conv): Sequential(
        (0): Conv2d(160, 960, kernel_size=(1, 1), stride=(1, 1), bias=False)
        (1): BatchNorm2d(960, eps=0.001, momentum=0.01, affine=True, track_running_stats=True)
        (2): Swish()
      )
      (depthwise_conv): Sequential(
        (0): Conv2d(960, 960, kernel_size=(3, 3), stride=(1, 1), padding=(1, 1), groups=960, bias=False)
        (1): BatchNorm2d(960, eps=0.001, momentum=0.01, affine=True, track_running_stats=True)
        (2): Swish()
      )
      (squeeze_excitation): SqueezeExcitation(
        (reduce_expand): Sequential(
          (0): Conv2d(960, 40, kernel_size=(1, 1), stride=(1, 1))
          (1): Swish()
          (2): Conv2d(40, 960, kernel_size=(1, 1), stride=(1, 1))
          (3): Sigmoid()
        )
      )
      (project_conv): Sequential(
        (0): Conv2d(960, 160, kernel_size=(1, 1), stride=(1, 1), bias=False)
        (1): BatchNorm2d(160, eps=0.001, momentum=0.01, affine=True, track_running_stats=True)
      )
    )
    (MBConv6_21): MBConv(
      (expansion_conv): Sequential(
        (0): Conv2d(160, 960, kernel_size=(1, 1), stride=(1, 1), bias=False)
        (1): BatchNorm2d(960, eps=0.001, momentum=0.01, affine=True, track_running_stats=True)
        (2): Swish()
      )
      (depthwise_conv): Sequential(
        (0): Conv2d(960, 960, kernel_size=(3, 3), stride=(1, 1), padding=(1, 1), groups=960, bias=False)
        (1): BatchNorm2d(960, eps=0.001, momentum=0.01, affine=True, track_running_stats=True)
        (2): Swish()
      )
      (squeeze_excitation): SqueezeExcitation(
        (reduce_expand): Sequential(
          (0): Conv2d(960, 40, kernel_size=(1, 1), stride=(1, 1))
          (1): Swish()
          (2): Conv2d(40, 960, kernel_size=(1, 1), stride=(1, 1))
          (3): Sigmoid()
        )
      )
      (project_conv): Sequential(
        (0): Conv2d(960, 160, kernel_size=(1, 1), stride=(1, 1), bias=False)
        (1): BatchNorm2d(160, eps=0.001, momentum=0.01, affine=True, track_running_stats=True)
      )
    )
    (MBConv6_22): MBConv(
      (expansion_conv): Sequential(
        (0): Conv2d(160, 960, kernel_size=(1, 1), stride=(1, 1), bias=False)
        (1): BatchNorm2d(960, eps=0.001, momentum=0.01, affine=True, track_running_stats=True)
        (2): Swish()
      )
      (depthwise_conv): Sequential(
        (0): Conv2d(960, 960, kernel_size=(3, 3), stride=(1, 1), padding=(1, 1), groups=960, bias=False)
        (1): BatchNorm2d(960, eps=0.001, momentum=0.01, affine=True, track_running_stats=True)
        (2): Swish()
      )
      (squeeze_excitation): SqueezeExcitation(
        (reduce_expand): Sequential(
          (0): Conv2d(960, 40, kernel_size=(1, 1), stride=(1, 1))
          (1): Swish()
          (2): Conv2d(40, 960, kernel_size=(1, 1), stride=(1, 1))
          (3): Sigmoid()
        )
      )
      (project_conv): Sequential(
        (0): Conv2d(960, 160, kernel_size=(1, 1), stride=(1, 1), bias=False)
        (1): BatchNorm2d(160, eps=0.001, momentum=0.01, affine=True, track_running_stats=True)
      )
    )
    (MBConv6_23): MBConv(
      (expansion_conv): Sequential(
        (0): Conv2d(160, 960, kernel_size=(1, 1), stride=(1, 1), bias=False)
        (1): BatchNorm2d(960, eps=0.001, momentum=0.01, affine=True, track_running_stats=True)
        (2): Swish()
      )
      (depthwise_conv): Sequential(
        (0): Conv2d(960, 960, kernel_size=(3, 3), stride=(1, 1), padding=(1, 1), groups=960, bias=False)
        (1): BatchNorm2d(960, eps=0.001, momentum=0.01, affine=True, track_running_stats=True)
        (2): Swish()
      )
      (squeeze_excitation): SqueezeExcitation(
        (reduce_expand): Sequential(
          (0): Conv2d(960, 40, kernel_size=(1, 1), stride=(1, 1))
          (1): Swish()
          (2): Conv2d(40, 960, kernel_size=(1, 1), stride=(1, 1))
          (3): Sigmoid()
        )
      )
      (project_conv): Sequential(
        (0): Conv2d(960, 160, kernel_size=(1, 1), stride=(1, 1), bias=False)
        (1): BatchNorm2d(160, eps=0.001, momentum=0.01, affine=True, track_running_stats=True)
      )
    )
    (MBConv6_24): MBConv(
      (expansion_conv): Sequential(
        (0): Conv2d(160, 960, kernel_size=(1, 1), stride=(1, 1), bias=False)
        (1): BatchNorm2d(960, eps=0.001, momentum=0.01, affine=True, track_running_stats=True)
        (2): Swish()
      )
      (depthwise_conv): Sequential(
        (0): Conv2d(960, 960, kernel_size=(3, 3), stride=(1, 1), padding=(1, 1), groups=960, bias=False)
        (1): BatchNorm2d(960, eps=0.001, momentum=0.01, affine=True, track_running_stats=True)
        (2): Swish()
      )
      (squeeze_excitation): SqueezeExcitation(
        (reduce_expand): Sequential(
          (0): Conv2d(960, 40, kernel_size=(1, 1), stride=(1, 1))
          (1): Swish()
          (2): Conv2d(40, 960, kernel_size=(1, 1), stride=(1, 1))
          (3): Sigmoid()
        )
      )
      (project_conv): Sequential(
        (0): Conv2d(960, 160, kernel_size=(1, 1), stride=(1, 1), bias=False)
        (1): BatchNorm2d(160, eps=0.001, momentum=0.01, affine=True, track_running_stats=True)
      )
    )
    (MBConv6_25): MBConv(
      (expansion_conv): Sequential(
        (0): Conv2d(160, 960, kernel_size=(1, 1), stride=(1, 1), bias=False)
        (1): BatchNorm2d(960, eps=0.001, momentum=0.01, affine=True, track_running_stats=True)
        (2): Swish()
      )
      (depthwise_conv): Sequential(
        (0): Conv2d(960, 960, kernel_size=(3, 3), stride=(1, 1), padding=(1, 1), groups=960, bias=False)
        (1): BatchNorm2d(960, eps=0.001, momentum=0.01, affine=True, track_running_stats=True)
        (2): Swish()
      )
      (squeeze_excitation): SqueezeExcitation(
        (reduce_expand): Sequential(
          (0): Conv2d(960, 40, kernel_size=(1, 1), stride=(1, 1))
          (1): Swish()
          (2): Conv2d(40, 960, kernel_size=(1, 1), stride=(1, 1))
          (3): Sigmoid()
        )
      )
      (project_conv): Sequential(
        (0): Conv2d(960, 160, kernel_size=(1, 1), stride=(1, 1), bias=False)
        (1): BatchNorm2d(160, eps=0.001, momentum=0.01, affine=True, track_running_stats=True)
      )
    )
    (MBConv6_26): MBConv(
      (expansion_conv): Sequential(
        (0): Conv2d(160, 960, kernel_size=(1, 1), stride=(1, 1), bias=False)
        (1): BatchNorm2d(960, eps=0.001, momentum=0.01, affine=True, track_running_stats=True)
        (2): Swish()
      )
      (depthwise_conv): Sequential(
        (0): Conv2d(960, 960, kernel_size=(3, 3), stride=(1, 1), padding=(1, 1), groups=960, bias=False)
        (1): BatchNorm2d(960, eps=0.001, momentum=0.01, affine=True, track_running_stats=True)
        (2): Swish()
      )
      (squeeze_excitation): SqueezeExcitation(
        (reduce_expand): Sequential(
          (0): Conv2d(960, 40, kernel_size=(1, 1), stride=(1, 1))
          (1): Swish()
          (2): Conv2d(40, 960, kernel_size=(1, 1), stride=(1, 1))
          (3): Sigmoid()
        )
      )
      (project_conv): Sequential(
        (0): Conv2d(960, 160, kernel_size=(1, 1), stride=(1, 1), bias=False)
        (1): BatchNorm2d(160, eps=0.001, momentum=0.01, affine=True, track_running_stats=True)
      )
    )
    (MBConv6_27): MBConv(
      (expansion_conv): Sequential(
        (0): Conv2d(160, 960, kernel_size=(1, 1), stride=(1, 1), bias=False)
        (1): BatchNorm2d(960, eps=0.001, momentum=0.01, affine=True, track_running_stats=True)
        (2): Swish()
      )
      (depthwise_conv): Sequential(
        (0): Conv2d(960, 960, kernel_size=(3, 3), stride=(1, 1), padding=(1, 1), groups=960, bias=False)
        (1): BatchNorm2d(960, eps=0.001, momentum=0.01, affine=True, track_running_stats=True)
        (2): Swish()
      )
      (squeeze_excitation): SqueezeExcitation(
        (reduce_expand): Sequential(
          (0): Conv2d(960, 40, kernel_size=(1, 1), stride=(1, 1))
          (1): Swish()
          (2): Conv2d(40, 960, kernel_size=(1, 1), stride=(1, 1))
          (3): Sigmoid()
        )
      )
      (project_conv): Sequential(
        (0): Conv2d(960, 160, kernel_size=(1, 1), stride=(1, 1), bias=False)
        (1): BatchNorm2d(160, eps=0.001, momentum=0.01, affine=True, track_running_stats=True)
      )
    )
    (MBConv6_28): MBConv(
      (expansion_conv): Sequential(
        (0): Conv2d(160, 960, kernel_size=(1, 1), stride=(1, 1), bias=False)
        (1): BatchNorm2d(960, eps=0.001, momentum=0.01, affine=True, track_running_stats=True)
        (2): Swish()
      )
      (depthwise_conv): Sequential(
        (0): Conv2d(960, 960, kernel_size=(5, 5), stride=(1, 1), padding=(2, 2), groups=960, bias=False)
        (1): BatchNorm2d(960, eps=0.001, momentum=0.01, affine=True, track_running_stats=True)
        (2): Swish()
      )
      (squeeze_excitation): SqueezeExcitation(
        (reduce_expand): Sequential(
          (0): Conv2d(960, 40, kernel_size=(1, 1), stride=(1, 1))
          (1): Swish()
          (2): Conv2d(40, 960, kernel_size=(1, 1), stride=(1, 1))
          (3): Sigmoid()
        )
      )
      (project_conv): Sequential(
        (0): Conv2d(960, 224, kernel_size=(1, 1), stride=(1, 1), bias=False)
        (1): BatchNorm2d(224, eps=0.001, momentum=0.01, affine=True, track_running_stats=True)
      )
    )
    (MBConv6_29): MBConv(
      (expansion_conv): Sequential(
        (0): Conv2d(224, 1344, kernel_size=(1, 1), stride=(1, 1), bias=False)
        (1): BatchNorm2d(1344, eps=0.001, momentum=0.01, affine=True, track_running_stats=True)
        (2): Swish()
      )
      (depthwise_conv): Sequential(
        (0): Conv2d(1344, 1344, kernel_size=(5, 5), stride=(1, 1), padding=(2, 2), groups=1344, bias=False)
        (1): BatchNorm2d(1344, eps=0.001, momentum=0.01, affine=True, track_running_stats=True)
        (2): Swish()
      )
      (squeeze_excitation): SqueezeExcitation(
        (reduce_expand): Sequential(
          (0): Conv2d(1344, 56, kernel_size=(1, 1), stride=(1, 1))
          (1): Swish()
          (2): Conv2d(56, 1344, kernel_size=(1, 1), stride=(1, 1))
          (3): Sigmoid()
        )
      )
      (project_conv): Sequential(
        (0): Conv2d(1344, 224, kernel_size=(1, 1), stride=(1, 1), bias=False)
        (1): BatchNorm2d(224, eps=0.001, momentum=0.01, affine=True, track_running_stats=True)
      )
    )
    (MBConv6_30): MBConv(
      (expansion_conv): Sequential(
        (0): Conv2d(224, 1344, kernel_size=(1, 1), stride=(1, 1), bias=False)
        (1): BatchNorm2d(1344, eps=0.001, momentum=0.01, affine=True, track_running_stats=True)
        (2): Swish()
      )
      (depthwise_conv): Sequential(
        (0): Conv2d(1344, 1344, kernel_size=(5, 5), stride=(1, 1), padding=(2, 2), groups=1344, bias=False)
        (1): BatchNorm2d(1344, eps=0.001, momentum=0.01, affine=True, track_running_stats=True)
        (2): Swish()
      )
      (squeeze_excitation): SqueezeExcitation(
        (reduce_expand): Sequential(
          (0): Conv2d(1344, 56, kernel_size=(1, 1), stride=(1, 1))
          (1): Swish()
          (2): Conv2d(56, 1344, kernel_size=(1, 1), stride=(1, 1))
          (3): Sigmoid()
        )
      )
      (project_conv): Sequential(
        (0): Conv2d(1344, 224, kernel_size=(1, 1), stride=(1, 1), bias=False)
        (1): BatchNorm2d(224, eps=0.001, momentum=0.01, affine=True, track_running_stats=True)
      )
    )
    (MBConv6_31): MBConv(
      (expansion_conv): Sequential(
        (0): Conv2d(224, 1344, kernel_size=(1, 1), stride=(1, 1), bias=False)
        (1): BatchNorm2d(1344, eps=0.001, momentum=0.01, affine=True, track_running_stats=True)
        (2): Swish()
      )
      (depthwise_conv): Sequential(
        (0): Conv2d(1344, 1344, kernel_size=(5, 5), stride=(1, 1), padding=(2, 2), groups=1344, bias=False)
        (1): BatchNorm2d(1344, eps=0.001, momentum=0.01, affine=True, track_running_stats=True)
        (2): Swish()
      )
      (squeeze_excitation): SqueezeExcitation(
        (reduce_expand): Sequential(
          (0): Conv2d(1344, 56, kernel_size=(1, 1), stride=(1, 1))
          (1): Swish()
          (2): Conv2d(56, 1344, kernel_size=(1, 1), stride=(1, 1))
          (3): Sigmoid()
        )
      )
      (project_conv): Sequential(
        (0): Conv2d(1344, 224, kernel_size=(1, 1), stride=(1, 1), bias=False)
        (1): BatchNorm2d(224, eps=0.001, momentum=0.01, affine=True, track_running_stats=True)
      )
    )
    (MBConv6_32): MBConv(
      (expansion_conv): Sequential(
        (0): Conv2d(224, 1344, kernel_size=(1, 1), stride=(1, 1), bias=False)
        (1): BatchNorm2d(1344, eps=0.001, momentum=0.01, affine=True, track_running_stats=True)
        (2): Swish()
      )
      (depthwise_conv): Sequential(
        (0): Conv2d(1344, 1344, kernel_size=(5, 5), stride=(1, 1), padding=(2, 2), groups=1344, bias=False)
        (1): BatchNorm2d(1344, eps=0.001, momentum=0.01, affine=True, track_running_stats=True)
        (2): Swish()
      )
      (squeeze_excitation): SqueezeExcitation(
        (reduce_expand): Sequential(
          (0): Conv2d(1344, 56, kernel_size=(1, 1), stride=(1, 1))
          (1): Swish()
          (2): Conv2d(56, 1344, kernel_size=(1, 1), stride=(1, 1))
          (3): Sigmoid()
        )
      )
      (project_conv): Sequential(
        (0): Conv2d(1344, 224, kernel_size=(1, 1), stride=(1, 1), bias=False)
        (1): BatchNorm2d(224, eps=0.001, momentum=0.01, affine=True, track_running_stats=True)
      )
    )
    (MBConv6_33): MBConv(
      (expansion_conv): Sequential(
        (0): Conv2d(224, 1344, kernel_size=(1, 1), stride=(1, 1), bias=False)
        (1): BatchNorm2d(1344, eps=0.001, momentum=0.01, affine=True, track_running_stats=True)
        (2): Swish()
      )
      (depthwise_conv): Sequential(
        (0): Conv2d(1344, 1344, kernel_size=(5, 5), stride=(1, 1), padding=(2, 2), groups=1344, bias=False)
        (1): BatchNorm2d(1344, eps=0.001, momentum=0.01, affine=True, track_running_stats=True)
        (2): Swish()
      )
      (squeeze_excitation): SqueezeExcitation(
        (reduce_expand): Sequential(
          (0): Conv2d(1344, 56, kernel_size=(1, 1), stride=(1, 1))
          (1): Swish()
          (2): Conv2d(56, 1344, kernel_size=(1, 1), stride=(1, 1))
          (3): Sigmoid()
        )
      )
      (project_conv): Sequential(
        (0): Conv2d(1344, 224, kernel_size=(1, 1), stride=(1, 1), bias=False)
        (1): BatchNorm2d(224, eps=0.001, momentum=0.01, affine=True, track_running_stats=True)
      )
    )
    (MBConv6_34): MBConv(
      (expansion_conv): Sequential(
        (0): Conv2d(224, 1344, kernel_size=(1, 1), stride=(1, 1), bias=False)
        (1): BatchNorm2d(1344, eps=0.001, momentum=0.01, affine=True, track_running_stats=True)
        (2): Swish()
      )
      (depthwise_conv): Sequential(
        (0): Conv2d(1344, 1344, kernel_size=(5, 5), stride=(1, 1), padding=(2, 2), groups=1344, bias=False)
        (1): BatchNorm2d(1344, eps=0.001, momentum=0.01, affine=True, track_running_stats=True)
        (2): Swish()
      )
      (squeeze_excitation): SqueezeExcitation(
        (reduce_expand): Sequential(
          (0): Conv2d(1344, 56, kernel_size=(1, 1), stride=(1, 1))
          (1): Swish()
          (2): Conv2d(56, 1344, kernel_size=(1, 1), stride=(1, 1))
          (3): Sigmoid()
        )
      )
      (project_conv): Sequential(
        (0): Conv2d(1344, 224, kernel_size=(1, 1), stride=(1, 1), bias=False)
        (1): BatchNorm2d(224, eps=0.001, momentum=0.01, affine=True, track_running_stats=True)
      )
    )
    (MBConv6_35): MBConv(
      (expansion_conv): Sequential(
        (0): Conv2d(224, 1344, kernel_size=(1, 1), stride=(1, 1), bias=False)
        (1): BatchNorm2d(1344, eps=0.001, momentum=0.01, affine=True, track_running_stats=True)
        (2): Swish()
      )
      (depthwise_conv): Sequential(
        (0): Conv2d(1344, 1344, kernel_size=(5, 5), stride=(1, 1), padding=(2, 2), groups=1344, bias=False)
        (1): BatchNorm2d(1344, eps=0.001, momentum=0.01, affine=True, track_running_stats=True)
        (2): Swish()
      )
      (squeeze_excitation): SqueezeExcitation(
        (reduce_expand): Sequential(
          (0): Conv2d(1344, 56, kernel_size=(1, 1), stride=(1, 1))
          (1): Swish()
          (2): Conv2d(56, 1344, kernel_size=(1, 1), stride=(1, 1))
          (3): Sigmoid()
        )
      )
      (project_conv): Sequential(
        (0): Conv2d(1344, 224, kernel_size=(1, 1), stride=(1, 1), bias=False)
        (1): BatchNorm2d(224, eps=0.001, momentum=0.01, affine=True, track_running_stats=True)
      )
    )
    (MBConv6_36): MBConv(
      (expansion_conv): Sequential(
        (0): Conv2d(224, 1344, kernel_size=(1, 1), stride=(1, 1), bias=False)
        (1): BatchNorm2d(1344, eps=0.001, momentum=0.01, affine=True, track_running_stats=True)
        (2): Swish()
      )
      (depthwise_conv): Sequential(
        (0): Conv2d(1344, 1344, kernel_size=(5, 5), stride=(1, 1), padding=(2, 2), groups=1344, bias=False)
        (1): BatchNorm2d(1344, eps=0.001, momentum=0.01, affine=True, track_running_stats=True)
        (2): Swish()
      )
      (squeeze_excitation): SqueezeExcitation(
…
    (MBConv6_7): MBConv(
      (expansion_conv): Sequential(
        (0): Conv2d(48, 288, kernel_size=(1, 1), stride=(1, 1), bias=False)
        (1): BatchNorm2d(288, eps=0.001, momentum=0.01, affine=True, track_running_stats=True)
        (2): Swish()
      )
      (depthwise_conv): Sequential(
        (0): Conv2d(288, 288, kernel_size=(3, 3), stride=(1, 1), padding=(1, 1), groups=288, bias=False)
        (1): BatchNorm2d(288, eps=0.001, momentum=0.01, affine=True, track_running_stats=True)
        (2): Swish()
      )
      (squeeze_excitation): SqueezeExcitation(
        (reduce_expand): Sequential(
          (0): Conv2d(288, 12, kernel_size=(1, 1), stride=(1, 1))
          (1): Swish()
          (2): Conv2d(12, 288, kernel_size=(1, 1), stride=(1, 1))
          (3): Sigmoid()
        )
      )
      (project_conv): Sequential(
        (0): Conv2d(288, 48, kernel_size=(1, 1), stride=(1, 1), bias=False)
        (1): BatchNorm2d(48, eps=0.001, momentum=0.01, affine=True, track_running_stats=True)
      )
    )
    (MBConv6_8): MBConv(
      (expansion_conv): Sequential(
        (0): Conv2d(48, 288, kernel_size=(1, 1), stride=(1, 1), bias=False)
        (1): BatchNorm2d(288, eps=0.001, momentum=0.01, affine=True, track_running_stats=True)
        (2): Swish()
      )
      (depthwise_conv): Sequential(
        (0): Conv2d(288, 288, kernel_size=(3, 3), stride=(1, 1), padding=(1, 1), groups=288, bias=False)
        (1): BatchNorm2d(288, eps=0.001, momentum=0.01, affine=True, track_running_stats=True)
        (2): Swish()
      )
      (squeeze_excitation): SqueezeExcitation(
        (reduce_expand): Sequential(
          (0): Conv2d(288, 12, kernel_size=(1, 1), stride=(1, 1))
          (1): Swish()
          (2): Conv2d(12, 288, kernel_size=(1, 1), stride=(1, 1))
          (3): Sigmoid()
        )
      )
      (project_conv): Sequential(
        (0): Conv2d(288, 48, kernel_size=(1, 1), stride=(1, 1), bias=False)
        (1): BatchNorm2d(48, eps=0.001, momentum=0.01, affine=True, track_running_stats=True)
      )
    )
    (MBConv6_9): MBConv(
      (expansion_conv): Sequential(
        (0): Conv2d(48, 288, kernel_size=(1, 1), stride=(1, 1), bias=False)
        (1): BatchNorm2d(288, eps=0.001, momentum=0.01, affine=True, track_running_stats=True)
        (2): Swish()
      )
      (depthwise_conv): Sequential(
        (0): Conv2d(288, 288, kernel_size=(3, 3), stride=(1, 1), padding=(1, 1), groups=288, bias=False)
        (1): BatchNorm2d(288, eps=0.001, momentum=0.01, affine=True, track_running_stats=True)
        (2): Swish()
      )
      (squeeze_excitation): SqueezeExcitation(
        (reduce_expand): Sequential(
          (0): Conv2d(288, 12, kernel_size=(1, 1), stride=(1, 1))
          (1): Swish()
          (2): Conv2d(12, 288, kernel_size=(1, 1), stride=(1, 1))
          (3): Sigmoid()
        )
      )
      (project_conv): Sequential(
        (0): Conv2d(288, 48, kernel_size=(1, 1), stride=(1, 1), bias=False)
        (1): BatchNorm2d(48, eps=0.001, momentum=0.01, affine=True, track_running_stats=True)
      )
    )
    (MBConv6_10): MBConv(
      (expansion_conv): Sequential(
        (0): Conv2d(48, 288, kernel_size=(1, 1), stride=(1, 1), bias=False)
        (1): BatchNorm2d(288, eps=0.001, momentum=0.01, affine=True, track_running_stats=True)
        (2): Swish()
      )
      (depthwise_conv): Sequential(
        (0): Conv2d(288, 288, kernel_size=(3, 3), stride=(1, 1), padding=(1, 1), groups=288, bias=False)
        (1): BatchNorm2d(288, eps=0.001, momentum=0.01, affine=True, track_running_stats=True)
        (2): Swish()
      )
      (squeeze_excitation): SqueezeExcitation(
        (reduce_expand): Sequential(
          (0): Conv2d(288, 12, kernel_size=(1, 1), stride=(1, 1))
          (1): Swish()
          (2): Conv2d(12, 288, kernel_size=(1, 1), stride=(1, 1))
          (3): Sigmoid()
        )
      )
      (project_conv): Sequential(
        (0): Conv2d(288, 48, kernel_size=(1, 1), stride=(1, 1), bias=False)
        (1): BatchNorm2d(48, eps=0.001, momentum=0.01, affine=True, track_running_stats=True)
      )
    )
    (MBConv6_11): MBConv(
      (expansion_conv): Sequential(
        (0): Conv2d(48, 288, kernel_size=(1, 1), stride=(1, 1), bias=False)
        (1): BatchNorm2d(288, eps=0.001, momentum=0.01, affine=True, track_running_stats=True)
        (2): Swish()
      )
      (depthwise_conv): Sequential(
        (0): Conv2d(288, 288, kernel_size=(5, 5), stride=(2, 2), padding=(2, 2), groups=288, bias=False)
        (1): BatchNorm2d(288, eps=0.001, momentum=0.01, affine=True, track_running_stats=True)
        (2): Swish()
      )
      (squeeze_excitation): SqueezeExcitation(
        (reduce_expand): Sequential(
          (0): Conv2d(288, 12, kernel_size=(1, 1), stride=(1, 1))
          (1): Swish()
          (2): Conv2d(12, 288, kernel_size=(1, 1), stride=(1, 1))
          (3): Sigmoid()
        )
      )
      (project_conv): Sequential(
        (0): Conv2d(288, 80, kernel_size=(1, 1), stride=(1, 1), bias=False)
        (1): BatchNorm2d(80, eps=0.001, momentum=0.01, affine=True, track_running_stats=True)
      )
    )
    (MBConv6_12): MBConv(
      (expansion_conv): Sequential(
        (0): Conv2d(80, 480, kernel_size=(1, 1), stride=(1, 1), bias=False)
        (1): BatchNorm2d(480, eps=0.001, momentum=0.01, affine=True, track_running_stats=True)
        (2): Swish()
      )
      (depthwise_conv): Sequential(
        (0): Conv2d(480, 480, kernel_size=(5, 5), stride=(1, 1), padding=(2, 2), groups=480, bias=False)
        (1): BatchNorm2d(480, eps=0.001, momentum=0.01, affine=True, track_running_stats=True)
        (2): Swish()
      )
      (squeeze_excitation): SqueezeExcitation(
        (reduce_expand): Sequential(
          (0): Conv2d(480, 20, kernel_size=(1, 1), stride=(1, 1))
          (1): Swish()
          (2): Conv2d(20, 480, kernel_size=(1, 1), stride=(1, 1))
          (3): Sigmoid()
        )
      )
      (project_conv): Sequential(
        (0): Conv2d(480, 80, kernel_size=(1, 1), stride=(1, 1), bias=False)
        (1): BatchNorm2d(80, eps=0.001, momentum=0.01, affine=True, track_running_stats=True)
      )
    )
    (MBConv6_13): MBConv(
      (expansion_conv): Sequential(
        (0): Conv2d(80, 480, kernel_size=(1, 1), stride=(1, 1), bias=False)
        (1): BatchNorm2d(480, eps=0.001, momentum=0.01, affine=True, track_running_stats=True)
        (2): Swish()
      )
      (depthwise_conv): Sequential(
        (0): Conv2d(480, 480, kernel_size=(5, 5), stride=(1, 1), padding=(2, 2), groups=480, bias=False)
        (1): BatchNorm2d(480, eps=0.001, momentum=0.01, affine=True, track_running_stats=True)
        (2): Swish()
      )
      (squeeze_excitation): SqueezeExcitation(
        (reduce_expand): Sequential(
          (0): Conv2d(480, 20, kernel_size=(1, 1), stride=(1, 1))
          (1): Swish()
          (2): Conv2d(20, 480, kernel_size=(1, 1), stride=(1, 1))
          (3): Sigmoid()
        )
      )
      (project_conv): Sequential(
        (0): Conv2d(480, 80, kernel_size=(1, 1), stride=(1, 1), bias=False)
        (1): BatchNorm2d(80, eps=0.001, momentum=0.01, affine=True, track_running_stats=True)
      )
    )
    (MBConv6_14): MBConv(
      (expansion_conv): Sequential(
        (0): Conv2d(80, 480, kernel_size=(1, 1), stride=(1, 1), bias=False)
        (1): BatchNorm2d(480, eps=0.001, momentum=0.01, affine=True, track_running_stats=True)
        (2): Swish()
      )
      (depthwise_conv): Sequential(
        (0): Conv2d(480, 480, kernel_size=(5, 5), stride=(1, 1), padding=(2, 2), groups=480, bias=False)
        (1): BatchNorm2d(480, eps=0.001, momentum=0.01, affine=True, track_running_stats=True)
        (2): Swish()
      )
      (squeeze_excitation): SqueezeExcitation(
        (reduce_expand): Sequential(
          (0): Conv2d(480, 20, kernel_size=(1, 1), stride=(1, 1))
          (1): Swish()
          (2): Conv2d(20, 480, kernel_size=(1, 1), stride=(1, 1))
          (3): Sigmoid()
        )
      )
      (project_conv): Sequential(
        (0): Conv2d(480, 80, kernel_size=(1, 1), stride=(1, 1), bias=False)
        (1): BatchNorm2d(80, eps=0.001, momentum=0.01, affine=True, track_running_stats=True)
      )
    )
    (MBConv6_15): MBConv(
      (expansion_conv): Sequential(
        (0): Conv2d(80, 480, kernel_size=(1, 1), stride=(1, 1), bias=False)
        (1): BatchNorm2d(480, eps=0.001, momentum=0.01, affine=True, track_running_stats=True)
        (2): Swish()
      )
      (depthwise_conv): Sequential(
        (0): Conv2d(480, 480, kernel_size=(5, 5), stride=(1, 1), padding=(2, 2), groups=480, bias=False)
        (1): BatchNorm2d(480, eps=0.001, momentum=0.01, affine=True, track_running_stats=True)
        (2): Swish()
      )
      (squeeze_excitation): SqueezeExcitation(
        (reduce_expand): Sequential(
          (0): Conv2d(480, 20, kernel_size=(1, 1), stride=(1, 1))
          (1): Swish()
          (2): Conv2d(20, 480, kernel_size=(1, 1), stride=(1, 1))
          (3): Sigmoid()
        )
      )
      (project_conv): Sequential(
        (0): Conv2d(480, 80, kernel_size=(1, 1), stride=(1, 1), bias=False)
        (1): BatchNorm2d(80, eps=0.001, momentum=0.01, affine=True, track_running_stats=True)
      )
    )
    (MBConv6_16): MBConv(
      (expansion_conv): Sequential(
        (0): Conv2d(80, 480, kernel_size=(1, 1), stride=(1, 1), bias=False)
        (1): BatchNorm2d(480, eps=0.001, momentum=0.01, affine=True, track_running_stats=True)
        (2): Swish()
      )
      (depthwise_conv): Sequential(
        (0): Conv2d(480, 480, kernel_size=(5, 5), stride=(1, 1), padding=(2, 2), groups=480, bias=False)
        (1): BatchNorm2d(480, eps=0.001, momentum=0.01, affine=True, track_running_stats=True)
        (2): Swish()
      )
      (squeeze_excitation): SqueezeExcitation(
        (reduce_expand): Sequential(
          (0): Conv2d(480, 20, kernel_size=(1, 1), stride=(1, 1))
          (1): Swish()
          (2): Conv2d(20, 480, kernel_size=(1, 1), stride=(1, 1))
          (3): Sigmoid()
        )
      )
      (project_conv): Sequential(
        (0): Conv2d(480, 80, kernel_size=(1, 1), stride=(1, 1), bias=False)
        (1): BatchNorm2d(80, eps=0.001, momentum=0.01, affine=True, track_running_stats=True)
      )
    )
    (MBConv6_17): MBConv(
      (expansion_conv): Sequential(
        (0): Conv2d(80, 480, kernel_size=(1, 1), stride=(1, 1), bias=False)
        (1): BatchNorm2d(480, eps=0.001, momentum=0.01, affine=True, track_running_stats=True)
        (2): Swish()
      )
      (depthwise_conv): Sequential(
        (0): Conv2d(480, 480, kernel_size=(5, 5), stride=(1, 1), padding=(2, 2), groups=480, bias=False)
        (1): BatchNorm2d(480, eps=0.001, momentum=0.01, affine=True, track_running_stats=True)
        (2): Swish()
      )
      (squeeze_excitation): SqueezeExcitation(
        (reduce_expand): Sequential(
          (0): Conv2d(480, 20, kernel_size=(1, 1), stride=(1, 1))
          (1): Swish()
          (2): Conv2d(20, 480, kernel_size=(1, 1), stride=(1, 1))
          (3): Sigmoid()
        )
      )
      (project_conv): Sequential(
        (0): Conv2d(480, 80, kernel_size=(1, 1), stride=(1, 1), bias=False)
        (1): BatchNorm2d(80, eps=0.001, momentum=0.01, affine=True, track_running_stats=True)
      )
    )
    (MBConv6_18): MBConv(
      (expansion_conv): Sequential(
        (0): Conv2d(80, 480, kernel_size=(1, 1), stride=(1, 1), bias=False)
        (1): BatchNorm2d(480, eps=0.001, momentum=0.01, affine=True, track_running_stats=True)
        (2): Swish()
      )
      (depthwise_conv): Sequential(
        (0): Conv2d(480, 480, kernel_size=(3, 3), stride=(2, 2), padding=(1, 1), groups=480, bias=False)
        (1): BatchNorm2d(480, eps=0.001, momentum=0.01, affine=True, track_running_stats=True)
        (2): Swish()
      )
      (squeeze_excitation): SqueezeExcitation(
        (reduce_expand): Sequential(
          (0): Conv2d(480, 20, kernel_size=(1, 1), stride=(1, 1))
          (1): Swish()
          (2): Conv2d(20, 480, kernel_size=(1, 1), stride=(1, 1))
          (3): Sigmoid()
        )
      )
      (project_conv): Sequential(
        (0): Conv2d(480, 160, kernel_size=(1, 1), stride=(1, 1), bias=False)
        (1): BatchNorm2d(160, eps=0.001, momentum=0.01, affine=True, track_running_stats=True)
      )
    )
    (MBConv6_19): MBConv(
      (expansion_conv): Sequential(
        (0): Conv2d(160, 960, kernel_size=(1, 1), stride=(1, 1), bias=False)
        (1): BatchNorm2d(960, eps=0.001, momentum=0.01, affine=True, track_running_stats=True)
        (2): Swish()
      )
      (depthwise_conv): Sequential(
        (0): Conv2d(960, 960, kernel_size=(3, 3), stride=(1, 1), padding=(1, 1), groups=960, bias=False)
        (1): BatchNorm2d(960, eps=0.001, momentum=0.01, affine=True, track_running_stats=True)
        (2): Swish()
      )
      (squeeze_excitation): SqueezeExcitation(
        (reduce_expand): Sequential(
          (0): Conv2d(960, 40, kernel_size=(1, 1), stride=(1, 1))
          (1): Swish()
          (2): Conv2d(40, 960, kernel_size=(1, 1), stride=(1, 1))
          (3): Sigmoid()
        )
      )
      (project_conv): Sequential(
        (0): Conv2d(960, 160, kernel_size=(1, 1), stride=(1, 1), bias=False)
        (1): BatchNorm2d(160, eps=0.001, momentum=0.01, affine=True, track_running_stats=True)
      )
    )
    (MBConv6_20): MBConv(
      (expansion_conv): Sequential(
        (0): Conv2d(160, 960, kernel_size=(1, 1), stride=(1, 1), bias=False)
        (1): BatchNorm2d(960, eps=0.001, momentum=0.01, affine=True, track_running_stats=True)
        (2): Swish()
      )
      (depthwise_conv): Sequential(
        (0): Conv2d(960, 960, kernel_size=(3, 3), stride=(1, 1), padding=(1, 1), groups=960, bias=False)
        (1): BatchNorm2d(960, eps=0.001, momentum=0.01, affine=True, track_running_stats=True)
        (2): Swish()
      )
      (squeeze_excitation): SqueezeExcitation(
        (reduce_expand): Sequential(
          (0): Conv2d(960, 40, kernel_size=(1, 1), stride=(1, 1))
          (1): Swish()
          (2): Conv2d(40, 960, kernel_size=(1, 1), stride=(1, 1))
          (3): Sigmoid()
        )
      )
      (project_conv): Sequential(
        (0): Conv2d(960, 160, kernel_size=(1, 1), stride=(1, 1), bias=False)
        (1): BatchNorm2d(160, eps=0.001, momentum=0.01, affine=True, track_running_stats=True)
      )
    )
    (MBConv6_21): MBConv(
      (expansion_conv): Sequential(
        (0): Conv2d(160, 960, kernel_size=(1, 1), stride=(1, 1), bias=False)
        (1): BatchNorm2d(960, eps=0.001, momentum=0.01, affine=True, track_running_stats=True)
        (2): Swish()
      )
      (depthwise_conv): Sequential(
        (0): Conv2d(960, 960, kernel_size=(3, 3), stride=(1, 1), padding=(1, 1), groups=960, bias=False)
        (1): BatchNorm2d(960, eps=0.001, momentum=0.01, affine=True, track_running_stats=True)
        (2): Swish()
      )
      (squeeze_excitation): SqueezeExcitation(
        (reduce_expand): Sequential(
          (0): Conv2d(960, 40, kernel_size=(1, 1), stride=(1, 1))
          (1): Swish()
          (2): Conv2d(40, 960, kernel_size=(1, 1), stride=(1, 1))
          (3): Sigmoid()
        )
      )
      (project_conv): Sequential(
        (0): Conv2d(960, 160, kernel_size=(1, 1), stride=(1, 1), bias=False)
        (1): BatchNorm2d(160, eps=0.001, momentum=0.01, affine=True, track_running_stats=True)
      )
    )
    (MBConv6_22): MBConv(
      (expansion_conv): Sequential(
        (0): Conv2d(160, 960, kernel_size=(1, 1), stride=(1, 1), bias=False)
        (1): BatchNorm2d(960, eps=0.001, momentum=0.01, affine=True, track_running_stats=True)
        (2): Swish()
      )
      (depthwise_conv): Sequential(
        (0): Conv2d(960, 960, kernel_size=(3, 3), stride=(1, 1), padding=(1, 1), groups=960, bias=False)
        (1): BatchNorm2d(960, eps=0.001, momentum=0.01, affine=True, track_running_stats=True)
        (2): Swish()
      )
      (squeeze_excitation): SqueezeExcitation(
        (reduce_expand): Sequential(
          (0): Conv2d(960, 40, kernel_size=(1, 1), stride=(1, 1))
          (1): Swish()
          (2): Conv2d(40, 960, kernel_size=(1, 1), stride=(1, 1))
          (3): Sigmoid()
        )
      )
      (project_conv): Sequential(
        (0): Conv2d(960, 160, kernel_size=(1, 1), stride=(1, 1), bias=False)
        (1): BatchNorm2d(160, eps=0.001, momentum=0.01, affine=True, track_running_stats=True)
      )
    )
    (MBConv6_23): MBConv(
      (expansion_conv): Sequential(
        (0): Conv2d(160, 960, kernel_size=(1, 1), stride=(1, 1), bias=False)
        (1): BatchNorm2d(960, eps=0.001, momentum=0.01, affine=True, track_running_stats=True)
        (2): Swish()
      )
      (depthwise_conv): Sequential(
        (0): Conv2d(960, 960, kernel_size=(3, 3), stride=(1, 1), padding=(1, 1), groups=960, bias=False)
        (1): BatchNorm2d(960, eps=0.001, momentum=0.01, affine=True, track_running_stats=True)
        (2): Swish()
      )
      (squeeze_excitation): SqueezeExcitation(
        (reduce_expand): Sequential(
          (0): Conv2d(960, 40, kernel_size=(1, 1), stride=(1, 1))
          (1): Swish()
          (2): Conv2d(40, 960, kernel_size=(1, 1), stride=(1, 1))
          (3): Sigmoid()
        )
      )
      (project_conv): Sequential(
        (0): Conv2d(960, 160, kernel_size=(1, 1), stride=(1, 1), bias=False)
        (1): BatchNorm2d(160, eps=0.001, momentum=0.01, affine=True, track_running_stats=True)
      )
    )
    (MBConv6_24): MBConv(
      (expansion_conv): Sequential(
        (0): Conv2d(160, 960, kernel_size=(1, 1), stride=(1, 1), bias=False)
        (1): BatchNorm2d(960, eps=0.001, momentum=0.01, affine=True, track_running_stats=True)
        (2): Swish()
      )
      (depthwise_conv): Sequential(
        (0): Conv2d(960, 960, kernel_size=(3, 3), stride=(1, 1), padding=(1, 1), groups=960, bias=False)
        (1): BatchNorm2d(960, eps=0.001, momentum=0.01, affine=True, track_running_stats=True)
        (2): Swish()
      )
      (squeeze_excitation): SqueezeExcitation(
        (reduce_expand): Sequential(
          (0): Conv2d(960, 40, kernel_size=(1, 1), stride=(1, 1))
          (1): Swish()
          (2): Conv2d(40, 960, kernel_size=(1, 1), stride=(1, 1))
          (3): Sigmoid()
        )
      )
      (project_conv): Sequential(
        (0): Conv2d(960, 160, kernel_size=(1, 1), stride=(1, 1), bias=False)
        (1): BatchNorm2d(160, eps=0.001, momentum=0.01, affine=True, track_running_stats=True)
      )
    )
    (MBConv6_25): MBConv(
      (expansion_conv): Sequential(
        (0): Conv2d(160, 960, kernel_size=(1, 1), stride=(1, 1), bias=False)
        (1): BatchNorm2d(960, eps=0.001, momentum=0.01, affine=True, track_running_stats=True)
        (2): Swish()
      )
      (depthwise_conv): Sequential(
        (0): Conv2d(960, 960, kernel_size=(3, 3), stride=(1, 1), padding=(1, 1), groups=960, bias=False)
        (1): BatchNorm2d(960, eps=0.001, momentum=0.01, affine=True, track_running_stats=True)
        (2): Swish()
      )
      (squeeze_excitation): SqueezeExcitation(
        (reduce_expand): Sequential(
          (0): Conv2d(960, 40, kernel_size=(1, 1), stride=(1, 1))
          (1): Swish()
          (2): Conv2d(40, 960, kernel_size=(1, 1), stride=(1, 1))
          (3): Sigmoid()
        )
      )
      (project_conv): Sequential(
        (0): Conv2d(960, 160, kernel_size=(1, 1), stride=(1, 1), bias=False)
        (1): BatchNorm2d(160, eps=0.001, momentum=0.01, affine=True, track_running_stats=True)
      )
    )
    (MBConv6_26): MBConv(
      (expansion_conv): Sequential(
        (0): Conv2d(160, 960, kernel_size=(1, 1), stride=(1, 1), bias=False)
        (1): BatchNorm2d(960, eps=0.001, momentum=0.01, affine=True, track_running_stats=True)
        (2): Swish()
      )
      (depthwise_conv): Sequential(
        (0): Conv2d(960, 960, kernel_size=(3, 3), stride=(1, 1), padding=(1, 1), groups=960, bias=False)
        (1): BatchNorm2d(960, eps=0.001, momentum=0.01, affine=True, track_running_stats=True)
        (2): Swish()
      )
      (squeeze_excitation): SqueezeExcitation(
        (reduce_expand): Sequential(
          (0): Conv2d(960, 40, kernel_size=(1, 1), stride=(1, 1))
          (1): Swish()
          (2): Conv2d(40, 960, kernel_size=(1, 1), stride=(1, 1))
          (3): Sigmoid()
        )
      )
      (project_conv): Sequential(
        (0): Conv2d(960, 160, kernel_size=(1, 1), stride=(1, 1), bias=False)
        (1): BatchNorm2d(160, eps=0.001, momentum=0.01, affine=True, track_running_stats=True)
      )
    )
    (MBConv6_27): MBConv(
      (expansion_conv): Sequential(
        (0): Conv2d(160, 960, kernel_size=(1, 1), stride=(1, 1), bias=False)
        (1): BatchNorm2d(960, eps=0.001, momentum=0.01, affine=True, track_running_stats=True)
        (2): Swish()
      )
      (depthwise_conv): Sequential(
        (0): Conv2d(960, 960, kernel_size=(3, 3), stride=(1, 1), padding=(1, 1), groups=960, bias=False)
        (1): BatchNorm2d(960, eps=0.001, momentum=0.01, affine=True, track_running_stats=True)
        (2): Swish()
      )
      (squeeze_excitation): SqueezeExcitation(
        (reduce_expand): Sequential(
          (0): Conv2d(960, 40, kernel_size=(1, 1), stride=(1, 1))
          (1): Swish()
          (2): Conv2d(40, 960, kernel_size=(1, 1), stride=(1, 1))
          (3): Sigmoid()
        )
      )
      (project_conv): Sequential(
        (0): Conv2d(960, 160, kernel_size=(1, 1), stride=(1, 1), bias=False)
        (1): BatchNorm2d(160, eps=0.001, momentum=0.01, affine=True, track_running_stats=True)
      )
    )
    (MBConv6_28): MBConv(
      (expansion_conv): Sequential(
        (0): Conv2d(160, 960, kernel_size=(1, 1), stride=(1, 1), bias=False)
        (1): BatchNorm2d(960, eps=0.001, momentum=0.01, affine=True, track_running_stats=True)
        (2): Swish()
      )
      (depthwise_conv): Sequential(
        (0): Conv2d(960, 960, kernel_size=(5, 5), stride=(1, 1), padding=(2, 2), groups=960, bias=False)
        (1): BatchNorm2d(960, eps=0.001, momentum=0.01, affine=True, track_running_stats=True)
        (2): Swish()
      )
      (squeeze_excitation): SqueezeExcitation(
        (reduce_expand): Sequential(
          (0): Conv2d(960, 40, kernel_size=(1, 1), stride=(1, 1))
          (1): Swish()
          (2): Conv2d(40, 960, kernel_size=(1, 1), stride=(1, 1))
          (3): Sigmoid()
        )
      )
      (project_conv): Sequential(
        (0): Conv2d(960, 224, kernel_size=(1, 1), stride=(1, 1), bias=False)
        (1): BatchNorm2d(224, eps=0.001, momentum=0.01, affine=True, track_running_stats=True)
      )
    )
    (MBConv6_29): MBConv(
      (expansion_conv): Sequential(
        (0): Conv2d(224, 1344, kernel_size=(1, 1), stride=(1, 1), bias=False)
        (1): BatchNorm2d(1344, eps=0.001, momentum=0.01, affine=True, track_running_stats=True)
        (2): Swish()
      )
      (depthwise_conv): Sequential(
        (0): Conv2d(1344, 1344, kernel_size=(5, 5), stride=(1, 1), padding=(2, 2), groups=1344, bias=False)
        (1): BatchNorm2d(1344, eps=0.001, momentum=0.01, affine=True, track_running_stats=True)
        (2): Swish()
      )
      (squeeze_excitation): SqueezeExcitation(
        (reduce_expand): Sequential(
          (0): Conv2d(1344, 56, kernel_size=(1, 1), stride=(1, 1))
          (1): Swish()
          (2): Conv2d(56, 1344, kernel_size=(1, 1), stride=(1, 1))
          (3): Sigmoid()
        )
      )
      (project_conv): Sequential(
        (0): Conv2d(1344, 224, kernel_size=(1, 1), stride=(1, 1), bias=False)
        (1): BatchNorm2d(224, eps=0.001, momentum=0.01, affine=True, track_running_stats=True)
      )
    )
    (MBConv6_30): MBConv(
      (expansion_conv): Sequential(
        (0): Conv2d(224, 1344, kernel_size=(1, 1), stride=(1, 1), bias=False)
        (1): BatchNorm2d(1344, eps=0.001, momentum=0.01, affine=True, track_running_stats=True)
        (2): Swish()
      )
      (depthwise_conv): Sequential(
        (0): Conv2d(1344, 1344, kernel_size=(5, 5), stride=(1, 1), padding=(2, 2), groups=1344, bias=False)
        (1): BatchNorm2d(1344, eps=0.001, momentum=0.01, affine=True, track_running_stats=True)
        (2): Swish()
      )
      (squeeze_excitation): SqueezeExcitation(
        (reduce_expand): Sequential(
          (0): Conv2d(1344, 56, kernel_size=(1, 1), stride=(1, 1))
          (1): Swish()
          (2): Conv2d(56, 1344, kernel_size=(1, 1), stride=(1, 1))
          (3): Sigmoid()
        )
      )
      (project_conv): Sequential(
        (0): Conv2d(1344, 224, kernel_size=(1, 1), stride=(1, 1), bias=False)
        (1): BatchNorm2d(224, eps=0.001, momentum=0.01, affine=True, track_running_stats=True)
      )
    )
    (MBConv6_31): MBConv(
      (expansion_conv): Sequential(
        (0): Conv2d(224, 1344, kernel_size=(1, 1), stride=(1, 1), bias=False)
        (1): BatchNorm2d(1344, eps=0.001, momentum=0.01, affine=True, track_running_stats=True)
        (2): Swish()
      )
      (depthwise_conv): Sequential(
        (0): Conv2d(1344, 1344, kernel_size=(5, 5), stride=(1, 1), padding=(2, 2), groups=1344, bias=False)
        (1): BatchNorm2d(1344, eps=0.001, momentum=0.01, affine=True, track_running_stats=True)
        (2): Swish()
      )
      (squeeze_excitation): SqueezeExcitation(
        (reduce_expand): Sequential(
          (0): Conv2d(1344, 56, kernel_size=(1, 1), stride=(1, 1))
          (1): Swish()
          (2): Conv2d(56, 1344, kernel_size=(1, 1), stride=(1, 1))
          (3): Sigmoid()
        )
      )
      (project_conv): Sequential(
        (0): Conv2d(1344, 224, kernel_size=(1, 1), stride=(1, 1), bias=False)
        (1): BatchNorm2d(224, eps=0.001, momentum=0.01, affine=True, track_running_stats=True)
      )
    )
    (MBConv6_32): MBConv(
      (expansion_conv): Sequential(
        (0): Conv2d(224, 1344, kernel_size=(1, 1), stride=(1, 1), bias=False)
        (1): BatchNorm2d(1344, eps=0.001, momentum=0.01, affine=True, track_running_stats=True)
        (2): Swish()
      )
      (depthwise_conv): Sequential(
        (0): Conv2d(1344, 1344, kernel_size=(5, 5), stride=(1, 1), padding=(2, 2), groups=1344, bias=False)
        (1): BatchNorm2d(1344, eps=0.001, momentum=0.01, affine=True, track_running_stats=True)
        (2): Swish()
      )
      (squeeze_excitation): SqueezeExcitation(
        (reduce_expand): Sequential(
          (0): Conv2d(1344, 56, kernel_size=(1, 1), stride=(1, 1))
          (1): Swish()
          (2): Conv2d(56, 1344, kernel_size=(1, 1), stride=(1, 1))
          (3): Sigmoid()
        )
      )
      (project_conv): Sequential(
        (0): Conv2d(1344, 224, kernel_size=(1, 1), stride=(1, 1), bias=False)
        (1): BatchNorm2d(224, eps=0.001, momentum=0.01, affine=True, track_running_stats=True)
      )
    )
    (MBConv6_33): MBConv(
      (expansion_conv): Sequential(
        (0): Conv2d(224, 1344, kernel_size=(1, 1), stride=(1, 1), bias=False)
        (1): BatchNorm2d(1344, eps=0.001, momentum=0.01, affine=True, track_running_stats=True)
        (2): Swish()
      )
      (depthwise_conv): Sequential(
        (0): Conv2d(1344, 1344, kernel_size=(5, 5), stride=(1, 1), padding=(2, 2), groups=1344, bias=False)
        (1): BatchNorm2d(1344, eps=0.001, momentum=0.01, affine=True, track_running_stats=True)
        (2): Swish()
      )
      (squeeze_excitation): SqueezeExcitation(
        (reduce_expand): Sequential(
          (0): Conv2d(1344, 56, kernel_size=(1, 1), stride=(1, 1))
          (1): Swish()
          (2): Conv2d(56, 1344, kernel_size=(1, 1), stride=(1, 1))
          (3): Sigmoid()
        )
      )
      (project_conv): Sequential(
        (0): Conv2d(1344, 224, kernel_size=(1, 1), stride=(1, 1), bias=False)
        (1): BatchNorm2d(224, eps=0.001, momentum=0.01, affine=True, track_running_stats=True)
      )
    )
    (MBConv6_34): MBConv(
      (expansion_conv): Sequential(
        (0): Conv2d(224, 1344, kernel_size=(1, 1), stride=(1, 1), bias=False)
        (1): BatchNorm2d(1344, eps=0.001, momentum=0.01, affine=True, track_running_stats=True)
        (2): Swish()
      )
      (depthwise_conv): Sequential(
        (0): Conv2d(1344, 1344, kernel_size=(5, 5), stride=(1, 1), padding=(2, 2), groups=1344, bias=False)
        (1): BatchNorm2d(1344, eps=0.001, momentum=0.01, affine=True, track_running_stats=True)
        (2): Swish()
      )
      (squeeze_excitation): SqueezeExcitation(
        (reduce_expand): Sequential(
          (0): Conv2d(1344, 56, kernel_size=(1, 1), stride=(1, 1))
          (1): Swish()
          (2): Conv2d(56, 1344, kernel_size=(1, 1), stride=(1, 1))
          (3): Sigmoid()
        )
      )
      (project_conv): Sequential(
        (0): Conv2d(1344, 224, kernel_size=(1, 1), stride=(1, 1), bias=False)
        (1): BatchNorm2d(224, eps=0.001, momentum=0.01, affine=True, track_running_stats=True)
      )
    )
    (MBConv6_35): MBConv(
      (expansion_conv): Sequential(
        (0): Conv2d(224, 1344, kernel_size=(1, 1), stride=(1, 1), bias=False)
        (1): BatchNorm2d(1344, eps=0.001, momentum=0.01, affine=True, track_running_stats=True)
        (2): Swish()
      )
      (depthwise_conv): Sequential(
        (0): Conv2d(1344, 1344, kernel_size=(5, 5), stride=(1, 1), padding=(2, 2), groups=1344, bias=False)
        (1): BatchNorm2d(1344, eps=0.001, momentum=0.01, affine=True, track_running_stats=True)
        (2): Swish()
      )
      (squeeze_excitation): SqueezeExcitation(
        (reduce_expand): Sequential(
          (0): Conv2d(1344, 56, kernel_size=(1, 1), stride=(1, 1))
          (1): Swish()
          (2): Conv2d(56, 1344, kernel_size=(1, 1), stride=(1, 1))
          (3): Sigmoid()
        )
      )
      (project_conv): Sequential(
        (0): Conv2d(1344, 224, kernel_size=(1, 1), stride=(1, 1), bias=False)
        (1): BatchNorm2d(224, eps=0.001, momentum=0.01, affine=True, track_running_stats=True)
      )
    )
    (MBConv6_36): MBConv(
      (expansion_conv): Sequential(
        (0): Conv2d(224, 1344, kernel_size=(1, 1), stride=(1, 1), bias=False)
        (1): BatchNorm2d(1344, eps=0.001, momentum=0.01, affine=True, track_running_stats=True)
        (2): Swish()
      )
      (depthwise_conv): Sequential(
        (0): Conv2d(1344, 1344, kernel_size=(5, 5), stride=(1, 1), padding=(2, 2), groups=1344, bias=False)
        (1): BatchNorm2d(1344, eps=0.001, momentum=0.01, affine=True, track_running_stats=True)
        (2): Swish()
      )
      (squeeze_excitation): SqueezeExcitation(
        (reduce_expand): Sequential(
          (0): Conv2d(1344, 56, kernel_size=(1, 1), stride=(1, 1))
          (1): Swish()
          (2): Conv2d(56, 1344, kernel_size=(1, 1), stride=(1, 1))
          (3): Sigmoid()
        )
      )
      (project_conv): Sequential(
        (0): Conv2d(1344, 224, kernel_size=(1, 1), stride=(1, 1), bias=False)
        (1): BatchNorm2d(224, eps=0.001, momentum=0.01, affine=True, track_running_stats=True)
      )
    )
    (MBConv6_37): MBConv(
      (expansion_conv): Sequential(
        (0): Conv2d(224, 1344, kernel_size=(1, 1), stride=(1, 1), bias=False)
        (1): BatchNorm2d(1344, eps=0.001, momentum=0.01, affine=True, track_running_stats=True)
        (2): Swish()
      )
      (depthwise_conv): Sequential(
        (0): Conv2d(1344, 1344, kernel_size=(5, 5), stride=(1, 1), padding=(2, 2), groups=1344, bias=False)
        (1): BatchNorm2d(1344, eps=0.001, momentum=0.01, affine=True, track_running_stats=True)
        (2): Swish()
      )
      (squeeze_excitation): SqueezeExcitation(
        (reduce_expand): Sequential(
          (0): Conv2d(1344, 56, kernel_size=(1, 1), stride=(1, 1))
          (1): Swish()
          (2): Conv2d(56, 1344, kernel_size=(1, 1), stride=(1, 1))
          (3): Sigmoid()
        )
      )
      (project_conv): Sequential(
        (0): Conv2d(1344, 224, kernel_size=(1, 1), stride=(1, 1), bias=False)
        (1): BatchNorm2d(224, eps=0.001, momentum=0.01, affine=True, track_running_stats=True)
      )
    )
    (MBConv6_38): MBConv(
      (expansion_conv): Sequential(
        (0): Conv2d(224, 1344, kernel_size=(1, 1), stride=(1, 1), bias=False)
        (1): BatchNorm2d(1344, eps=0.001, momentum=0.01, affine=True, track_running_stats=True)
        (2): Swish()
      )
      (depthwise_conv): Sequential(
        (0): Conv2d(1344, 1344, kernel_size=(5, 5), stride=(2, 2), padding=(2, 2), groups=1344, bias=False)
        (1): BatchNorm2d(1344, eps=0.001, momentum=0.01, affine=True, track_running_stats=True)
        (2): Swish()
      )
      (squeeze_excitation): SqueezeExcitation(
        (reduce_expand): Sequential(
          (0): Conv2d(1344, 56, kernel_size=(1, 1), stride=(1, 1))
          (1): Swish()
          (2): Conv2d(56, 1344, kernel_size=(1, 1), stride=(1, 1))
          (3): Sigmoid()
        )
      )
      (project_conv): Sequential(
        (0): Conv2d(1344, 384, kernel_size=(1, 1), stride=(1, 1), bias=False)
        (1): BatchNorm2d(384, eps=0.001, momentum=0.01, affine=True, track_running_stats=True)
      )
    )
    (MBConv6_39): MBConv(
      (expansion_conv): Sequential(
        (0): Conv2d(384, 2304, kernel_size=(1, 1), stride=(1, 1), bias=False)
        (1): BatchNorm2d(2304, eps=0.001, momentum=0.01, affine=True, track_running_stats=True)
        (2): Swish()
      )
      (depthwise_conv): Sequential(
        (0): Conv2d(2304, 2304, kernel_size=(5, 5), stride=(1, 1), padding=(2, 2), groups=2304, bias=False)
        (1): BatchNorm2d(2304, eps=0.001, momentum=0.01, affine=True, track_running_stats=True)
        (2): Swish()
      )
      (squeeze_excitation): SqueezeExcitation(
        (reduce_expand): Sequential(
          (0): Conv2d(2304, 96, kernel_size=(1, 1), stride=(1, 1))
          (1): Swish()
          (2): Conv2d(96, 2304, kernel_size=(1, 1), stride=(1, 1))
          (3): Sigmoid()
        )
      )
      (project_conv): Sequential(
        (0): Conv2d(2304, 384, kernel_size=(1, 1), stride=(1, 1), bias=False)
        (1): BatchNorm2d(384, eps=0.001, momentum=0.01, affine=True, track_running_stats=True)
      )
    )
    (MBConv6_40): MBConv(
      (expansion_conv): Sequential(
        (0): Conv2d(384, 2304, kernel_size=(1, 1), stride=(1, 1), bias=False)
        (1): BatchNorm2d(2304, eps=0.001, momentum=0.01, affine=True, track_running_stats=True)
        (2): Swish()
      )
      (depthwise_conv): Sequential(
        (0): Conv2d(2304, 2304, kernel_size=(5, 5), stride=(1, 1), padding=(2, 2), groups=2304, bias=False)
        (1): BatchNorm2d(2304, eps=0.001, momentum=0.01, affine=True, track_running_stats=True)
        (2): Swish()
      )
      (squeeze_excitation): SqueezeExcitation(
        (reduce_expand): Sequential(
          (0): Conv2d(2304, 96, kernel_size=(1, 1), stride=(1, 1))
          (1): Swish()
          (2): Conv2d(96, 2304, kernel_size=(1, 1), stride=(1, 1))
          (3): Sigmoid()
        )
      )
      (project_conv): Sequential(
        (0): Conv2d(2304, 384, kernel_size=(1, 1), stride=(1, 1), bias=False)
        (1): BatchNorm2d(384, eps=0.001, momentum=0.01, affine=True, track_running_stats=True)
      )
    )
    (MBConv6_41): MBConv(
      (expansion_conv): Sequential(
        (0): Conv2d(384, 2304, kernel_size=(1, 1), stride=(1, 1), bias=False)
        (1): BatchNorm2d(2304, eps=0.001, momentum=0.01, affine=True, track_running_stats=True)
        (2): Swish()
      )
      (depthwise_conv): Sequential(
        (0): Conv2d(2304, 2304, kernel_size=(5, 5), stride=(1, 1), padding=(2, 2), groups=2304, bias=False)
        (1): BatchNorm2d(2304, eps=0.001, momentum=0.01, affine=True, track_running_stats=True)
        (2): Swish()
      )
      (squeeze_excitation): SqueezeExcitation(
        (reduce_expand): Sequential(
          (0): Conv2d(2304, 96, kernel_size=(1, 1), stride=(1, 1))
          (1): Swish()
          (2): Conv2d(96, 2304, kernel_size=(1, 1), stride=(1, 1))
          (3): Sigmoid()
        )
      )
      (project_conv): Sequential(
        (0): Conv2d(2304, 384, kernel_size=(1, 1), stride=(1, 1), bias=False)
        (1): BatchNorm2d(384, eps=0.001, momentum=0.01, affine=True, track_running_stats=True)
      )
    )
    (MBConv6_42): MBConv(
      (expansion_conv): Sequential(
        (0): Conv2d(384, 2304, kernel_size=(1, 1), stride=(1, 1), bias=False)
        (1): BatchNorm2d(2304, eps=0.001, momentum=0.01, affine=True, track_running_stats=True)
        (2): Swish()
      )
      (depthwise_conv): Sequential(
        (0): Conv2d(2304, 2304, kernel_size=(5, 5), stride=(1, 1), padding=(2, 2), groups=2304, bias=False)
        (1): BatchNorm2d(2304, eps=0.001, momentum=0.01, affine=True, track_running_stats=True)
        (2): Swish()
      )
      (squeeze_excitation): SqueezeExcitation(
        (reduce_expand): Sequential(
          (0): Conv2d(2304, 96, kernel_size=(1, 1), stride=(1, 1))
          (1): Swish()
          (2): Conv2d(96, 2304, kernel_size=(1, 1), stride=(1, 1))
          (3): Sigmoid()
        )
      )
      (project_conv): Sequential(
        (0): Conv2d(2304, 384, kernel_size=(1, 1), stride=(1, 1), bias=False)
        (1): BatchNorm2d(384, eps=0.001, momentum=0.01, affine=True, track_running_stats=True)
      )
    )
    (MBConv6_43): MBConv(
      (expansion_conv): Sequential(
        (0): Conv2d(384, 2304, kernel_size=(1, 1), stride=(1, 1), bias=False)
        (1): BatchNorm2d(2304, eps=0.001, momentum=0.01, affine=True, track_running_stats=True)
        (2): Swish()
      )
      (depthwise_conv): Sequential(
        (0): Conv2d(2304, 2304, kernel_size=(5, 5), stride=(1, 1), padding=(2, 2), groups=2304, bias=False)
        (1): BatchNorm2d(2304, eps=0.001, momentum=0.01, affine=True, track_running_stats=True)
        (2): Swish()
      )
      (squeeze_excitation): SqueezeExcitation(
        (reduce_expand): Sequential(
          (0): Conv2d(2304, 96, kernel_size=(1, 1), stride=(1, 1))
          (1): Swish()
          (2): Conv2d(96, 2304, kernel_size=(1, 1), stride=(1, 1))
          (3): Sigmoid()
        )
      )
      (project_conv): Sequential(
        (0): Conv2d(2304, 384, kernel_size=(1, 1), stride=(1, 1), bias=False)
        (1): BatchNorm2d(384, eps=0.001, momentum=0.01, affine=True, track_running_stats=True)
      )
    )
    (MBConv6_44): MBConv(
      (expansion_conv): Sequential(
        (0): Conv2d(384, 2304, kernel_size=(1, 1), stride=(1, 1), bias=False)
        (1): BatchNorm2d(2304, eps=0.001, momentum=0.01, affine=True, track_running_stats=True)
        (2): Swish()
      )
      (depthwise_conv): Sequential(
        (0): Conv2d(2304, 2304, kernel_size=(5, 5), stride=(1, 1), padding=(2, 2), groups=2304, bias=False)
        (1): BatchNorm2d(2304, eps=0.001, momentum=0.01, affine=True, track_running_stats=True)
        (2): Swish()
      )
      (squeeze_excitation): SqueezeExcitation(
        (reduce_expand): Sequential(
          (0): Conv2d(2304, 96, kernel_size=(1, 1), stride=(1, 1))
          (1): Swish()
          (2): Conv2d(96, 2304, kernel_size=(1, 1), stride=(1, 1))
          (3): Sigmoid()
        )
      )
      (project_conv): Sequential(
        (0): Conv2d(2304, 384, kernel_size=(1, 1), stride=(1, 1), bias=False)
        (1): BatchNorm2d(384, eps=0.001, momentum=0.01, affine=True, track_running_stats=True)
      )
    )
    (MBConv6_45): MBConv(
      (expansion_conv): Sequential(
        (0): Conv2d(384, 2304, kernel_size=(1, 1), stride=(1, 1), bias=False)
        (1): BatchNorm2d(2304, eps=0.001, momentum=0.01, affine=True, track_running_stats=True)
        (2): Swish()
      )
      (depthwise_conv): Sequential(
        (0): Conv2d(2304, 2304, kernel_size=(5, 5), stride=(1, 1), padding=(2, 2), groups=2304, bias=False)
        (1): BatchNorm2d(2304, eps=0.001, momentum=0.01, affine=True, track_running_stats=True)
        (2): Swish()
      )
      (squeeze_excitation): SqueezeExcitation(
        (reduce_expand): Sequential(
          (0): Conv2d(2304, 96, kernel_size=(1, 1), stride=(1, 1))
          (1): Swish()
          (2): Conv2d(96, 2304, kernel_size=(1, 1), stride=(1, 1))
          (3): Sigmoid()
        )
      )
      (project_conv): Sequential(
        (0): Conv2d(2304, 384, kernel_size=(1, 1), stride=(1, 1), bias=False)
        (1): BatchNorm2d(384, eps=0.001, momentum=0.01, affine=True, track_running_stats=True)
      )
    )
    (MBConv6_46): MBConv(
      (expansion_conv): Sequential(
        (0): Conv2d(384, 2304, kernel_size=(1, 1), stride=(1, 1), bias=False)
        (1): BatchNorm2d(2304, eps=0.001, momentum=0.01, affine=True, track_running_stats=True)
        (2): Swish()
      )
      (depthwise_conv): Sequential(
        (0): Conv2d(2304, 2304, kernel_size=(5, 5), stride=(1, 1), padding=(2, 2), groups=2304, bias=False)
        (1): BatchNorm2d(2304, eps=0.001, momentum=0.01, affine=True, track_running_stats=True)
        (2): Swish()
      )
      (squeeze_excitation): SqueezeExcitation(
        (reduce_expand): Sequential(
          (0): Conv2d(2304, 96, kernel_size=(1, 1), stride=(1, 1))
          (1): Swish()
          (2): Conv2d(96, 2304, kernel_size=(1, 1), stride=(1, 1))
          (3): Sigmoid()
        )
      )
      (project_conv): Sequential(
        (0): Conv2d(2304, 384, kernel_size=(1, 1), stride=(1, 1), bias=False)
        (1): BatchNorm2d(384, eps=0.001, momentum=0.01, affine=True, track_running_stats=True)
      )
    )
    (MBConv6_47): MBConv(
      (expansion_conv): Sequential(
        (0): Conv2d(384, 2304, kernel_size=(1, 1), stride=(1, 1), bias=False)
        (1): BatchNorm2d(2304, eps=0.001, momentum=0.01, affine=True, track_running_stats=True)
        (2): Swish()
      )
      (depthwise_conv): Sequential(
        (0): Conv2d(2304, 2304, kernel_size=(5, 5), stride=(1, 1), padding=(2, 2), groups=2304, bias=False)
        (1): BatchNorm2d(2304, eps=0.001, momentum=0.01, affine=True, track_running_stats=True)
        (2): Swish()
      )
      (squeeze_excitation): SqueezeExcitation(
        (reduce_expand): Sequential(
          (0): Conv2d(2304, 96, kernel_size=(1, 1), stride=(1, 1))
          (1): Swish()
          (2): Conv2d(96, 2304, kernel_size=(1, 1), stride=(1, 1))
          (3): Sigmoid()
        )
      )
      (project_conv): Sequential(
        (0): Conv2d(2304, 384, kernel_size=(1, 1), stride=(1, 1), bias=False)
        (1): BatchNorm2d(384, eps=0.001, momentum=0.01, affine=True, track_running_stats=True)
      )
    )
    (MBConv6_48): MBConv(
      (expansion_conv): Sequential(
        (0): Conv2d(384, 2304, kernel_size=(1, 1), stride=(1, 1), bias=False)
        (1): BatchNorm2d(2304, eps=0.001, momentum=0.01, affine=True, track_running_stats=True)
        (2): Swish()
      )
      (depthwise_conv): Sequential(
        (0): Conv2d(2304, 2304, kernel_size=(5, 5), stride=(1, 1), padding=(2, 2), groups=2304, bias=False)
        (1): BatchNorm2d(2304, eps=0.001, momentum=0.01, affine=True, track_running_stats=True)
        (2): Swish()
      )
      (squeeze_excitation): SqueezeExcitation(
        (reduce_expand): Sequential(
          (0): Conv2d(2304, 96, kernel_size=(1, 1), stride=(1, 1))
          (1): Swish()
          (2): Conv2d(96, 2304, kernel_size=(1, 1), stride=(1, 1))
          (3): Sigmoid()
        )
      )
      (project_conv): Sequential(
        (0): Conv2d(2304, 384, kernel_size=(1, 1), stride=(1, 1), bias=False)
        (1): BatchNorm2d(384, eps=0.001, momentum=0.01, affine=True, track_running_stats=True)
      )
    )
    (MBConv6_49): MBConv(
      (expansion_conv): Sequential(
        (0): Conv2d(384, 2304, kernel_size=(1, 1), stride=(1, 1), bias=False)
        (1): BatchNorm2d(2304, eps=0.001, momentum=0.01, affine=True, track_running_stats=True)
        (2): Swish()
      )
      (depthwise_conv): Sequential(
        (0): Conv2d(2304, 2304, kernel_size=(5, 5), stride=(1, 1), padding=(2, 2), groups=2304, bias=False)
        (1): BatchNorm2d(2304, eps=0.001, momentum=0.01, affine=True, track_running_stats=True)
        (2): Swish()
      )
      (squeeze_excitation): SqueezeExcitation(
        (reduce_expand): Sequential(
          (0): Conv2d(2304, 96, kernel_size=(1, 1), stride=(1, 1))
          (1): Swish()
          (2): Conv2d(96, 2304, kernel_size=(1, 1), stride=(1, 1))
          (3): Sigmoid()
        )
      )
      (project_conv): Sequential(
        (0): Conv2d(2304, 384, kernel_size=(1, 1), stride=(1, 1), bias=False)
        (1): BatchNorm2d(384, eps=0.001, momentum=0.01, affine=True, track_running_stats=True)
      )
    )
    (MBConv6_50): MBConv(
      (expansion_conv): Sequential(
        (0): Conv2d(384, 2304, kernel_size=(1, 1), stride=(1, 1), bias=False)
        (1): BatchNorm2d(2304, eps=0.001, momentum=0.01, affine=True, track_running_stats=True)
        (2): Swish()
      )
      (depthwise_conv): Sequential(
        (0): Conv2d(2304, 2304, kernel_size=(5, 5), stride=(1, 1), padding=(2, 2), groups=2304, bias=False)
        (1): BatchNorm2d(2304, eps=0.001, momentum=0.01, affine=True, track_running_stats=True)
        (2): Swish()
      )
      (squeeze_excitation): SqueezeExcitation(
        (reduce_expand): Sequential(
          (0): Conv2d(2304, 96, kernel_size=(1, 1), stride=(1, 1))
          (1): Swish()
          (2): Conv2d(96, 2304, kernel_size=(1, 1), stride=(1, 1))
          (3): Sigmoid()
        )
      )
      (project_conv): Sequential(
        (0): Conv2d(2304, 384, kernel_size=(1, 1), stride=(1, 1), bias=False)
        (1): BatchNorm2d(384, eps=0.001, momentum=0.01, affine=True, track_running_stats=True)
      )
    )
    (MBConv6_51): MBConv(
      (expansion_conv): Sequential(
        (0): Conv2d(384, 2304, kernel_size=(1, 1), stride=(1, 1), bias=False)
        (1): BatchNorm2d(2304, eps=0.001, momentum=0.01, affine=True, track_running_stats=True)
        (2): Swish()
      )
      (depthwise_conv): Sequential(
        (0): Conv2d(2304, 2304, kernel_size=(3, 3), stride=(1, 1), padding=(1, 1), groups=2304, bias=False)
        (1): BatchNorm2d(2304, eps=0.001, momentum=0.01, affine=True, track_running_stats=True)
        (2): Swish()
      )
      (squeeze_excitation): SqueezeExcitation(
        (reduce_expand): Sequential(
          (0): Conv2d(2304, 96, kernel_size=(1, 1), stride=(1, 1))
          (1): Swish()
          (2): Conv2d(96, 2304, kernel_size=(1, 1), stride=(1, 1))
          (3): Sigmoid()
        )
      )
      (project_conv): Sequential(
        (0): Conv2d(2304, 640, kernel_size=(1, 1), stride=(1, 1), bias=False)
        (1): BatchNorm2d(640, eps=0.001, momentum=0.01, affine=True, track_running_stats=True)
      )
    )
    (MBConv6_52): MBConv(
      (expansion_conv): Sequential(
        (0): Conv2d(640, 3840, kernel_size=(1, 1), stride=(1, 1), bias=False)
        (1): BatchNorm2d(3840, eps=0.001, momentum=0.01, affine=True, track_running_stats=True)
        (2): Swish()
      )
      (depthwise_conv): Sequential(
        (0): Conv2d(3840, 3840, kernel_size=(3, 3), stride=(1, 1), padding=(1, 1), groups=3840, bias=False)
        (1): BatchNorm2d(3840, eps=0.001, momentum=0.01, affine=True, track_running_stats=True)
        (2): Swish()
      )
      (squeeze_excitation): SqueezeExcitation(
        (reduce_expand): Sequential(
          (0): Conv2d(3840, 160, kernel_size=(1, 1), stride=(1, 1))
          (1): Swish()
          (2): Conv2d(160, 3840, kernel_size=(1, 1), stride=(1, 1))
          (3): Sigmoid()
        )
      )
      (project_conv): Sequential(
        (0): Conv2d(3840, 640, kernel_size=(1, 1), stride=(1, 1), bias=False)
        (1): BatchNorm2d(640, eps=0.001, momentum=0.01, affine=True, track_running_stats=True)
      )
    )
    (MBConv6_53): MBConv(
      (expansion_conv): Sequential(
        (0): Conv2d(640, 3840, kernel_size=(1, 1), stride=(1, 1), bias=False)
        (1): BatchNorm2d(3840, eps=0.001, momentum=0.01, affine=True, track_running_stats=True)
        (2): Swish()
      )
      (depthwise_conv): Sequential(
        (0): Conv2d(3840, 3840, kernel_size=(3, 3), stride=(1, 1), padding=(1, 1), groups=3840, bias=False)
        (1): BatchNorm2d(3840, eps=0.001, momentum=0.01, affine=True, track_running_stats=True)
        (2): Swish()
      )
      (squeeze_excitation): SqueezeExcitation(
        (reduce_expand): Sequential(
          (0): Conv2d(3840, 160, kernel_size=(1, 1), stride=(1, 1))
          (1): Swish()
          (2): Conv2d(160, 3840, kernel_size=(1, 1), stride=(1, 1))
          (3): Sigmoid()
        )
      )
      (project_conv): Sequential(
        (0): Conv2d(3840, 640, kernel_size=(1, 1), stride=(1, 1), bias=False)
        (1): BatchNorm2d(640, eps=0.001, momentum=0.01, affine=True, track_running_stats=True)
      )
    )
    (MBConv6_54): MBConv(
      (expansion_conv): Sequential(
        (0): Conv2d(640, 3840, kernel_size=(1, 1), stride=(1, 1), bias=False)
        (1): BatchNorm2d(3840, eps=0.001, momentum=0.01, affine=True, track_running_stats=True)
        (2): Swish()
      )
      (depthwise_conv): Sequential(
        (0): Conv2d(3840, 3840, kernel_size=(3, 3), stride=(1, 1), padding=(1, 1), groups=3840, bias=False)
        (1): BatchNorm2d(3840, eps=0.001, momentum=0.01, affine=True, track_running_stats=True)
        (2): Swish()
      )
      (squeeze_excitation): SqueezeExcitation(
        (reduce_expand): Sequential(
          (0): Conv2d(3840, 160, kernel_size=(1, 1), stride=(1, 1))
          (1): Swish()
          (2): Conv2d(160, 3840, kernel_size=(1, 1), stride=(1, 1))
          (3): Sigmoid()
        )
      )
      (project_conv): Sequential(
        (0): Conv2d(3840, 640, kernel_size=(1, 1), stride=(1, 1), bias=False)
        (1): BatchNorm2d(640, eps=0.001, momentum=0.01, affine=True, track_running_stats=True)
      )
    )
  )
  (head): Sequential(
    (0): Conv2d(640, 2560, kernel_size=(1, 1), stride=(1, 1), bias=False)
    (1): BatchNorm2d(2560, eps=0.001, momentum=0.01, affine=True, track_running_stats=True)
    (2): Swish()
    (3): AdaptiveAvgPool2d(output_size=1)
    (4): Flatten()
    (5): Dropout(p=0.5, inplace=False)
    (6): Linear(in_features=2560, out_features=1, bias=True)
  )
)