

2022-01-17 12:54:31.324375

EfficientNet(
  (stem): Sequential(
    (0): Conv2d(1, 32, kernel_size=(3, 3), stride=(2, 2), padding=(1, 1), bias=False)
    (1): BatchNorm2d(32, eps=0.001, momentum=0.01, affine=True, track_running_stats=True)
    (2): Swish()
  )
  (blocks): Sequential(
    (MBConv1_0): MBConv(
      (depthwise_conv): Sequential(
        (0): Conv2d(32, 32, kernel_size=(3, 3), stride=(1, 1), padding=(1, 1), groups=32, bias=False)
        (1): BatchNorm2d(32, eps=0.001, momentum=0.01, affine=True, track_running_stats=True)
        (2): Swish()
      )
      (squeeze_excitation): SqueezeExcitation(
        (reduce_expand): Sequential(
          (0): Conv2d(32, 8, kernel_size=(1, 1), stride=(1, 1))
          (1): Swish()
          (2): Conv2d(8, 32, kernel_size=(1, 1), stride=(1, 1))
          (3): Sigmoid()
        )
      )
      (project_conv): Sequential(
        (0): Conv2d(32, 16, kernel_size=(1, 1), stride=(1, 1), bias=False)
        (1): BatchNorm2d(16, eps=0.001, momentum=0.01, affine=True, track_running_stats=True)
      )
    )
    (MBConv1_1): MBConv(
      (depthwise_conv): Sequential(
        (0): Conv2d(16, 16, kernel_size=(3, 3), stride=(1, 1), padding=(1, 1), groups=16, bias=False)
        (1): BatchNorm2d(16, eps=0.001, momentum=0.01, affine=True, track_running_stats=True)
        (2): Swish()
      )
      (squeeze_excitation): SqueezeExcitation(
        (reduce_expand): Sequential(
          (0): Conv2d(16, 4, kernel_size=(1, 1), stride=(1, 1))
          (1): Swish()
          (2): Conv2d(4, 16, kernel_size=(1, 1), stride=(1, 1))
          (3): Sigmoid()
        )
      )
      (project_conv): Sequential(
        (0): Conv2d(16, 16, kernel_size=(1, 1), stride=(1, 1), bias=False)
        (1): BatchNorm2d(16, eps=0.001, momentum=0.01, affine=True, track_running_stats=True)
      )
    )
    (MBConv6_2): MBConv(
      (expansion_conv): Sequential(
        (0): Conv2d(16, 96, kernel_size=(1, 1), stride=(1, 1), bias=False)
        (1): BatchNorm2d(96, eps=0.001, momentum=0.01, affine=True, track_running_stats=True)
        (2): Swish()
      )
      (depthwise_conv): Sequential(
        (0): Conv2d(96, 96, kernel_size=(3, 3), stride=(2, 2), padding=(1, 1), groups=96, bias=False)
        (1): BatchNorm2d(96, eps=0.001, momentum=0.01, affine=True, track_running_stats=True)
        (2): Swish()
      )
      (squeeze_excitation): SqueezeExcitation(
        (reduce_expand): Sequential(
          (0): Conv2d(96, 4, kernel_size=(1, 1), stride=(1, 1))
          (1): Swish()
          (2): Conv2d(4, 96, kernel_size=(1, 1), stride=(1, 1))
          (3): Sigmoid()
        )
      )
      (project_conv): Sequential(
        (0): Conv2d(96, 24, kernel_size=(1, 1), stride=(1, 1), bias=False)
        (1): BatchNorm2d(24, eps=0.001, momentum=0.01, affine=True, track_running_stats=True)
      )
    )
    (MBConv6_3): MBConv(
      (expansion_conv): Sequential(
        (0): Conv2d(24, 144, kernel_size=(1, 1), stride=(1, 1), bias=False)
        (1): BatchNorm2d(144, eps=0.001, momentum=0.01, affine=True, track_running_stats=True)
        (2): Swish()
      )
      (depthwise_conv): Sequential(
        (0): Conv2d(144, 144, kernel_size=(3, 3), stride=(1, 1), padding=(1, 1), groups=144, bias=False)
        (1): BatchNorm2d(144, eps=0.001, momentum=0.01, affine=True, track_running_stats=True)
        (2): Swish()
      )
      (squeeze_excitation): SqueezeExcitation(
        (reduce_expand): Sequential(
          (0): Conv2d(144, 6, kernel_size=(1, 1), stride=(1, 1))
          (1): Swish()
          (2): Conv2d(6, 144, kernel_size=(1, 1), stride=(1, 1))
          (3): Sigmoid()
        )
      )
      (project_conv): Sequential(
        (0): Conv2d(144, 24, kernel_size=(1, 1), stride=(1, 1), bias=False)
        (1): BatchNorm2d(24, eps=0.001, momentum=0.01, affine=True, track_running_stats=True)
      )
    )
    (MBConv6_4): MBConv(
      (expansion_conv): Sequential(
        (0): Conv2d(24, 144, kernel_size=(1, 1), stride=(1, 1), bias=False)
        (1): BatchNorm2d(144, eps=0.001, momentum=0.01, affine=True, track_running_stats=True)
        (2): Swish()
      )
      (depthwise_conv): Sequential(
        (0): Conv2d(144, 144, kernel_size=(3, 3), stride=(1, 1), padding=(1, 1), groups=144, bias=False)
        (1): BatchNorm2d(144, eps=0.001, momentum=0.01, affine=True, track_running_stats=True)
        (2): Swish()
      )
      (squeeze_excitation): SqueezeExcitation(
        (reduce_expand): Sequential(
          (0): Conv2d(144, 6, kernel_size=(1, 1), stride=(1, 1))
          (1): Swish()
          (2): Conv2d(6, 144, kernel_size=(1, 1), stride=(1, 1))
          (3): Sigmoid()
        )
      )
      (project_conv): Sequential(
        (0): Conv2d(144, 24, kernel_size=(1, 1), stride=(1, 1), bias=False)
        (1): BatchNorm2d(24, eps=0.001, momentum=0.01, affine=True, track_running_stats=True)
      )
    )
    (MBConv6_5): MBConv(
      (expansion_conv): Sequential(
        (0): Conv2d(24, 144, kernel_size=(1, 1), stride=(1, 1), bias=False)
        (1): BatchNorm2d(144, eps=0.001, momentum=0.01, affine=True, track_running_stats=True)
        (2): Swish()
      )
      (depthwise_conv): Sequential(
        (0): Conv2d(144, 144, kernel_size=(5, 5), stride=(2, 2), padding=(2, 2), groups=144, bias=False)
        (1): BatchNorm2d(144, eps=0.001, momentum=0.01, affine=True, track_running_stats=True)
        (2): Swish()
      )
      (squeeze_excitation): SqueezeExcitation(
        (reduce_expand): Sequential(
          (0): Conv2d(144, 6, kernel_size=(1, 1), stride=(1, 1))
          (1): Swish()
          (2): Conv2d(6, 144, kernel_size=(1, 1), stride=(1, 1))
          (3): Sigmoid()
        )
      )
      (project_conv): Sequential(
        (0): Conv2d(144, 40, kernel_size=(1, 1), stride=(1, 1), bias=False)
        (1): BatchNorm2d(40, eps=0.001, momentum=0.01, affine=True, track_running_stats=True)
      )
    )
    (MBConv6_6): MBConv(
      (expansion_conv): Sequential(
        (0): Conv2d(40, 240, kernel_size=(1, 1), stride=(1, 1), bias=False)
        (1): BatchNorm2d(240, eps=0.001, momentum=0.01, affine=True, track_running_stats=True)
        (2): Swish()
      )
      (depthwise_conv): Sequential(
        (0): Conv2d(240, 240, kernel_size=(5, 5), stride=(1, 1), padding=(2, 2), groups=240, bias=False)
        (1): BatchNorm2d(240, eps=0.001, momentum=0.01, affine=True, track_running_stats=True)
        (2): Swish()
      )
      (squeeze_excitation): SqueezeExcitation(
        (reduce_expand): Sequential(
          (0): Conv2d(240, 10, kernel_size=(1, 1), stride=(1, 1))
          (1): Swish()
          (2): Conv2d(10, 240, kernel_size=(1, 1), stride=(1, 1))
          (3): Sigmoid()
        )
      )
      (project_conv): Sequential(
        (0): Conv2d(240, 40, kernel_size=(1, 1), stride=(1, 1), bias=False)
        (1): BatchNorm2d(40, eps=0.001, momentum=0.01, affine=True, track_running_stats=True)
      )
    )
    (MBConv6_7): MBConv(
      (expansion_conv): Sequential(
        (0): Conv2d(40, 240, kernel_size=(1, 1), stride=(1, 1), bias=False)
        (1): BatchNorm2d(240, eps=0.001, momentum=0.01, affine=True, track_running_stats=True)
        (2): Swish()
      )
      (depthwise_conv): Sequential(
        (0): Conv2d(240, 240, kernel_size=(5, 5), stride=(1, 1), padding=(2, 2), groups=240, bias=False)
        (1): BatchNorm2d(240, eps=0.001, momentum=0.01, affine=True, track_running_stats=True)
        (2): Swish()
      )
      (squeeze_excitation): SqueezeExcitation(
        (reduce_expand): Sequential(
          (0): Conv2d(240, 10, kernel_size=(1, 1), stride=(1, 1))
          (1): Swish()
          (2): Conv2d(10, 240, kernel_size=(1, 1), stride=(1, 1))
          (3): Sigmoid()
        )
      )
      (project_conv): Sequential(
        (0): Conv2d(240, 40, kernel_size=(1, 1), stride=(1, 1), bias=False)
        (1): BatchNorm2d(40, eps=0.001, momentum=0.01, affine=True, track_running_stats=True)
      )
    )
    (MBConv6_8): MBConv(
      (expansion_conv): Sequential(
        (0): Conv2d(40, 240, kernel_size=(1, 1), stride=(1, 1), bias=False)
        (1): BatchNorm2d(240, eps=0.001, momentum=0.01, affine=True, track_running_stats=True)
        (2): Swish()
      )
      (depthwise_conv): Sequential(
        (0): Conv2d(240, 240, kernel_size=(3, 3), stride=(2, 2), padding=(1, 1), groups=240, bias=False)
        (1): BatchNorm2d(240, eps=0.001, momentum=0.01, affine=True, track_running_stats=True)
        (2): Swish()
      )
      (squeeze_excitation): SqueezeExcitation(
        (reduce_expand): Sequential(
          (0): Conv2d(240, 10, kernel_size=(1, 1), stride=(1, 1))
          (1): Swish()
          (2): Conv2d(10, 240, kernel_size=(1, 1), stride=(1, 1))
          (3): Sigmoid()
        )
      )
      (project_conv): Sequential(
        (0): Conv2d(240, 80, kernel_size=(1, 1), stride=(1, 1), bias=False)
        (1): BatchNorm2d(80, eps=0.001, momentum=0.01, affine=True, track_running_stats=True)
      )
    )
    (MBConv6_9): MBConv(
      (expansion_conv): Sequential(
        (0): Conv2d(80, 480, kernel_size=(1, 1), stride=(1, 1), bias=False)
        (1): BatchNorm2d(480, eps=0.001, momentum=0.01, affine=True, track_running_stats=True)
        (2): Swish()
      )
      (depthwise_conv): Sequential(
        (0): Conv2d(480, 480, kernel_size=(3, 3), stride=(1, 1), padding=(1, 1), groups=480, bias=False)
        (1): BatchNorm2d(480, eps=0.001, momentum=0.01, affine=True, track_running_stats=True)
        (2): Swish()
      )
      (squeeze_excitation): SqueezeExcitation(
        (reduce_expand): Sequential(
          (0): Conv2d(480, 20, kernel_size=(1, 1), stride=(1, 1))
          (1): Swish()
          (2): Conv2d(20, 480, kernel_size=(1, 1), stride=(1, 1))
          (3): Sigmoid()
        )
      )
      (project_conv): Sequential(
        (0): Conv2d(480, 80, kernel_size=(1, 1), stride=(1, 1), bias=False)
        (1): BatchNorm2d(80, eps=0.001, momentum=0.01, affine=True, track_running_stats=True)
      )
    )
    (MBConv6_10): MBConv(
      (expansion_conv): Sequential(
        (0): Conv2d(80, 480, kernel_size=(1, 1), stride=(1, 1), bias=False)
        (1): BatchNorm2d(480, eps=0.001, momentum=0.01, affine=True, track_running_stats=True)
        (2): Swish()
      )
      (depthwise_conv): Sequential(
        (0): Conv2d(480, 480, kernel_size=(3, 3), stride=(1, 1), padding=(1, 1), groups=480, bias=False)
        (1): BatchNorm2d(480, eps=0.001, momentum=0.01, affine=True, track_running_stats=True)
        (2): Swish()
      )
      (squeeze_excitation): SqueezeExcitation(
        (reduce_expand): Sequential(
          (0): Conv2d(480, 20, kernel_size=(1, 1), stride=(1, 1))
          (1): Swish()
          (2): Conv2d(20, 480, kernel_size=(1, 1), stride=(1, 1))
          (3): Sigmoid()
        )
      )
      (project_conv): Sequential(
        (0): Conv2d(480, 80, kernel_size=(1, 1), stride=(1, 1), bias=False)
        (1): BatchNorm2d(80, eps=0.001, momentum=0.01, affine=True, track_running_stats=True)
      )
    )
    (MBConv6_11): MBConv(
      (expansion_conv): Sequential(
        (0): Conv2d(80, 480, kernel_size=(1, 1), stride=(1, 1), bias=False)
        (1): BatchNorm2d(480, eps=0.001, momentum=0.01, affine=True, track_running_stats=True)
        (2): Swish()
      )
      (depthwise_conv): Sequential(
        (0): Conv2d(480, 480, kernel_size=(3, 3), stride=(1, 1), padding=(1, 1), groups=480, bias=False)
        (1): BatchNorm2d(480, eps=0.001, momentum=0.01, affine=True, track_running_stats=True)
        (2): Swish()
      )
      (squeeze_excitation): SqueezeExcitation(
        (reduce_expand): Sequential(
          (0): Conv2d(480, 20, kernel_size=(1, 1), stride=(1, 1))
          (1): Swish()
          (2): Conv2d(20, 480, kernel_size=(1, 1), stride=(1, 1))
          (3): Sigmoid()
        )
      )
      (project_conv): Sequential(
        (0): Conv2d(480, 80, kernel_size=(1, 1), stride=(1, 1), bias=False)
        (1): BatchNorm2d(80, eps=0.001, momentum=0.01, affine=True, track_running_stats=True)
      )
    )
    (MBConv6_12): MBConv(
      (expansion_conv): Sequential(
        (0): Conv2d(80, 480, kernel_size=(1, 1), stride=(1, 1), bias=False)
        (1): BatchNorm2d(480, eps=0.001, momentum=0.01, affine=True, track_running_stats=True)
        (2): Swish()
      )
      (depthwise_conv): Sequential(
        (0): Conv2d(480, 480, kernel_size=(5, 5), stride=(1, 1), padding=(2, 2), groups=480, bias=False)
        (1): BatchNorm2d(480, eps=0.001, momentum=0.01, affine=True, track_running_stats=True)
        (2): Swish()
      )
      (squeeze_excitation): SqueezeExcitation(
        (reduce_expand): Sequential(
          (0): Conv2d(480, 20, kernel_size=(1, 1), stride=(1, 1))
          (1): Swish()
          (2): Conv2d(20, 480, kernel_size=(1, 1), stride=(1, 1))
          (3): Sigmoid()
        )
      )
      (project_conv): Sequential(
        (0): Conv2d(480, 112, kernel_size=(1, 1), stride=(1, 1), bias=False)
        (1): BatchNorm2d(112, eps=0.001, momentum=0.01, affine=True, track_running_stats=True)
      )
    )
    (MBConv6_13): MBConv(
      (expansion_conv): Sequential(
        (0): Conv2d(112, 672, kernel_size=(1, 1), stride=(1, 1), bias=False)
        (1): BatchNorm2d(672, eps=0.001, momentum=0.01, affine=True, track_running_stats=True)
        (2): Swish()
      )
      (depthwise_conv): Sequential(
        (0): Conv2d(672, 672, kernel_size=(5, 5), stride=(1, 1), padding=(2, 2), groups=672, bias=False)
        (1): BatchNorm2d(672, eps=0.001, momentum=0.01, affine=True, track_running_stats=True)
        (2): Swish()
      )
      (squeeze_excitation): SqueezeExcitation(
        (reduce_expand): Sequential(
          (0): Conv2d(672, 28, kernel_size=(1, 1), stride=(1, 1))
          (1): Swish()
          (2): Conv2d(28, 672, kernel_size=(1, 1), stride=(1, 1))
          (3): Sigmoid()
        )
      )
      (project_conv): Sequential(
        (0): Conv2d(672, 112, kernel_size=(1, 1), stride=(1, 1), bias=False)
        (1): BatchNorm2d(112, eps=0.001, momentum=0.01, affine=True, track_running_stats=True)
      )
    )
    (MBConv6_14): MBConv(
      (expansion_conv): Sequential(
        (0): Conv2d(112, 672, kernel_size=(1, 1), stride=(1, 1), bias=False)
        (1): BatchNorm2d(672, eps=0.001, momentum=0.01, affine=True, track_running_stats=True)
        (2): Swish()
      )
      (depthwise_conv): Sequential(
        (0): Conv2d(672, 672, kernel_size=(5, 5), stride=(1, 1), padding=(2, 2), groups=672, bias=False)
        (1): BatchNorm2d(672, eps=0.001, momentum=0.01, affine=True, track_running_stats=True)
        (2): Swish()
      )
      (squeeze_excitation): SqueezeExcitation(
        (reduce_expand): Sequential(
          (0): Conv2d(672, 28, kernel_size=(1, 1), stride=(1, 1))
          (1): Swish()
          (2): Conv2d(28, 672, kernel_size=(1, 1), stride=(1, 1))
          (3): Sigmoid()
        )
      )
      (project_conv): Sequential(
        (0): Conv2d(672, 112, kernel_size=(1, 1), stride=(1, 1), bias=False)
        (1): BatchNorm2d(112, eps=0.001, momentum=0.01, affine=True, track_running_stats=True)
      )
    )
    (MBConv6_15): MBConv(
      (expansion_conv): Sequential(
        (0): Conv2d(112, 672, kernel_size=(1, 1), stride=(1, 1), bias=False)
        (1): BatchNorm2d(672, eps=0.001, momentum=0.01, affine=True, track_running_stats=True)
        (2): Swish()
      )
      (depthwise_conv): Sequential(
        (0): Conv2d(672, 672, kernel_size=(5, 5), stride=(1, 1), padding=(2, 2), groups=672, bias=False)
        (1): BatchNorm2d(672, eps=0.001, momentum=0.01, affine=True, track_running_stats=True)
        (2): Swish()
      )
      (squeeze_excitation): SqueezeExcitation(
        (reduce_expand): Sequential(
          (0): Conv2d(672, 28, kernel_size=(1, 1), stride=(1, 1))
          (1): Swish()
          (2): Conv2d(28, 672, kernel_size=(1, 1), stride=(1, 1))
          (3): Sigmoid()
        )
      )
      (project_conv): Sequential(
        (0): Conv2d(672, 112, kernel_size=(1, 1), stride=(1, 1), bias=False)
        (1): BatchNorm2d(112, eps=0.001, momentum=0.01, affine=True, track_running_stats=True)
      )
    )
    (MBConv6_16): MBConv(
      (expansion_conv): Sequential(
        (0): Conv2d(112, 672, kernel_size=(1, 1), stride=(1, 1), bias=False)
        (1): BatchNorm2d(672, eps=0.001, momentum=0.01, affine=True, track_running_stats=True)
        (2): Swish()
      )
      (depthwise_conv): Sequential(
        (0): Conv2d(672, 672, kernel_size=(5, 5), stride=(2, 2), padding=(2, 2), groups=672, bias=False)
        (1): BatchNorm2d(672, eps=0.001, momentum=0.01, affine=True, track_running_stats=True)
        (2): Swish()
      )
      (squeeze_excitation): SqueezeExcitation(
        (reduce_expand): Sequential(
          (0): Conv2d(672, 28, kernel_size=(1, 1), stride=(1, 1))
          (1): Swish()
          (2): Conv2d(28, 672, kernel_size=(1, 1), stride=(1, 1))
          (3): Sigmoid()
        )
      )
      (project_conv): Sequential(
        (0): Conv2d(672, 192, kernel_size=(1, 1), stride=(1, 1), bias=False)
        (1): BatchNorm2d(192, eps=0.001, momentum=0.01, affine=True, track_running_stats=True)
      )
    )
    (MBConv6_17): MBConv(
      (expansion_conv): Sequential(
        (0): Conv2d(192, 1152, kernel_size=(1, 1), stride=(1, 1), bias=False)
        (1): BatchNorm2d(1152, eps=0.001, momentum=0.01, affine=True, track_running_stats=True)
        (2): Swish()
      )
      (depthwise_conv): Sequential(
        (0): Conv2d(1152, 1152, kernel_size=(5, 5), stride=(1, 1), padding=(2, 2), groups=1152, bias=False)
        (1): BatchNorm2d(1152, eps=0.001, momentum=0.01, affine=True, track_running_stats=True)
        (2): Swish()
      )
      (squeeze_excitation): SqueezeExcitation(
        (reduce_expand): Sequential(
          (0): Conv2d(1152, 48, kernel_size=(1, 1), stride=(1, 1))
          (1): Swish()
          (2): Conv2d(48, 1152, kernel_size=(1, 1), stride=(1, 1))
          (3): Sigmoid()
        )
      )
      (project_conv): Sequential(
        (0): Conv2d(1152, 192, kernel_size=(1, 1), stride=(1, 1), bias=False)
        (1): BatchNorm2d(192, eps=0.001, momentum=0.01, affine=True, track_running_stats=True)
      )
    )
    (MBConv6_18): MBConv(
      (expansion_conv): Sequential(
        (0): Conv2d(192, 1152, kernel_size=(1, 1), stride=(1, 1), bias=False)
        (1): BatchNorm2d(1152, eps=0.001, momentum=0.01, affine=True, track_running_stats=True)
        (2): Swish()
      )
      (depthwise_conv): Sequential(
        (0): Conv2d(1152, 1152, kernel_size=(5, 5), stride=(1, 1), padding=(2, 2), groups=1152, bias=False)
        (1): BatchNorm2d(1152, eps=0.001, momentum=0.01, affine=True, track_running_stats=True)
        (2): Swish()
      )
      (squeeze_excitation): SqueezeExcitation(
        (reduce_expand): Sequential(
          (0): Conv2d(1152, 48, kernel_size=(1, 1), stride=(1, 1))
          (1): Swish()
          (2): Conv2d(48, 1152, kernel_size=(1, 1), stride=(1, 1))
          (3): Sigmoid()
        )
      )
      (project_conv): Sequential(
        (0): Conv2d(1152, 192, kernel_size=(1, 1), stride=(1, 1), bias=False)
        (1): BatchNorm2d(192, eps=0.001, momentum=0.01, affine=True, track_running_stats=True)
      )
    )
    (MBConv6_19): MBConv(
      (expansion_conv): Sequential(
        (0): Conv2d(192, 1152, kernel_size=(1, 1), stride=(1, 1), bias=False)
        (1): BatchNorm2d(1152, eps=0.001, momentum=0.01, affine=True, track_running_stats=True)
        (2): Swish()
      )
      (depthwise_conv): Sequential(
        (0): Conv2d(1152, 1152, kernel_size=(5, 5), stride=(1, 1), padding=(2, 2), groups=1152, bias=False)
        (1): BatchNorm2d(1152, eps=0.001, momentum=0.01, affine=True, track_running_stats=True)
        (2): Swish()
      )
      (squeeze_excitation): SqueezeExcitation(
        (reduce_expand): Sequential(
          (0): Conv2d(1152, 48, kernel_size=(1, 1), stride=(1, 1))
          (1): Swish()
          (2): Conv2d(48, 1152, kernel_size=(1, 1), stride=(1, 1))
          (3): Sigmoid()
        )
      )
      (project_conv): Sequential(
        (0): Conv2d(1152, 192, kernel_size=(1, 1), stride=(1, 1), bias=False)
        (1): BatchNorm2d(192, eps=0.001, momentum=0.01, affine=True, track_running_stats=True)
      )
    )
    (MBConv6_20): MBConv(
      (expansion_conv): Sequential(
        (0): Conv2d(192, 1152, kernel_size=(1, 1), stride=(1, 1), bias=False)
        (1): BatchNorm2d(1152, eps=0.001, momentum=0.01, affine=True, track_running_stats=True)
        (2): Swish()
      )
      (depthwise_conv): Sequential(
        (0): Conv2d(1152, 1152, kernel_size=(5, 5), stride=(1, 1), padding=(2, 2), groups=1152, bias=False)
        (1): BatchNorm2d(1152, eps=0.001, momentum=0.01, affine=True, track_running_stats=True)
        (2): Swish()
      )
      (squeeze_excitation): SqueezeExcitation(
        (reduce_expand): Sequential(
          (0): Conv2d(1152, 48, kernel_size=(1, 1), stride=(1, 1))
          (1): Swish()
          (2): Conv2d(48, 1152, kernel_size=(1, 1), stride=(1, 1))
          (3): Sigmoid()
        )
      )
      (project_conv): Sequential(
        (0): Conv2d(1152, 192, kernel_size=(1, 1), stride=(1, 1), bias=False)
        (1): BatchNorm2d(192, eps=0.001, momentum=0.01, affine=True, track_running_stats=True)
      )
    )
    (MBConv6_21): MBConv(
      (expansion_conv): Sequential(
        (0): Conv2d(192, 1152, kernel_size=(1, 1), stride=(1, 1), bias=False)
        (1): BatchNorm2d(1152, eps=0.001, momentum=0.01, affine=True, track_running_stats=True)
        (2): Swish()
      )
      (depthwise_conv): Sequential(
        (0): Conv2d(1152, 1152, kernel_size=(3, 3), stride=(1, 1), padding=(1, 1), groups=1152, bias=False)
        (1): BatchNorm2d(1152, eps=0.001, momentum=0.01, affine=True, track_running_stats=True)
        (2): Swish()
      )
      (squeeze_excitation): SqueezeExcitation(
        (reduce_expand): Sequential(
          (0): Conv2d(1152, 48, kernel_size=(1, 1), stride=(1, 1))
          (1): Swish()
          (2): Conv2d(48, 1152, kernel_size=(1, 1), stride=(1, 1))
          (3): Sigmoid()
        )
      )
      (project_conv): Sequential(
        (0): Conv2d(1152, 320, kernel_size=(1, 1), stride=(1, 1), bias=False)
        (1): BatchNorm2d(320, eps=0.001, momentum=0.01, affine=True, track_running_stats=True)
      )
    )
    (MBConv6_22): MBConv(
      (expansion_conv): Sequential(
        (0): Conv2d(320, 1920, kernel_size=(1, 1), stride=(1, 1), bias=False)
        (1): BatchNorm2d(1920, eps=0.001, momentum=0.01, affine=True, track_running_stats=True)
        (2): Swish()
      )
      (depthwise_conv): Sequential(
        (0): Conv2d(1920, 1920, kernel_size=(3, 3), stride=(1, 1), padding=(1, 1), groups=1920, bias=False)
        (1): BatchNorm2d(1920, eps=0.001, momentum=0.01, affine=True, track_running_stats=True)
        (2): Swish()
      )
      (squeeze_excitation): SqueezeExcitation(
        (reduce_expand): Sequential(
          (0): Conv2d(1920, 80, kernel_size=(1, 1), stride=(1, 1))
          (1): Swish()
          (2): Conv2d(80, 1920, kernel_size=(1, 1), stride=(1, 1))
          (3): Sigmoid()
        )
      )
      (project_conv): Sequential(
        (0): Conv2d(1920, 320, kernel_size=(1, 1), stride=(1, 1), bias=False)
        (1): BatchNorm2d(320, eps=0.001, momentum=0.01, affine=True, track_running_stats=True)
      )
    )
  )
  (head): Sequential(
    (0): Conv2d(320, 1280, kernel_size=(1, 1), stride=(1, 1), bias=False)
    (1): BatchNorm2d(1280, eps=0.001, momentum=0.01, affine=True, track_running_stats=True)
    (2): Swish()
    (3): AdaptiveAvgPool2d(output_size=1)
    (4): Flatten()
    (5): Dropout(p=0.2, inplace=False)
    (6): Linear(in_features=1280, out_features=8, bias=True)
  )
)

2022-01-17 12:56:58.372761

EfficientNet(
  (stem): Sequential(
    (0): Conv2d(1, 32, kernel_size=(3, 3), stride=(2, 2), padding=(1, 1), bias=False)
    (1): BatchNorm2d(32, eps=0.001, momentum=0.01, affine=True, track_running_stats=True)
    (2): Swish()
  )
  (blocks): Sequential(
    (MBConv1_0): MBConv(
      (depthwise_conv): Sequential(
        (0): Conv2d(32, 32, kernel_size=(3, 3), stride=(1, 1), padding=(1, 1), groups=32, bias=False)
        (1): BatchNorm2d(32, eps=0.001, momentum=0.01, affine=True, track_running_stats=True)
        (2): Swish()
      )
      (squeeze_excitation): SqueezeExcitation(
        (reduce_expand): Sequential(
          (0): Conv2d(32, 8, kernel_size=(1, 1), stride=(1, 1))
          (1): Swish()
          (2): Conv2d(8, 32, kernel_size=(1, 1), stride=(1, 1))
          (3): Sigmoid()
        )
      )
      (project_conv): Sequential(
        (0): Conv2d(32, 16, kernel_size=(1, 1), stride=(1, 1), bias=False)
        (1): BatchNorm2d(16, eps=0.001, momentum=0.01, affine=True, track_running_stats=True)
      )
    )
    (MBConv1_1): MBConv(
      (depthwise_conv): Sequential(
        (0): Conv2d(16, 16, kernel_size=(3, 3), stride=(1, 1), padding=(1, 1), groups=16, bias=False)
        (1): BatchNorm2d(16, eps=0.001, momentum=0.01, affine=True, track_running_stats=True)
        (2): Swish()
      )
      (squeeze_excitation): SqueezeExcitation(
        (reduce_expand): Sequential(
          (0): Conv2d(16, 4, kernel_size=(1, 1), stride=(1, 1))
          (1): Swish()
          (2): Conv2d(4, 16, kernel_size=(1, 1), stride=(1, 1))
          (3): Sigmoid()
        )
      )
      (project_conv): Sequential(
        (0): Conv2d(16, 16, kernel_size=(1, 1), stride=(1, 1), bias=False)
        (1): BatchNorm2d(16, eps=0.001, momentum=0.01, affine=True, track_running_stats=True)
      )
    )
    (MBConv6_2): MBConv(
      (expansion_conv): Sequential(
        (0): Conv2d(16, 96, kernel_size=(1, 1), stride=(1, 1), bias=False)
        (1): BatchNorm2d(96, eps=0.001, momentum=0.01, affine=True, track_running_stats=True)
        (2): Swish()
      )
      (depthwise_conv): Sequential(
        (0): Conv2d(96, 96, kernel_size=(3, 3), stride=(2, 2), padding=(1, 1), groups=96, bias=False)
        (1): BatchNorm2d(96, eps=0.001, momentum=0.01, affine=True, track_running_stats=True)
        (2): Swish()
      )
      (squeeze_excitation): SqueezeExcitation(
        (reduce_expand): Sequential(
          (0): Conv2d(96, 4, kernel_size=(1, 1), stride=(1, 1))
          (1): Swish()
          (2): Conv2d(4, 96, kernel_size=(1, 1), stride=(1, 1))
          (3): Sigmoid()
        )
      )
      (project_conv): Sequential(
        (0): Conv2d(96, 24, kernel_size=(1, 1), stride=(1, 1), bias=False)
        (1): BatchNorm2d(24, eps=0.001, momentum=0.01, affine=True, track_running_stats=True)
      )
    )
    (MBConv6_3): MBConv(
      (expansion_conv): Sequential(
        (0): Conv2d(24, 144, kernel_size=(1, 1), stride=(1, 1), bias=False)
        (1): BatchNorm2d(144, eps=0.001, momentum=0.01, affine=True, track_running_stats=True)
        (2): Swish()
      )
      (depthwise_conv): Sequential(
        (0): Conv2d(144, 144, kernel_size=(3, 3), stride=(1, 1), padding=(1, 1), groups=144, bias=False)
        (1): BatchNorm2d(144, eps=0.001, momentum=0.01, affine=True, track_running_stats=True)
        (2): Swish()
      )
      (squeeze_excitation): SqueezeExcitation(
        (reduce_expand): Sequential(
          (0): Conv2d(144, 6, kernel_size=(1, 1), stride=(1, 1))
          (1): Swish()
          (2): Conv2d(6, 144, kernel_size=(1, 1), stride=(1, 1))
          (3): Sigmoid()
        )
      )
      (project_conv): Sequential(
        (0): Conv2d(144, 24, kernel_size=(1, 1), stride=(1, 1), bias=False)
        (1): BatchNorm2d(24, eps=0.001, momentum=0.01, affine=True, track_running_stats=True)
      )
    )
    (MBConv6_4): MBConv(
      (expansion_conv): Sequential(
        (0): Conv2d(24, 144, kernel_size=(1, 1), stride=(1, 1), bias=False)
        (1): BatchNorm2d(144, eps=0.001, momentum=0.01, affine=True, track_running_stats=True)
        (2): Swish()
      )
      (depthwise_conv): Sequential(
        (0): Conv2d(144, 144, kernel_size=(3, 3), stride=(1, 1), padding=(1, 1), groups=144, bias=False)
        (1): BatchNorm2d(144, eps=0.001, momentum=0.01, affine=True, track_running_stats=True)
        (2): Swish()
      )
      (squeeze_excitation): SqueezeExcitation(
        (reduce_expand): Sequential(
          (0): Conv2d(144, 6, kernel_size=(1, 1), stride=(1, 1))
          (1): Swish()
          (2): Conv2d(6, 144, kernel_size=(1, 1), stride=(1, 1))
          (3): Sigmoid()
        )
      )
      (project_conv): Sequential(
        (0): Conv2d(144, 24, kernel_size=(1, 1), stride=(1, 1), bias=False)
        (1): BatchNorm2d(24, eps=0.001, momentum=0.01, affine=True, track_running_stats=True)
      )
    )
    (MBConv6_5): MBConv(
      (expansion_conv): Sequential(
        (0): Conv2d(24, 144, kernel_size=(1, 1), stride=(1, 1), bias=False)
        (1): BatchNorm2d(144, eps=0.001, momentum=0.01, affine=True, track_running_stats=True)
        (2): Swish()
      )
      (depthwise_conv): Sequential(
        (0): Conv2d(144, 144, kernel_size=(5, 5), stride=(2, 2), padding=(2, 2), groups=144, bias=False)
        (1): BatchNorm2d(144, eps=0.001, momentum=0.01, affine=True, track_running_stats=True)
        (2): Swish()
      )
      (squeeze_excitation): SqueezeExcitation(
        (reduce_expand): Sequential(
          (0): Conv2d(144, 6, kernel_size=(1, 1), stride=(1, 1))
          (1): Swish()
          (2): Conv2d(6, 144, kernel_size=(1, 1), stride=(1, 1))
          (3): Sigmoid()
        )
      )
      (project_conv): Sequential(
        (0): Conv2d(144, 40, kernel_size=(1, 1), stride=(1, 1), bias=False)
        (1): BatchNorm2d(40, eps=0.001, momentum=0.01, affine=True, track_running_stats=True)
      )
    )
    (MBConv6_6): MBConv(
      (expansion_conv): Sequential(
        (0): Conv2d(40, 240, kernel_size=(1, 1), stride=(1, 1), bias=False)
        (1): BatchNorm2d(240, eps=0.001, momentum=0.01, affine=True, track_running_stats=True)
        (2): Swish()
      )
      (depthwise_conv): Sequential(
        (0): Conv2d(240, 240, kernel_size=(5, 5), stride=(1, 1), padding=(2, 2), groups=240, bias=False)
        (1): BatchNorm2d(240, eps=0.001, momentum=0.01, affine=True, track_running_stats=True)
        (2): Swish()
      )
      (squeeze_excitation): SqueezeExcitation(
        (reduce_expand): Sequential(
          (0): Conv2d(240, 10, kernel_size=(1, 1), stride=(1, 1))
          (1): Swish()
          (2): Conv2d(10, 240, kernel_size=(1, 1), stride=(1, 1))
          (3): Sigmoid()
        )
      )
      (project_conv): Sequential(
        (0): Conv2d(240, 40, kernel_size=(1, 1), stride=(1, 1), bias=False)
        (1): BatchNorm2d(40, eps=0.001, momentum=0.01, affine=True, track_running_stats=True)
      )
    )
    (MBConv6_7): MBConv(
      (expansion_conv): Sequential(
        (0): Conv2d(40, 240, kernel_size=(1, 1), stride=(1, 1), bias=False)
        (1): BatchNorm2d(240, eps=0.001, momentum=0.01, affine=True, track_running_stats=True)
        (2): Swish()
      )
      (depthwise_conv): Sequential(
        (0): Conv2d(240, 240, kernel_size=(5, 5), stride=(1, 1), padding=(2, 2), groups=240, bias=False)
        (1): BatchNorm2d(240, eps=0.001, momentum=0.01, affine=True, track_running_stats=True)
        (2): Swish()
      )
      (squeeze_excitation): SqueezeExcitation(
        (reduce_expand): Sequential(
          (0): Conv2d(240, 10, kernel_size=(1, 1), stride=(1, 1))
          (1): Swish()
          (2): Conv2d(10, 240, kernel_size=(1, 1), stride=(1, 1))
          (3): Sigmoid()
        )
      )
      (project_conv): Sequential(
        (0): Conv2d(240, 40, kernel_size=(1, 1), stride=(1, 1), bias=False)
        (1): BatchNorm2d(40, eps=0.001, momentum=0.01, affine=True, track_running_stats=True)
      )
    )
    (MBConv6_8): MBConv(
      (expansion_conv): Sequential(
        (0): Conv2d(40, 240, kernel_size=(1, 1), stride=(1, 1), bias=False)
        (1): BatchNorm2d(240, eps=0.001, momentum=0.01, affine=True, track_running_stats=True)
        (2): Swish()
      )
      (depthwise_conv): Sequential(
        (0): Conv2d(240, 240, kernel_size=(3, 3), stride=(2, 2), padding=(1, 1), groups=240, bias=False)
        (1): BatchNorm2d(240, eps=0.001, momentum=0.01, affine=True, track_running_stats=True)
        (2): Swish()
      )
      (squeeze_excitation): SqueezeExcitation(
        (reduce_expand): Sequential(
          (0): Conv2d(240, 10, kernel_size=(1, 1), stride=(1, 1))
          (1): Swish()
          (2): Conv2d(10, 240, kernel_size=(1, 1), stride=(1, 1))
          (3): Sigmoid()
        )
      )
      (project_conv): Sequential(
        (0): Conv2d(240, 80, kernel_size=(1, 1), stride=(1, 1), bias=False)
        (1): BatchNorm2d(80, eps=0.001, momentum=0.01, affine=True, track_running_stats=True)
      )
    )
    (MBConv6_9): MBConv(
      (expansion_conv): Sequential(
        (0): Conv2d(80, 480, kernel_size=(1, 1), stride=(1, 1), bias=False)
        (1): BatchNorm2d(480, eps=0.001, momentum=0.01, affine=True, track_running_stats=True)
        (2): Swish()
      )
      (depthwise_conv): Sequential(
        (0): Conv2d(480, 480, kernel_size=(3, 3), stride=(1, 1), padding=(1, 1), groups=480, bias=False)
        (1): BatchNorm2d(480, eps=0.001, momentum=0.01, affine=True, track_running_stats=True)
        (2): Swish()
      )
      (squeeze_excitation): SqueezeExcitation(
        (reduce_expand): Sequential(
          (0): Conv2d(480, 20, kernel_size=(1, 1), stride=(1, 1))
          (1): Swish()
          (2): Conv2d(20, 480, kernel_size=(1, 1), stride=(1, 1))
          (3): Sigmoid()
        )
      )
      (project_conv): Sequential(
        (0): Conv2d(480, 80, kernel_size=(1, 1), stride=(1, 1), bias=False)
        (1): BatchNorm2d(80, eps=0.001, momentum=0.01, affine=True, track_running_stats=True)
      )
    )
    (MBConv6_10): MBConv(
      (expansion_conv): Sequential(
        (0): Conv2d(80, 480, kernel_size=(1, 1), stride=(1, 1), bias=False)
        (1): BatchNorm2d(480, eps=0.001, momentum=0.01, affine=True, track_running_stats=True)
        (2): Swish()
      )
      (depthwise_conv): Sequential(
        (0): Conv2d(480, 480, kernel_size=(3, 3), stride=(1, 1), padding=(1, 1), groups=480, bias=False)
        (1): BatchNorm2d(480, eps=0.001, momentum=0.01, affine=True, track_running_stats=True)
        (2): Swish()
      )
      (squeeze_excitation): SqueezeExcitation(
        (reduce_expand): Sequential(
          (0): Conv2d(480, 20, kernel_size=(1, 1), stride=(1, 1))
          (1): Swish()
          (2): Conv2d(20, 480, kernel_size=(1, 1), stride=(1, 1))
          (3): Sigmoid()
        )
      )
      (project_conv): Sequential(
        (0): Conv2d(480, 80, kernel_size=(1, 1), stride=(1, 1), bias=False)
        (1): BatchNorm2d(80, eps=0.001, momentum=0.01, affine=True, track_running_stats=True)
      )
    )
    (MBConv6_11): MBConv(
      (expansion_conv): Sequential(
        (0): Conv2d(80, 480, kernel_size=(1, 1), stride=(1, 1), bias=False)
        (1): BatchNorm2d(480, eps=0.001, momentum=0.01, affine=True, track_running_stats=True)
        (2): Swish()
      )
      (depthwise_conv): Sequential(
        (0): Conv2d(480, 480, kernel_size=(3, 3), stride=(1, 1), padding=(1, 1), groups=480, bias=False)
        (1): BatchNorm2d(480, eps=0.001, momentum=0.01, affine=True, track_running_stats=True)
        (2): Swish()
      )
      (squeeze_excitation): SqueezeExcitation(
        (reduce_expand): Sequential(
          (0): Conv2d(480, 20, kernel_size=(1, 1), stride=(1, 1))
          (1): Swish()
          (2): Conv2d(20, 480, kernel_size=(1, 1), stride=(1, 1))
          (3): Sigmoid()
        )
      )
      (project_conv): Sequential(
        (0): Conv2d(480, 80, kernel_size=(1, 1), stride=(1, 1), bias=False)
        (1): BatchNorm2d(80, eps=0.001, momentum=0.01, affine=True, track_running_stats=True)
      )
    )
    (MBConv6_12): MBConv(
      (expansion_conv): Sequential(
        (0): Conv2d(80, 480, kernel_size=(1, 1), stride=(1, 1), bias=False)
        (1): BatchNorm2d(480, eps=0.001, momentum=0.01, affine=True, track_running_stats=True)
        (2): Swish()
      )
      (depthwise_conv): Sequential(
        (0): Conv2d(480, 480, kernel_size=(5, 5), stride=(1, 1), padding=(2, 2), groups=480, bias=False)
        (1): BatchNorm2d(480, eps=0.001, momentum=0.01, affine=True, track_running_stats=True)
        (2): Swish()
      )
      (squeeze_excitation): SqueezeExcitation(
        (reduce_expand): Sequential(
          (0): Conv2d(480, 20, kernel_size=(1, 1), stride=(1, 1))
          (1): Swish()
          (2): Conv2d(20, 480, kernel_size=(1, 1), stride=(1, 1))
          (3): Sigmoid()
        )
      )
      (project_conv): Sequential(
        (0): Conv2d(480, 112, kernel_size=(1, 1), stride=(1, 1), bias=False)
        (1): BatchNorm2d(112, eps=0.001, momentum=0.01, affine=True, track_running_stats=True)
      )
    )
    (MBConv6_13): MBConv(
      (expansion_conv): Sequential(
        (0): Conv2d(112, 672, kernel_size=(1, 1), stride=(1, 1), bias=False)
        (1): BatchNorm2d(672, eps=0.001, momentum=0.01, affine=True, track_running_stats=True)
        (2): Swish()
      )
      (depthwise_conv): Sequential(
        (0): Conv2d(672, 672, kernel_size=(5, 5), stride=(1, 1), padding=(2, 2), groups=672, bias=False)
        (1): BatchNorm2d(672, eps=0.001, momentum=0.01, affine=True, track_running_stats=True)
        (2): Swish()
      )
      (squeeze_excitation): SqueezeExcitation(
        (reduce_expand): Sequential(
          (0): Conv2d(672, 28, kernel_size=(1, 1), stride=(1, 1))
          (1): Swish()
          (2): Conv2d(28, 672, kernel_size=(1, 1), stride=(1, 1))
          (3): Sigmoid()
        )
      )
      (project_conv): Sequential(
        (0): Conv2d(672, 112, kernel_size=(1, 1), stride=(1, 1), bias=False)
        (1): BatchNorm2d(112, eps=0.001, momentum=0.01, affine=True, track_running_stats=True)
      )
    )
    (MBConv6_14): MBConv(
      (expansion_conv): Sequential(
        (0): Conv2d(112, 672, kernel_size=(1, 1), stride=(1, 1), bias=False)
        (1): BatchNorm2d(672, eps=0.001, momentum=0.01, affine=True, track_running_stats=True)
        (2): Swish()
      )
      (depthwise_conv): Sequential(
        (0): Conv2d(672, 672, kernel_size=(5, 5), stride=(1, 1), padding=(2, 2), groups=672, bias=False)
        (1): BatchNorm2d(672, eps=0.001, momentum=0.01, affine=True, track_running_stats=True)
        (2): Swish()
      )
      (squeeze_excitation): SqueezeExcitation(
        (reduce_expand): Sequential(
          (0): Conv2d(672, 28, kernel_size=(1, 1), stride=(1, 1))
          (1): Swish()
          (2): Conv2d(28, 672, kernel_size=(1, 1), stride=(1, 1))
          (3): Sigmoid()
        )
      )
      (project_conv): Sequential(
        (0): Conv2d(672, 112, kernel_size=(1, 1), stride=(1, 1), bias=False)
        (1): BatchNorm2d(112, eps=0.001, momentum=0.01, affine=True, track_running_stats=True)
      )
    )
    (MBConv6_15): MBConv(
      (expansion_conv): Sequential(
        (0): Conv2d(112, 672, kernel_size=(1, 1), stride=(1, 1), bias=False)
        (1): BatchNorm2d(672, eps=0.001, momentum=0.01, affine=True, track_running_stats=True)
        (2): Swish()
      )
      (depthwise_conv): Sequential(
        (0): Conv2d(672, 672, kernel_size=(5, 5), stride=(1, 1), padding=(2, 2), groups=672, bias=False)
        (1): BatchNorm2d(672, eps=0.001, momentum=0.01, affine=True, track_running_stats=True)
        (2): Swish()
      )
      (squeeze_excitation): SqueezeExcitation(
        (reduce_expand): Sequential(
          (0): Conv2d(672, 28, kernel_size=(1, 1), stride=(1, 1))
          (1): Swish()
          (2): Conv2d(28, 672, kernel_size=(1, 1), stride=(1, 1))
          (3): Sigmoid()
        )
      )
      (project_conv): Sequential(
        (0): Conv2d(672, 112, kernel_size=(1, 1), stride=(1, 1), bias=False)
        (1): BatchNorm2d(112, eps=0.001, momentum=0.01, affine=True, track_running_stats=True)
      )
    )
    (MBConv6_16): MBConv(
      (expansion_conv): Sequential(
        (0): Conv2d(112, 672, kernel_size=(1, 1), stride=(1, 1), bias=False)
        (1): BatchNorm2d(672, eps=0.001, momentum=0.01, affine=True, track_running_stats=True)
        (2): Swish()
      )
      (depthwise_conv): Sequential(
        (0): Conv2d(672, 672, kernel_size=(5, 5), stride=(2, 2), padding=(2, 2), groups=672, bias=False)
        (1): BatchNorm2d(672, eps=0.001, momentum=0.01, affine=True, track_running_stats=True)
        (2): Swish()
      )
      (squeeze_excitation): SqueezeExcitation(
        (reduce_expand): Sequential(
          (0): Conv2d(672, 28, kernel_size=(1, 1), stride=(1, 1))
          (1): Swish()
          (2): Conv2d(28, 672, kernel_size=(1, 1), stride=(1, 1))
          (3): Sigmoid()
        )
      )
      (project_conv): Sequential(
        (0): Conv2d(672, 192, kernel_size=(1, 1), stride=(1, 1), bias=False)
        (1): BatchNorm2d(192, eps=0.001, momentum=0.01, affine=True, track_running_stats=True)
      )
    )
    (MBConv6_17): MBConv(
      (expansion_conv): Sequential(
        (0): Conv2d(192, 1152, kernel_size=(1, 1), stride=(1, 1), bias=False)
        (1): BatchNorm2d(1152, eps=0.001, momentum=0.01, affine=True, track_running_stats=True)
        (2): Swish()
      )
      (depthwise_conv): Sequential(
        (0): Conv2d(1152, 1152, kernel_size=(5, 5), stride=(1, 1), padding=(2, 2), groups=1152, bias=False)
        (1): BatchNorm2d(1152, eps=0.001, momentum=0.01, affine=True, track_running_stats=True)
        (2): Swish()
      )
      (squeeze_excitation): SqueezeExcitation(
        (reduce_expand): Sequential(
          (0): Conv2d(1152, 48, kernel_size=(1, 1), stride=(1, 1))
          (1): Swish()
          (2): Conv2d(48, 1152, kernel_size=(1, 1), stride=(1, 1))
          (3): Sigmoid()
        )
      )
      (project_conv): Sequential(
        (0): Conv2d(1152, 192, kernel_size=(1, 1), stride=(1, 1), bias=False)
        (1): BatchNorm2d(192, eps=0.001, momentum=0.01, affine=True, track_running_stats=True)
      )
    )
    (MBConv6_18): MBConv(
      (expansion_conv): Sequential(
        (0): Conv2d(192, 1152, kernel_size=(1, 1), stride=(1, 1), bias=False)
        (1): BatchNorm2d(1152, eps=0.001, momentum=0.01, affine=True, track_running_stats=True)
        (2): Swish()
      )
      (depthwise_conv): Sequential(
        (0): Conv2d(1152, 1152, kernel_size=(5, 5), stride=(1, 1), padding=(2, 2), groups=1152, bias=False)
        (1): BatchNorm2d(1152, eps=0.001, momentum=0.01, affine=True, track_running_stats=True)
        (2): Swish()
      )
      (squeeze_excitation): SqueezeExcitation(
        (reduce_expand): Sequential(
          (0): Conv2d(1152, 48, kernel_size=(1, 1), stride=(1, 1))
          (1): Swish()
          (2): Conv2d(48, 1152, kernel_size=(1, 1), stride=(1, 1))
          (3): Sigmoid()
        )
      )
      (project_conv): Sequential(
        (0): Conv2d(1152, 192, kernel_size=(1, 1), stride=(1, 1), bias=False)
        (1): BatchNorm2d(192, eps=0.001, momentum=0.01, affine=True, track_running_stats=True)
      )
    )
    (MBConv6_19): MBConv(
      (expansion_conv): Sequential(
        (0): Conv2d(192, 1152, kernel_size=(1, 1), stride=(1, 1), bias=False)
        (1): BatchNorm2d(1152, eps=0.001, momentum=0.01, affine=True, track_running_stats=True)
        (2): Swish()
      )
      (depthwise_conv): Sequential(
        (0): Conv2d(1152, 1152, kernel_size=(5, 5), stride=(1, 1), padding=(2, 2), groups=1152, bias=False)
        (1): BatchNorm2d(1152, eps=0.001, momentum=0.01, affine=True, track_running_stats=True)
        (2): Swish()
      )
      (squeeze_excitation): SqueezeExcitation(
        (reduce_expand): Sequential(
          (0): Conv2d(1152, 48, kernel_size=(1, 1), stride=(1, 1))
          (1): Swish()
          (2): Conv2d(48, 1152, kernel_size=(1, 1), stride=(1, 1))
          (3): Sigmoid()
        )
      )
      (project_conv): Sequential(
        (0): Conv2d(1152, 192, kernel_size=(1, 1), stride=(1, 1), bias=False)
        (1): BatchNorm2d(192, eps=0.001, momentum=0.01, affine=True, track_running_stats=True)
      )
    )
    (MBConv6_20): MBConv(
      (expansion_conv): Sequential(
        (0): Conv2d(192, 1152, kernel_size=(1, 1), stride=(1, 1), bias=False)
        (1): BatchNorm2d(1152, eps=0.001, momentum=0.01, affine=True, track_running_stats=True)
        (2): Swish()
      )
      (depthwise_conv): Sequential(
        (0): Conv2d(1152, 1152, kernel_size=(5, 5), stride=(1, 1), padding=(2, 2), groups=1152, bias=False)
        (1): BatchNorm2d(1152, eps=0.001, momentum=0.01, affine=True, track_running_stats=True)
        (2): Swish()
      )
      (squeeze_excitation): SqueezeExcitation(
        (reduce_expand): Sequential(
          (0): Conv2d(1152, 48, kernel_size=(1, 1), stride=(1, 1))
          (1): Swish()
          (2): Conv2d(48, 1152, kernel_size=(1, 1), stride=(1, 1))
          (3): Sigmoid()
        )
      )
      (project_conv): Sequential(
        (0): Conv2d(1152, 192, kernel_size=(1, 1), stride=(1, 1), bias=False)
        (1): BatchNorm2d(192, eps=0.001, momentum=0.01, affine=True, track_running_stats=True)
      )
    )
    (MBConv6_21): MBConv(
      (expansion_conv): Sequential(
        (0): Conv2d(192, 1152, kernel_size=(1, 1), stride=(1, 1), bias=False)
        (1): BatchNorm2d(1152, eps=0.001, momentum=0.01, affine=True, track_running_stats=True)
        (2): Swish()
      )
      (depthwise_conv): Sequential(
        (0): Conv2d(1152, 1152, kernel_size=(3, 3), stride=(1, 1), padding=(1, 1), groups=1152, bias=False)
        (1): BatchNorm2d(1152, eps=0.001, momentum=0.01, affine=True, track_running_stats=True)
        (2): Swish()
      )
      (squeeze_excitation): SqueezeExcitation(
        (reduce_expand): Sequential(
          (0): Conv2d(1152, 48, kernel_size=(1, 1), stride=(1, 1))
          (1): Swish()
          (2): Conv2d(48, 1152, kernel_size=(1, 1), stride=(1, 1))
          (3): Sigmoid()
        )
      )
      (project_conv): Sequential(
        (0): Conv2d(1152, 320, kernel_size=(1, 1), stride=(1, 1), bias=False)
        (1): BatchNorm2d(320, eps=0.001, momentum=0.01, affine=True, track_running_stats=True)
      )
    )
    (MBConv6_22): MBConv(
      (expansion_conv): Sequential(
        (0): Conv2d(320, 1920, kernel_size=(1, 1), stride=(1, 1), bias=False)
        (1): BatchNorm2d(1920, eps=0.001, momentum=0.01, affine=True, track_running_stats=True)
        (2): Swish()
      )
      (depthwise_conv): Sequential(
        (0): Conv2d(1920, 1920, kernel_size=(3, 3), stride=(1, 1), padding=(1, 1), groups=1920, bias=False)
        (1): BatchNorm2d(1920, eps=0.001, momentum=0.01, affine=True, track_running_stats=True)
        (2): Swish()
      )
      (squeeze_excitation): SqueezeExcitation(
        (reduce_expand): Sequential(
          (0): Conv2d(1920, 80, kernel_size=(1, 1), stride=(1, 1))
          (1): Swish()
          (2): Conv2d(80, 1920, kernel_size=(1, 1), stride=(1, 1))
          (3): Sigmoid()
        )
      )
      (project_conv): Sequential(
        (0): Conv2d(1920, 320, kernel_size=(1, 1), stride=(1, 1), bias=False)
        (1): BatchNorm2d(320, eps=0.001, momentum=0.01, affine=True, track_running_stats=True)
      )
    )
  )
  (head): Sequential(
    (0): Conv2d(320, 1280, kernel_size=(1, 1), stride=(1, 1), bias=False)
    (1): BatchNorm2d(1280, eps=0.001, momentum=0.01, affine=True, track_running_stats=True)
    (2): Swish()
    (3): AdaptiveAvgPool2d(output_size=1)
    (4): Flatten()
    (5): Dropout(p=0.2, inplace=False)
    (6): Linear(in_features=1280, out_features=8, bias=True)
  )
)

2022-01-17 13:08:59.354076

EfficientNet(
  (stem): Sequential(
    (0): Conv2d(1, 32, kernel_size=(3, 3), stride=(2, 2), padding=(1, 1), bias=False)
    (1): BatchNorm2d(32, eps=0.001, momentum=0.01, affine=True, track_running_stats=True)
    (2): Swish()
  )
  (blocks): Sequential(
    (MBConv1_0): MBConv(
      (depthwise_conv): Sequential(
        (0): Conv2d(32, 32, kernel_size=(3, 3), stride=(1, 1), padding=(1, 1), groups=32, bias=False)
        (1): BatchNorm2d(32, eps=0.001, momentum=0.01, affine=True, track_running_stats=True)
        (2): Swish()
      )
      (squeeze_excitation): SqueezeExcitation(
        (reduce_expand): Sequential(
          (0): Conv2d(32, 8, kernel_size=(1, 1), stride=(1, 1))
          (1): Swish()
          (2): Conv2d(8, 32, kernel_size=(1, 1), stride=(1, 1))
          (3): Sigmoid()
        )
      )
      (project_conv): Sequential(
        (0): Conv2d(32, 16, kernel_size=(1, 1), stride=(1, 1), bias=False)
        (1): BatchNorm2d(16, eps=0.001, momentum=0.01, affine=True, track_running_stats=True)
      )
    )
    (MBConv1_1): MBConv(
      (depthwise_conv): Sequential(
        (0): Conv2d(16, 16, kernel_size=(3, 3), stride=(1, 1), padding=(1, 1), groups=16, bias=False)
        (1): BatchNorm2d(16, eps=0.001, momentum=0.01, affine=True, track_running_stats=True)
        (2): Swish()
      )
      (squeeze_excitation): SqueezeExcitation(
        (reduce_expand): Sequential(
          (0): Conv2d(16, 4, kernel_size=(1, 1), stride=(1, 1))
          (1): Swish()
          (2): Conv2d(4, 16, kernel_size=(1, 1), stride=(1, 1))
          (3): Sigmoid()
        )
      )
      (project_conv): Sequential(
        (0): Conv2d(16, 16, kernel_size=(1, 1), stride=(1, 1), bias=False)
        (1): BatchNorm2d(16, eps=0.001, momentum=0.01, affine=True, track_running_stats=True)
      )
    )
    (MBConv6_2): MBConv(
      (expansion_conv): Sequential(
        (0): Conv2d(16, 96, kernel_size=(1, 1), stride=(1, 1), bias=False)
        (1): BatchNorm2d(96, eps=0.001, momentum=0.01, affine=True, track_running_stats=True)
        (2): Swish()
      )
      (depthwise_conv): Sequential(
        (0): Conv2d(96, 96, kernel_size=(3, 3), stride=(2, 2), padding=(1, 1), groups=96, bias=False)
        (1): BatchNorm2d(96, eps=0.001, momentum=0.01, affine=True, track_running_stats=True)
        (2): Swish()
      )
      (squeeze_excitation): SqueezeExcitation(
        (reduce_expand): Sequential(
          (0): Conv2d(96, 4, kernel_size=(1, 1), stride=(1, 1))
          (1): Swish()
          (2): Conv2d(4, 96, kernel_size=(1, 1), stride=(1, 1))
          (3): Sigmoid()
        )
      )
      (project_conv): Sequential(
        (0): Conv2d(96, 24, kernel_size=(1, 1), stride=(1, 1), bias=False)
        (1): BatchNorm2d(24, eps=0.001, momentum=0.01, affine=True, track_running_stats=True)
      )
    )
    (MBConv6_3): MBConv(
      (expansion_conv): Sequential(
        (0): Conv2d(24, 144, kernel_size=(1, 1), stride=(1, 1), bias=False)
        (1): BatchNorm2d(144, eps=0.001, momentum=0.01, affine=True, track_running_stats=True)
        (2): Swish()
      )
      (depthwise_conv): Sequential(
        (0): Conv2d(144, 144, kernel_size=(3, 3), stride=(1, 1), padding=(1, 1), groups=144, bias=False)
        (1): BatchNorm2d(144, eps=0.001, momentum=0.01, affine=True, track_running_stats=True)
        (2): Swish()
      )
      (squeeze_excitation): SqueezeExcitation(
        (reduce_expand): Sequential(
          (0): Conv2d(144, 6, kernel_size=(1, 1), stride=(1, 1))
          (1): Swish()
          (2): Conv2d(6, 144, kernel_size=(1, 1), stride=(1, 1))
          (3): Sigmoid()
        )
      )
      (project_conv): Sequential(
        (0): Conv2d(144, 24, kernel_size=(1, 1), stride=(1, 1), bias=False)
        (1): BatchNorm2d(24, eps=0.001, momentum=0.01, affine=True, track_running_stats=True)
      )
    )
    (MBConv6_4): MBConv(
      (expansion_conv): Sequential(
        (0): Conv2d(24, 144, kernel_size=(1, 1), stride=(1, 1), bias=False)
        (1): BatchNorm2d(144, eps=0.001, momentum=0.01, affine=True, track_running_stats=True)
        (2): Swish()
      )
      (depthwise_conv): Sequential(
        (0): Conv2d(144, 144, kernel_size=(3, 3), stride=(1, 1), padding=(1, 1), groups=144, bias=False)
        (1): BatchNorm2d(144, eps=0.001, momentum=0.01, affine=True, track_running_stats=True)
        (2): Swish()
      )
      (squeeze_excitation): SqueezeExcitation(
        (reduce_expand): Sequential(
          (0): Conv2d(144, 6, kernel_size=(1, 1), stride=(1, 1))
          (1): Swish()
          (2): Conv2d(6, 144, kernel_size=(1, 1), stride=(1, 1))
          (3): Sigmoid()
        )
      )
      (project_conv): Sequential(
        (0): Conv2d(144, 24, kernel_size=(1, 1), stride=(1, 1), bias=False)
        (1): BatchNorm2d(24, eps=0.001, momentum=0.01, affine=True, track_running_stats=True)
      )
    )
    (MBConv6_5): MBConv(
      (expansion_conv): Sequential(
        (0): Conv2d(24, 144, kernel_size=(1, 1), stride=(1, 1), bias=False)
        (1): BatchNorm2d(144, eps=0.001, momentum=0.01, affine=True, track_running_stats=True)
        (2): Swish()
      )
      (depthwise_conv): Sequential(
        (0): Conv2d(144, 144, kernel_size=(5, 5), stride=(2, 2), padding=(2, 2), groups=144, bias=False)
        (1): BatchNorm2d(144, eps=0.001, momentum=0.01, affine=True, track_running_stats=True)
        (2): Swish()
      )
      (squeeze_excitation): SqueezeExcitation(
        (reduce_expand): Sequential(
          (0): Conv2d(144, 6, kernel_size=(1, 1), stride=(1, 1))
          (1): Swish()
          (2): Conv2d(6, 144, kernel_size=(1, 1), stride=(1, 1))
          (3): Sigmoid()
        )
      )
      (project_conv): Sequential(
        (0): Conv2d(144, 40, kernel_size=(1, 1), stride=(1, 1), bias=False)
        (1): BatchNorm2d(40, eps=0.001, momentum=0.01, affine=True, track_running_stats=True)
      )
    )
    (MBConv6_6): MBConv(
      (expansion_conv): Sequential(
        (0): Conv2d(40, 240, kernel_size=(1, 1), stride=(1, 1), bias=False)
        (1): BatchNorm2d(240, eps=0.001, momentum=0.01, affine=True, track_running_stats=True)
        (2): Swish()
      )
      (depthwise_conv): Sequential(
        (0): Conv2d(240, 240, kernel_size=(5, 5), stride=(1, 1), padding=(2, 2), groups=240, bias=False)
        (1): BatchNorm2d(240, eps=0.001, momentum=0.01, affine=True, track_running_stats=True)
        (2): Swish()
      )
      (squeeze_excitation): SqueezeExcitation(
        (reduce_expand): Sequential(
          (0): Conv2d(240, 10, kernel_size=(1, 1), stride=(1, 1))
          (1): Swish()
          (2): Conv2d(10, 240, kernel_size=(1, 1), stride=(1, 1))
          (3): Sigmoid()
        )
      )
      (project_conv): Sequential(
        (0): Conv2d(240, 40, kernel_size=(1, 1), stride=(1, 1), bias=False)
        (1): BatchNorm2d(40, eps=0.001, momentum=0.01, affine=True, track_running_stats=True)
      )
    )
    (MBConv6_7): MBConv(
      (expansion_conv): Sequential(
        (0): Conv2d(40, 240, kernel_size=(1, 1), stride=(1, 1), bias=False)
        (1): BatchNorm2d(240, eps=0.001, momentum=0.01, affine=True, track_running_stats=True)
        (2): Swish()
      )
      (depthwise_conv): Sequential(
        (0): Conv2d(240, 240, kernel_size=(5, 5), stride=(1, 1), padding=(2, 2), groups=240, bias=False)
        (1): BatchNorm2d(240, eps=0.001, momentum=0.01, affine=True, track_running_stats=True)
        (2): Swish()
      )
      (squeeze_excitation): SqueezeExcitation(
        (reduce_expand): Sequential(
          (0): Conv2d(240, 10, kernel_size=(1, 1), stride=(1, 1))
          (1): Swish()
          (2): Conv2d(10, 240, kernel_size=(1, 1), stride=(1, 1))
          (3): Sigmoid()
        )
      )
      (project_conv): Sequential(
        (0): Conv2d(240, 40, kernel_size=(1, 1), stride=(1, 1), bias=False)
        (1): BatchNorm2d(40, eps=0.001, momentum=0.01, affine=True, track_running_stats=True)
      )
    )
    (MBConv6_8): MBConv(
      (expansion_conv): Sequential(
        (0): Conv2d(40, 240, kernel_size=(1, 1), stride=(1, 1), bias=False)
        (1): BatchNorm2d(240, eps=0.001, momentum=0.01, affine=True, track_running_stats=True)
        (2): Swish()
      )
      (depthwise_conv): Sequential(
        (0): Conv2d(240, 240, kernel_size=(3, 3), stride=(2, 2), padding=(1, 1), groups=240, bias=False)
        (1): BatchNorm2d(240, eps=0.001, momentum=0.01, affine=True, track_running_stats=True)
        (2): Swish()
      )
      (squeeze_excitation): SqueezeExcitation(
        (reduce_expand): Sequential(
          (0): Conv2d(240, 10, kernel_size=(1, 1), stride=(1, 1))
          (1): Swish()
          (2): Conv2d(10, 240, kernel_size=(1, 1), stride=(1, 1))
          (3): Sigmoid()
        )
      )
      (project_conv): Sequential(
        (0): Conv2d(240, 80, kernel_size=(1, 1), stride=(1, 1), bias=False)
        (1): BatchNorm2d(80, eps=0.001, momentum=0.01, affine=True, track_running_stats=True)
      )
    )
    (MBConv6_9): MBConv(
      (expansion_conv): Sequential(
        (0): Conv2d(80, 480, kernel_size=(1, 1), stride=(1, 1), bias=False)
        (1): BatchNorm2d(480, eps=0.001, momentum=0.01, affine=True, track_running_stats=True)
        (2): Swish()
      )
      (depthwise_conv): Sequential(
        (0): Conv2d(480, 480, kernel_size=(3, 3), stride=(1, 1), padding=(1, 1), groups=480, bias=False)
        (1): BatchNorm2d(480, eps=0.001, momentum=0.01, affine=True, track_running_stats=True)
        (2): Swish()
      )
      (squeeze_excitation): SqueezeExcitation(
        (reduce_expand): Sequential(
          (0): Conv2d(480, 20, kernel_size=(1, 1), stride=(1, 1))
          (1): Swish()
          (2): Conv2d(20, 480, kernel_size=(1, 1), stride=(1, 1))
          (3): Sigmoid()
        )
      )
      (project_conv): Sequential(
        (0): Conv2d(480, 80, kernel_size=(1, 1), stride=(1, 1), bias=False)
        (1): BatchNorm2d(80, eps=0.001, momentum=0.01, affine=True, track_running_stats=True)
      )
    )
    (MBConv6_10): MBConv(
      (expansion_conv): Sequential(
        (0): Conv2d(80, 480, kernel_size=(1, 1), stride=(1, 1), bias=False)
        (1): BatchNorm2d(480, eps=0.001, momentum=0.01, affine=True, track_running_stats=True)
        (2): Swish()
      )
      (depthwise_conv): Sequential(
        (0): Conv2d(480, 480, kernel_size=(3, 3), stride=(1, 1), padding=(1, 1), groups=480, bias=False)
        (1): BatchNorm2d(480, eps=0.001, momentum=0.01, affine=True, track_running_stats=True)
        (2): Swish()
      )
      (squeeze_excitation): SqueezeExcitation(
        (reduce_expand): Sequential(
          (0): Conv2d(480, 20, kernel_size=(1, 1), stride=(1, 1))
          (1): Swish()
          (2): Conv2d(20, 480, kernel_size=(1, 1), stride=(1, 1))
          (3): Sigmoid()
        )
      )
      (project_conv): Sequential(
        (0): Conv2d(480, 80, kernel_size=(1, 1), stride=(1, 1), bias=False)
        (1): BatchNorm2d(80, eps=0.001, momentum=0.01, affine=True, track_running_stats=True)
      )
    )
    (MBConv6_11): MBConv(
      (expansion_conv): Sequential(
        (0): Conv2d(80, 480, kernel_size=(1, 1), stride=(1, 1), bias=False)
        (1): BatchNorm2d(480, eps=0.001, momentum=0.01, affine=True, track_running_stats=True)
        (2): Swish()
      )
      (depthwise_conv): Sequential(
        (0): Conv2d(480, 480, kernel_size=(3, 3), stride=(1, 1), padding=(1, 1), groups=480, bias=False)
        (1): BatchNorm2d(480, eps=0.001, momentum=0.01, affine=True, track_running_stats=True)
        (2): Swish()
      )
      (squeeze_excitation): SqueezeExcitation(
        (reduce_expand): Sequential(
          (0): Conv2d(480, 20, kernel_size=(1, 1), stride=(1, 1))
          (1): Swish()
          (2): Conv2d(20, 480, kernel_size=(1, 1), stride=(1, 1))
          (3): Sigmoid()
        )
      )
      (project_conv): Sequential(
        (0): Conv2d(480, 80, kernel_size=(1, 1), stride=(1, 1), bias=False)
        (1): BatchNorm2d(80, eps=0.001, momentum=0.01, affine=True, track_running_stats=True)
      )
    )
    (MBConv6_12): MBConv(
      (expansion_conv): Sequential(
        (0): Conv2d(80, 480, kernel_size=(1, 1), stride=(1, 1), bias=False)
        (1): BatchNorm2d(480, eps=0.001, momentum=0.01, affine=True, track_running_stats=True)
        (2): Swish()
      )
      (depthwise_conv): Sequential(
        (0): Conv2d(480, 480, kernel_size=(5, 5), stride=(1, 1), padding=(2, 2), groups=480, bias=False)
        (1): BatchNorm2d(480, eps=0.001, momentum=0.01, affine=True, track_running_stats=True)
        (2): Swish()
      )
      (squeeze_excitation): SqueezeExcitation(
        (reduce_expand): Sequential(
          (0): Conv2d(480, 20, kernel_size=(1, 1), stride=(1, 1))
          (1): Swish()
          (2): Conv2d(20, 480, kernel_size=(1, 1), stride=(1, 1))
          (3): Sigmoid()
        )
      )
      (project_conv): Sequential(
        (0): Conv2d(480, 112, kernel_size=(1, 1), stride=(1, 1), bias=False)
        (1): BatchNorm2d(112, eps=0.001, momentum=0.01, affine=True, track_running_stats=True)
      )
    )
    (MBConv6_13): MBConv(
      (expansion_conv): Sequential(
        (0): Conv2d(112, 672, kernel_size=(1, 1), stride=(1, 1), bias=False)
        (1): BatchNorm2d(672, eps=0.001, momentum=0.01, affine=True, track_running_stats=True)
        (2): Swish()
      )
      (depthwise_conv): Sequential(
        (0): Conv2d(672, 672, kernel_size=(5, 5), stride=(1, 1), padding=(2, 2), groups=672, bias=False)
        (1): BatchNorm2d(672, eps=0.001, momentum=0.01, affine=True, track_running_stats=True)
        (2): Swish()
      )
      (squeeze_excitation): SqueezeExcitation(
        (reduce_expand): Sequential(
          (0): Conv2d(672, 28, kernel_size=(1, 1), stride=(1, 1))
          (1): Swish()
          (2): Conv2d(28, 672, kernel_size=(1, 1), stride=(1, 1))
          (3): Sigmoid()
        )
      )
      (project_conv): Sequential(
        (0): Conv2d(672, 112, kernel_size=(1, 1), stride=(1, 1), bias=False)
        (1): BatchNorm2d(112, eps=0.001, momentum=0.01, affine=True, track_running_stats=True)
      )
    )
    (MBConv6_14): MBConv(
      (expansion_conv): Sequential(
        (0): Conv2d(112, 672, kernel_size=(1, 1), stride=(1, 1), bias=False)
        (1): BatchNorm2d(672, eps=0.001, momentum=0.01, affine=True, track_running_stats=True)
        (2): Swish()
      )
      (depthwise_conv): Sequential(
        (0): Conv2d(672, 672, kernel_size=(5, 5), stride=(1, 1), padding=(2, 2), groups=672, bias=False)
        (1): BatchNorm2d(672, eps=0.001, momentum=0.01, affine=True, track_running_stats=True)
        (2): Swish()
      )
      (squeeze_excitation): SqueezeExcitation(
        (reduce_expand): Sequential(
          (0): Conv2d(672, 28, kernel_size=(1, 1), stride=(1, 1))
          (1): Swish()
          (2): Conv2d(28, 672, kernel_size=(1, 1), stride=(1, 1))
          (3): Sigmoid()
        )
      )
      (project_conv): Sequential(
        (0): Conv2d(672, 112, kernel_size=(1, 1), stride=(1, 1), bias=False)
        (1): BatchNorm2d(112, eps=0.001, momentum=0.01, affine=True, track_running_stats=True)
      )
    )
    (MBConv6_15): MBConv(
      (expansion_conv): Sequential(
        (0): Conv2d(112, 672, kernel_size=(1, 1), stride=(1, 1), bias=False)
        (1): BatchNorm2d(672, eps=0.001, momentum=0.01, affine=True, track_running_stats=True)
        (2): Swish()
      )
      (depthwise_conv): Sequential(
        (0): Conv2d(672, 672, kernel_size=(5, 5), stride=(1, 1), padding=(2, 2), groups=672, bias=False)
        (1): BatchNorm2d(672, eps=0.001, momentum=0.01, affine=True, track_running_stats=True)
        (2): Swish()
      )
      (squeeze_excitation): SqueezeExcitation(
        (reduce_expand): Sequential(
          (0): Conv2d(672, 28, kernel_size=(1, 1), stride=(1, 1))
          (1): Swish()
          (2): Conv2d(28, 672, kernel_size=(1, 1), stride=(1, 1))
          (3): Sigmoid()
        )
      )
      (project_conv): Sequential(
        (0): Conv2d(672, 112, kernel_size=(1, 1), stride=(1, 1), bias=False)
        (1): BatchNorm2d(112, eps=0.001, momentum=0.01, affine=True, track_running_stats=True)
      )
    )
    (MBConv6_16): MBConv(
      (expansion_conv): Sequential(
        (0): Conv2d(112, 672, kernel_size=(1, 1), stride=(1, 1), bias=False)
        (1): BatchNorm2d(672, eps=0.001, momentum=0.01, affine=True, track_running_stats=True)
        (2): Swish()
      )
      (depthwise_conv): Sequential(
        (0): Conv2d(672, 672, kernel_size=(5, 5), stride=(2, 2), padding=(2, 2), groups=672, bias=False)
        (1): BatchNorm2d(672, eps=0.001, momentum=0.01, affine=True, track_running_stats=True)
        (2): Swish()
      )
      (squeeze_excitation): SqueezeExcitation(
        (reduce_expand): Sequential(
          (0): Conv2d(672, 28, kernel_size=(1, 1), stride=(1, 1))
          (1): Swish()
          (2): Conv2d(28, 672, kernel_size=(1, 1), stride=(1, 1))
          (3): Sigmoid()
        )
      )
      (project_conv): Sequential(
        (0): Conv2d(672, 192, kernel_size=(1, 1), stride=(1, 1), bias=False)
        (1): BatchNorm2d(192, eps=0.001, momentum=0.01, affine=True, track_running_stats=True)
      )
    )
    (MBConv6_17): MBConv(
      (expansion_conv): Sequential(
        (0): Conv2d(192, 1152, kernel_size=(1, 1), stride=(1, 1), bias=False)
        (1): BatchNorm2d(1152, eps=0.001, momentum=0.01, affine=True, track_running_stats=True)
        (2): Swish()
      )
      (depthwise_conv): Sequential(
        (0): Conv2d(1152, 1152, kernel_size=(5, 5), stride=(1, 1), padding=(2, 2), groups=1152, bias=False)
        (1): BatchNorm2d(1152, eps=0.001, momentum=0.01, affine=True, track_running_stats=True)
        (2): Swish()
      )
      (squeeze_excitation): SqueezeExcitation(
        (reduce_expand): Sequential(
          (0): Conv2d(1152, 48, kernel_size=(1, 1), stride=(1, 1))
          (1): Swish()
          (2): Conv2d(48, 1152, kernel_size=(1, 1), stride=(1, 1))
          (3): Sigmoid()
        )
      )
      (project_conv): Sequential(
        (0): Conv2d(1152, 192, kernel_size=(1, 1), stride=(1, 1), bias=False)
        (1): BatchNorm2d(192, eps=0.001, momentum=0.01, affine=True, track_running_stats=True)
      )
    )
    (MBConv6_18): MBConv(
      (expansion_conv): Sequential(
        (0): Conv2d(192, 1152, kernel_size=(1, 1), stride=(1, 1), bias=False)
        (1): BatchNorm2d(1152, eps=0.001, momentum=0.01, affine=True, track_running_stats=True)
        (2): Swish()
      )
      (depthwise_conv): Sequential(
        (0): Conv2d(1152, 1152, kernel_size=(5, 5), stride=(1, 1), padding=(2, 2), groups=1152, bias=False)
        (1): BatchNorm2d(1152, eps=0.001, momentum=0.01, affine=True, track_running_stats=True)
        (2): Swish()
      )
      (squeeze_excitation): SqueezeExcitation(
        (reduce_expand): Sequential(
          (0): Conv2d(1152, 48, kernel_size=(1, 1), stride=(1, 1))
          (1): Swish()
          (2): Conv2d(48, 1152, kernel_size=(1, 1), stride=(1, 1))
          (3): Sigmoid()
        )
      )
      (project_conv): Sequential(
        (0): Conv2d(1152, 192, kernel_size=(1, 1), stride=(1, 1), bias=False)
        (1): BatchNorm2d(192, eps=0.001, momentum=0.01, affine=True, track_running_stats=True)
      )
    )
    (MBConv6_19): MBConv(
      (expansion_conv): Sequential(
        (0): Conv2d(192, 1152, kernel_size=(1, 1), stride=(1, 1), bias=False)
        (1): BatchNorm2d(1152, eps=0.001, momentum=0.01, affine=True, track_running_stats=True)
        (2): Swish()
      )
      (depthwise_conv): Sequential(
        (0): Conv2d(1152, 1152, kernel_size=(5, 5), stride=(1, 1), padding=(2, 2), groups=1152, bias=False)
        (1): BatchNorm2d(1152, eps=0.001, momentum=0.01, affine=True, track_running_stats=True)
        (2): Swish()
      )
      (squeeze_excitation): SqueezeExcitation(
        (reduce_expand): Sequential(
          (0): Conv2d(1152, 48, kernel_size=(1, 1), stride=(1, 1))
          (1): Swish()
          (2): Conv2d(48, 1152, kernel_size=(1, 1), stride=(1, 1))
          (3): Sigmoid()
        )
      )
      (project_conv): Sequential(
        (0): Conv2d(1152, 192, kernel_size=(1, 1), stride=(1, 1), bias=False)
        (1): BatchNorm2d(192, eps=0.001, momentum=0.01, affine=True, track_running_stats=True)
      )
    )
    (MBConv6_20): MBConv(
      (expansion_conv): Sequential(
        (0): Conv2d(192, 1152, kernel_size=(1, 1), stride=(1, 1), bias=False)
        (1): BatchNorm2d(1152, eps=0.001, momentum=0.01, affine=True, track_running_stats=True)
        (2): Swish()
      )
      (depthwise_conv): Sequential(
        (0): Conv2d(1152, 1152, kernel_size=(5, 5), stride=(1, 1), padding=(2, 2), groups=1152, bias=False)
        (1): BatchNorm2d(1152, eps=0.001, momentum=0.01, affine=True, track_running_stats=True)
        (2): Swish()
      )
      (squeeze_excitation): SqueezeExcitation(
        (reduce_expand): Sequential(
          (0): Conv2d(1152, 48, kernel_size=(1, 1), stride=(1, 1))
          (1): Swish()
          (2): Conv2d(48, 1152, kernel_size=(1, 1), stride=(1, 1))
          (3): Sigmoid()
        )
      )
      (project_conv): Sequential(
        (0): Conv2d(1152, 192, kernel_size=(1, 1), stride=(1, 1), bias=False)
        (1): BatchNorm2d(192, eps=0.001, momentum=0.01, affine=True, track_running_stats=True)
      )
    )
    (MBConv6_21): MBConv(
      (expansion_conv): Sequential(
        (0): Conv2d(192, 1152, kernel_size=(1, 1), stride=(1, 1), bias=False)
        (1): BatchNorm2d(1152, eps=0.001, momentum=0.01, affine=True, track_running_stats=True)
        (2): Swish()
      )
      (depthwise_conv): Sequential(
        (0): Conv2d(1152, 1152, kernel_size=(3, 3), stride=(1, 1), padding=(1, 1), groups=1152, bias=False)
        (1): BatchNorm2d(1152, eps=0.001, momentum=0.01, affine=True, track_running_stats=True)
        (2): Swish()
      )
      (squeeze_excitation): SqueezeExcitation(
        (reduce_expand): Sequential(
          (0): Conv2d(1152, 48, kernel_size=(1, 1), stride=(1, 1))
          (1): Swish()
          (2): Conv2d(48, 1152, kernel_size=(1, 1), stride=(1, 1))
          (3): Sigmoid()
        )
      )
      (project_conv): Sequential(
        (0): Conv2d(1152, 320, kernel_size=(1, 1), stride=(1, 1), bias=False)
        (1): BatchNorm2d(320, eps=0.001, momentum=0.01, affine=True, track_running_stats=True)
      )
    )
    (MBConv6_22): MBConv(
      (expansion_conv): Sequential(
        (0): Conv2d(320, 1920, kernel_size=(1, 1), stride=(1, 1), bias=False)
        (1): BatchNorm2d(1920, eps=0.001, momentum=0.01, affine=True, track_running_stats=True)
        (2): Swish()
      )
      (depthwise_conv): Sequential(
        (0): Conv2d(1920, 1920, kernel_size=(3, 3), stride=(1, 1), padding=(1, 1), groups=1920, bias=False)
        (1): BatchNorm2d(1920, eps=0.001, momentum=0.01, affine=True, track_running_stats=True)
        (2): Swish()
      )
      (squeeze_excitation): SqueezeExcitation(
        (reduce_expand): Sequential(
          (0): Conv2d(1920, 80, kernel_size=(1, 1), stride=(1, 1))
          (1): Swish()
          (2): Conv2d(80, 1920, kernel_size=(1, 1), stride=(1, 1))
          (3): Sigmoid()
        )
      )
      (project_conv): Sequential(
        (0): Conv2d(1920, 320, kernel_size=(1, 1), stride=(1, 1), bias=False)
        (1): BatchNorm2d(320, eps=0.001, momentum=0.01, affine=True, track_running_stats=True)
      )
    )
  )
  (head): Sequential(
    (0): Conv2d(320, 1280, kernel_size=(1, 1), stride=(1, 1), bias=False)
    (1): BatchNorm2d(1280, eps=0.001, momentum=0.01, affine=True, track_running_stats=True)
    (2): Swish()
    (3): AdaptiveAvgPool2d(output_size=1)
    (4): Flatten()
    (5): Dropout(p=0.2, inplace=False)
    (6): Linear(in_features=1280, out_features=8, bias=True)
  )
)


2022-01-17 14:35:19.333200

EfficientNet-B0 {'num_labels': 8, 'width_coefficient': 1.0, 'depth_coefficient': 1.0, 'dropout_rate': 0.2} resolution:224

EfficientNet(
  (stem): Sequential(
    (0): Conv2d(1, 32, kernel_size=(3, 3), stride=(2, 2), padding=(1, 1), bias=False)
    (1): BatchNorm2d(32, eps=0.001, momentum=0.01, affine=True, track_running_stats=True)
    (2): Swish()
  )
  (blocks): Sequential(
    (MBConv1_0): MBConv(
      (depthwise_conv): Sequential(
        (0): Conv2d(32, 32, kernel_size=(3, 3), stride=(1, 1), padding=(1, 1), groups=32, bias=False)
        (1): BatchNorm2d(32, eps=0.001, momentum=0.01, affine=True, track_running_stats=True)
        (2): Swish()
      )
      (squeeze_excitation): SqueezeExcitation(
        (reduce_expand): Sequential(
          (0): Conv2d(32, 8, kernel_size=(1, 1), stride=(1, 1))
          (1): Swish()
          (2): Conv2d(8, 32, kernel_size=(1, 1), stride=(1, 1))
          (3): Sigmoid()
        )
      )
      (project_conv): Sequential(
        (0): Conv2d(32, 16, kernel_size=(1, 1), stride=(1, 1), bias=False)
        (1): BatchNorm2d(16, eps=0.001, momentum=0.01, affine=True, track_running_stats=True)
      )
    )
    (MBConv6_1): MBConv(
      (expansion_conv): Sequential(
        (0): Conv2d(16, 96, kernel_size=(1, 1), stride=(1, 1), bias=False)
        (1): BatchNorm2d(96, eps=0.001, momentum=0.01, affine=True, track_running_stats=True)
        (2): Swish()
      )
      (depthwise_conv): Sequential(
        (0): Conv2d(96, 96, kernel_size=(3, 3), stride=(2, 2), padding=(1, 1), groups=96, bias=False)
        (1): BatchNorm2d(96, eps=0.001, momentum=0.01, affine=True, track_running_stats=True)
        (2): Swish()
      )
      (squeeze_excitation): SqueezeExcitation(
        (reduce_expand): Sequential(
          (0): Conv2d(96, 4, kernel_size=(1, 1), stride=(1, 1))
          (1): Swish()
          (2): Conv2d(4, 96, kernel_size=(1, 1), stride=(1, 1))
          (3): Sigmoid()
        )
      )
      (project_conv): Sequential(
        (0): Conv2d(96, 24, kernel_size=(1, 1), stride=(1, 1), bias=False)
        (1): BatchNorm2d(24, eps=0.001, momentum=0.01, affine=True, track_running_stats=True)
      )
    )
    (MBConv6_2): MBConv(
      (expansion_conv): Sequential(
        (0): Conv2d(24, 144, kernel_size=(1, 1), stride=(1, 1), bias=False)
        (1): BatchNorm2d(144, eps=0.001, momentum=0.01, affine=True, track_running_stats=True)
        (2): Swish()
      )
      (depthwise_conv): Sequential(
        (0): Conv2d(144, 144, kernel_size=(3, 3), stride=(1, 1), padding=(1, 1), groups=144, bias=False)
        (1): BatchNorm2d(144, eps=0.001, momentum=0.01, affine=True, track_running_stats=True)
        (2): Swish()
      )
      (squeeze_excitation): SqueezeExcitation(
        (reduce_expand): Sequential(
          (0): Conv2d(144, 6, kernel_size=(1, 1), stride=(1, 1))
          (1): Swish()
          (2): Conv2d(6, 144, kernel_size=(1, 1), stride=(1, 1))
          (3): Sigmoid()
        )
      )
      (project_conv): Sequential(
        (0): Conv2d(144, 24, kernel_size=(1, 1), stride=(1, 1), bias=False)
        (1): BatchNorm2d(24, eps=0.001, momentum=0.01, affine=True, track_running_stats=True)
      )
    )
    (MBConv6_3): MBConv(
      (expansion_conv): Sequential(
        (0): Conv2d(24, 144, kernel_size=(1, 1), stride=(1, 1), bias=False)
        (1): BatchNorm2d(144, eps=0.001, momentum=0.01, affine=True, track_running_stats=True)
        (2): Swish()
      )
      (depthwise_conv): Sequential(
        (0): Conv2d(144, 144, kernel_size=(5, 5), stride=(2, 2), padding=(2, 2), groups=144, bias=False)
        (1): BatchNorm2d(144, eps=0.001, momentum=0.01, affine=True, track_running_stats=True)
        (2): Swish()
      )
      (squeeze_excitation): SqueezeExcitation(
        (reduce_expand): Sequential(
          (0): Conv2d(144, 6, kernel_size=(1, 1), stride=(1, 1))
          (1): Swish()
          (2): Conv2d(6, 144, kernel_size=(1, 1), stride=(1, 1))
          (3): Sigmoid()
        )
      )
      (project_conv): Sequential(
        (0): Conv2d(144, 40, kernel_size=(1, 1), stride=(1, 1), bias=False)
        (1): BatchNorm2d(40, eps=0.001, momentum=0.01, affine=True, track_running_stats=True)
      )
    )
    (MBConv6_4): MBConv(
      (expansion_conv): Sequential(
        (0): Conv2d(40, 240, kernel_size=(1, 1), stride=(1, 1), bias=False)
        (1): BatchNorm2d(240, eps=0.001, momentum=0.01, affine=True, track_running_stats=True)
        (2): Swish()
      )
      (depthwise_conv): Sequential(
        (0): Conv2d(240, 240, kernel_size=(5, 5), stride=(1, 1), padding=(2, 2), groups=240, bias=False)
        (1): BatchNorm2d(240, eps=0.001, momentum=0.01, affine=True, track_running_stats=True)
        (2): Swish()
      )
      (squeeze_excitation): SqueezeExcitation(
        (reduce_expand): Sequential(
          (0): Conv2d(240, 10, kernel_size=(1, 1), stride=(1, 1))
          (1): Swish()
          (2): Conv2d(10, 240, kernel_size=(1, 1), stride=(1, 1))
          (3): Sigmoid()
        )
      )
      (project_conv): Sequential(
        (0): Conv2d(240, 40, kernel_size=(1, 1), stride=(1, 1), bias=False)
        (1): BatchNorm2d(40, eps=0.001, momentum=0.01, affine=True, track_running_stats=True)
      )
    )
    (MBConv6_5): MBConv(
      (expansion_conv): Sequential(
        (0): Conv2d(40, 240, kernel_size=(1, 1), stride=(1, 1), bias=False)
        (1): BatchNorm2d(240, eps=0.001, momentum=0.01, affine=True, track_running_stats=True)
        (2): Swish()
      )
      (depthwise_conv): Sequential(
        (0): Conv2d(240, 240, kernel_size=(3, 3), stride=(2, 2), padding=(1, 1), groups=240, bias=False)
        (1): BatchNorm2d(240, eps=0.001, momentum=0.01, affine=True, track_running_stats=True)
        (2): Swish()
      )
      (squeeze_excitation): SqueezeExcitation(
        (reduce_expand): Sequential(
          (0): Conv2d(240, 10, kernel_size=(1, 1), stride=(1, 1))
          (1): Swish()
          (2): Conv2d(10, 240, kernel_size=(1, 1), stride=(1, 1))
          (3): Sigmoid()
        )
      )
      (project_conv): Sequential(
        (0): Conv2d(240, 80, kernel_size=(1, 1), stride=(1, 1), bias=False)
        (1): BatchNorm2d(80, eps=0.001, momentum=0.01, affine=True, track_running_stats=True)
      )
    )
    (MBConv6_6): MBConv(
      (expansion_conv): Sequential(
        (0): Conv2d(80, 480, kernel_size=(1, 1), stride=(1, 1), bias=False)
        (1): BatchNorm2d(480, eps=0.001, momentum=0.01, affine=True, track_running_stats=True)
        (2): Swish()
      )
      (depthwise_conv): Sequential(
        (0): Conv2d(480, 480, kernel_size=(3, 3), stride=(1, 1), padding=(1, 1), groups=480, bias=False)
        (1): BatchNorm2d(480, eps=0.001, momentum=0.01, affine=True, track_running_stats=True)
        (2): Swish()
      )
      (squeeze_excitation): SqueezeExcitation(
        (reduce_expand): Sequential(
          (0): Conv2d(480, 20, kernel_size=(1, 1), stride=(1, 1))
          (1): Swish()
          (2): Conv2d(20, 480, kernel_size=(1, 1), stride=(1, 1))
          (3): Sigmoid()
        )
      )
      (project_conv): Sequential(
        (0): Conv2d(480, 80, kernel_size=(1, 1), stride=(1, 1), bias=False)
        (1): BatchNorm2d(80, eps=0.001, momentum=0.01, affine=True, track_running_stats=True)
      )
    )
    (MBConv6_7): MBConv(
      (expansion_conv): Sequential(
        (0): Conv2d(80, 480, kernel_size=(1, 1), stride=(1, 1), bias=False)
        (1): BatchNorm2d(480, eps=0.001, momentum=0.01, affine=True, track_running_stats=True)
        (2): Swish()
      )
      (depthwise_conv): Sequential(
        (0): Conv2d(480, 480, kernel_size=(3, 3), stride=(1, 1), padding=(1, 1), groups=480, bias=False)
        (1): BatchNorm2d(480, eps=0.001, momentum=0.01, affine=True, track_running_stats=True)
        (2): Swish()
      )
      (squeeze_excitation): SqueezeExcitation(
        (reduce_expand): Sequential(
          (0): Conv2d(480, 20, kernel_size=(1, 1), stride=(1, 1))
          (1): Swish()
          (2): Conv2d(20, 480, kernel_size=(1, 1), stride=(1, 1))
          (3): Sigmoid()
        )
      )
      (project_conv): Sequential(
        (0): Conv2d(480, 80, kernel_size=(1, 1), stride=(1, 1), bias=False)
        (1): BatchNorm2d(80, eps=0.001, momentum=0.01, affine=True, track_running_stats=True)
      )
    )
    (MBConv6_8): MBConv(
      (expansion_conv): Sequential(
        (0): Conv2d(80, 480, kernel_size=(1, 1), stride=(1, 1), bias=False)
        (1): BatchNorm2d(480, eps=0.001, momentum=0.01, affine=True, track_running_stats=True)
        (2): Swish()
      )
      (depthwise_conv): Sequential(
        (0): Conv2d(480, 480, kernel_size=(5, 5), stride=(1, 1), padding=(2, 2), groups=480, bias=False)
        (1): BatchNorm2d(480, eps=0.001, momentum=0.01, affine=True, track_running_stats=True)
        (2): Swish()
      )
      (squeeze_excitation): SqueezeExcitation(
        (reduce_expand): Sequential(
          (0): Conv2d(480, 20, kernel_size=(1, 1), stride=(1, 1))
          (1): Swish()
          (2): Conv2d(20, 480, kernel_size=(1, 1), stride=(1, 1))
          (3): Sigmoid()
        )
      )
      (project_conv): Sequential(
        (0): Conv2d(480, 112, kernel_size=(1, 1), stride=(1, 1), bias=False)
        (1): BatchNorm2d(112, eps=0.001, momentum=0.01, affine=True, track_running_stats=True)
      )
    )
    (MBConv6_9): MBConv(
      (expansion_conv): Sequential(
        (0): Conv2d(112, 672, kernel_size=(1, 1), stride=(1, 1), bias=False)
        (1): BatchNorm2d(672, eps=0.001, momentum=0.01, affine=True, track_running_stats=True)
        (2): Swish()
      )
      (depthwise_conv): Sequential(
        (0): Conv2d(672, 672, kernel_size=(5, 5), stride=(1, 1), padding=(2, 2), groups=672, bias=False)
        (1): BatchNorm2d(672, eps=0.001, momentum=0.01, affine=True, track_running_stats=True)
        (2): Swish()
      )
      (squeeze_excitation): SqueezeExcitation(
        (reduce_expand): Sequential(
          (0): Conv2d(672, 28, kernel_size=(1, 1), stride=(1, 1))
          (1): Swish()
          (2): Conv2d(28, 672, kernel_size=(1, 1), stride=(1, 1))
          (3): Sigmoid()
        )
      )
      (project_conv): Sequential(
        (0): Conv2d(672, 112, kernel_size=(1, 1), stride=(1, 1), bias=False)
        (1): BatchNorm2d(112, eps=0.001, momentum=0.01, affine=True, track_running_stats=True)
      )
    )
    (MBConv6_10): MBConv(
      (expansion_conv): Sequential(
        (0): Conv2d(112, 672, kernel_size=(1, 1), stride=(1, 1), bias=False)
        (1): BatchNorm2d(672, eps=0.001, momentum=0.01, affine=True, track_running_stats=True)
        (2): Swish()
      )
      (depthwise_conv): Sequential(
        (0): Conv2d(672, 672, kernel_size=(5, 5), stride=(1, 1), padding=(2, 2), groups=672, bias=False)
        (1): BatchNorm2d(672, eps=0.001, momentum=0.01, affine=True, track_running_stats=True)
        (2): Swish()
      )
      (squeeze_excitation): SqueezeExcitation(
        (reduce_expand): Sequential(
          (0): Conv2d(672, 28, kernel_size=(1, 1), stride=(1, 1))
          (1): Swish()
          (2): Conv2d(28, 672, kernel_size=(1, 1), stride=(1, 1))
          (3): Sigmoid()
        )
      )
      (project_conv): Sequential(
        (0): Conv2d(672, 112, kernel_size=(1, 1), stride=(1, 1), bias=False)
        (1): BatchNorm2d(112, eps=0.001, momentum=0.01, affine=True, track_running_stats=True)
      )
    )
    (MBConv6_11): MBConv(
      (expansion_conv): Sequential(
        (0): Conv2d(112, 672, kernel_size=(1, 1), stride=(1, 1), bias=False)
        (1): BatchNorm2d(672, eps=0.001, momentum=0.01, affine=True, track_running_stats=True)
        (2): Swish()
      )
      (depthwise_conv): Sequential(
        (0): Conv2d(672, 672, kernel_size=(5, 5), stride=(2, 2), padding=(2, 2), groups=672, bias=False)
        (1): BatchNorm2d(672, eps=0.001, momentum=0.01, affine=True, track_running_stats=True)
        (2): Swish()
      )
      (squeeze_excitation): SqueezeExcitation(
        (reduce_expand): Sequential(
          (0): Conv2d(672, 28, kernel_size=(1, 1), stride=(1, 1))
          (1): Swish()
          (2): Conv2d(28, 672, kernel_size=(1, 1), stride=(1, 1))
          (3): Sigmoid()
        )
      )
      (project_conv): Sequential(
        (0): Conv2d(672, 192, kernel_size=(1, 1), stride=(1, 1), bias=False)
        (1): BatchNorm2d(192, eps=0.001, momentum=0.01, affine=True, track_running_stats=True)
      )
    )
    (MBConv6_12): MBConv(
      (expansion_conv): Sequential(
        (0): Conv2d(192, 1152, kernel_size=(1, 1), stride=(1, 1), bias=False)
        (1): BatchNorm2d(1152, eps=0.001, momentum=0.01, affine=True, track_running_stats=True)
        (2): Swish()
      )
      (depthwise_conv): Sequential(
        (0): Conv2d(1152, 1152, kernel_size=(5, 5), stride=(1, 1), padding=(2, 2), groups=1152, bias=False)
        (1): BatchNorm2d(1152, eps=0.001, momentum=0.01, affine=True, track_running_stats=True)
        (2): Swish()
      )
      (squeeze_excitation): SqueezeExcitation(
        (reduce_expand): Sequential(
          (0): Conv2d(1152, 48, kernel_size=(1, 1), stride=(1, 1))
          (1): Swish()
          (2): Conv2d(48, 1152, kernel_size=(1, 1), stride=(1, 1))
          (3): Sigmoid()
        )
      )
      (project_conv): Sequential(
        (0): Conv2d(1152, 192, kernel_size=(1, 1), stride=(1, 1), bias=False)
        (1): BatchNorm2d(192, eps=0.001, momentum=0.01, affine=True, track_running_stats=True)
      )
    )
    (MBConv6_13): MBConv(
      (expansion_conv): Sequential(
        (0): Conv2d(192, 1152, kernel_size=(1, 1), stride=(1, 1), bias=False)
        (1): BatchNorm2d(1152, eps=0.001, momentum=0.01, affine=True, track_running_stats=True)
        (2): Swish()
      )
      (depthwise_conv): Sequential(
        (0): Conv2d(1152, 1152, kernel_size=(5, 5), stride=(1, 1), padding=(2, 2), groups=1152, bias=False)
        (1): BatchNorm2d(1152, eps=0.001, momentum=0.01, affine=True, track_running_stats=True)
        (2): Swish()
      )
      (squeeze_excitation): SqueezeExcitation(
        (reduce_expand): Sequential(
          (0): Conv2d(1152, 48, kernel_size=(1, 1), stride=(1, 1))
          (1): Swish()
          (2): Conv2d(48, 1152, kernel_size=(1, 1), stride=(1, 1))
          (3): Sigmoid()
        )
      )
      (project_conv): Sequential(
        (0): Conv2d(1152, 192, kernel_size=(1, 1), stride=(1, 1), bias=False)
        (1): BatchNorm2d(192, eps=0.001, momentum=0.01, affine=True, track_running_stats=True)
      )
    )
    (MBConv6_14): MBConv(
      (expansion_conv): Sequential(
        (0): Conv2d(192, 1152, kernel_size=(1, 1), stride=(1, 1), bias=False)
        (1): BatchNorm2d(1152, eps=0.001, momentum=0.01, affine=True, track_running_stats=True)
        (2): Swish()
      )
      (depthwise_conv): Sequential(
        (0): Conv2d(1152, 1152, kernel_size=(5, 5), stride=(1, 1), padding=(2, 2), groups=1152, bias=False)
        (1): BatchNorm2d(1152, eps=0.001, momentum=0.01, affine=True, track_running_stats=True)
        (2): Swish()
      )
      (squeeze_excitation): SqueezeExcitation(
        (reduce_expand): Sequential(
          (0): Conv2d(1152, 48, kernel_size=(1, 1), stride=(1, 1))
          (1): Swish()
          (2): Conv2d(48, 1152, kernel_size=(1, 1), stride=(1, 1))
          (3): Sigmoid()
        )
      )
      (project_conv): Sequential(
        (0): Conv2d(1152, 192, kernel_size=(1, 1), stride=(1, 1), bias=False)
        (1): BatchNorm2d(192, eps=0.001, momentum=0.01, affine=True, track_running_stats=True)
      )
    )
    (MBConv6_15): MBConv(
      (expansion_conv): Sequential(
        (0): Conv2d(192, 1152, kernel_size=(1, 1), stride=(1, 1), bias=False)
        (1): BatchNorm2d(1152, eps=0.001, momentum=0.01, affine=True, track_running_stats=True)
        (2): Swish()
      )
      (depthwise_conv): Sequential(
        (0): Conv2d(1152, 1152, kernel_size=(3, 3), stride=(1, 1), padding=(1, 1), groups=1152, bias=False)
        (1): BatchNorm2d(1152, eps=0.001, momentum=0.01, affine=True, track_running_stats=True)
        (2): Swish()
      )
      (squeeze_excitation): SqueezeExcitation(
        (reduce_expand): Sequential(
          (0): Conv2d(1152, 48, kernel_size=(1, 1), stride=(1, 1))
          (1): Swish()
          (2): Conv2d(48, 1152, kernel_size=(1, 1), stride=(1, 1))
          (3): Sigmoid()
        )
      )
      (project_conv): Sequential(
        (0): Conv2d(1152, 320, kernel_size=(1, 1), stride=(1, 1), bias=False)
        (1): BatchNorm2d(320, eps=0.001, momentum=0.01, affine=True, track_running_stats=True)
      )
    )
  )
  (head): Sequential(
    (0): Conv2d(320, 1280, kernel_size=(1, 1), stride=(1, 1), bias=False)
    (1): BatchNorm2d(1280, eps=0.001, momentum=0.01, affine=True, track_running_stats=True)
    (2): Swish()
    (3): AdaptiveAvgPool2d(output_size=1)
    (4): Flatten()
    (5): Dropout(p=0.2, inplace=False)
    (6): Linear(in_features=1280, out_features=8, bias=True)
  )
)


2022-01-17 14:37:34.034610

EfficientNet-B7 {'num_labels': 8, 'width_coefficient': 2.0, 'depth_coefficient': 3.1, 'dropout_rate': 0.5} resolution:600

EfficientNet(
  (stem): Sequential(
    (0): Conv2d(1, 64, kernel_size=(3, 3), stride=(2, 2), padding=(1, 1), bias=False)
    (1): BatchNorm2d(64, eps=0.001, momentum=0.01, affine=True, track_running_stats=True)
    (2): Swish()
  )
  (blocks): Sequential(
    (MBConv1_0): MBConv(
      (depthwise_conv): Sequential(
        (0): Conv2d(64, 64, kernel_size=(3, 3), stride=(1, 1), padding=(1, 1), groups=64, bias=False)
        (1): BatchNorm2d(64, eps=0.001, momentum=0.01, affine=True, track_running_stats=True)
        (2): Swish()
      )
      (squeeze_excitation): SqueezeExcitation(
        (reduce_expand): Sequential(
          (0): Conv2d(64, 16, kernel_size=(1, 1), stride=(1, 1))
          (1): Swish()
          (2): Conv2d(16, 64, kernel_size=(1, 1), stride=(1, 1))
          (3): Sigmoid()
        )
      )
      (project_conv): Sequential(
        (0): Conv2d(64, 32, kernel_size=(1, 1), stride=(1, 1), bias=False)
        (1): BatchNorm2d(32, eps=0.001, momentum=0.01, affine=True, track_running_stats=True)
      )
    )
    (MBConv1_1): MBConv(
      (depthwise_conv): Sequential(
        (0): Conv2d(32, 32, kernel_size=(3, 3), stride=(1, 1), padding=(1, 1), groups=32, bias=False)
        (1): BatchNorm2d(32, eps=0.001, momentum=0.01, affine=True, track_running_stats=True)
        (2): Swish()
      )
      (squeeze_excitation): SqueezeExcitation(
        (reduce_expand): Sequential(
          (0): Conv2d(32, 8, kernel_size=(1, 1), stride=(1, 1))
          (1): Swish()
          (2): Conv2d(8, 32, kernel_size=(1, 1), stride=(1, 1))
          (3): Sigmoid()
        )
      )
      (project_conv): Sequential(
        (0): Conv2d(32, 32, kernel_size=(1, 1), stride=(1, 1), bias=False)
        (1): BatchNorm2d(32, eps=0.001, momentum=0.01, affine=True, track_running_stats=True)
      )
    )
    (MBConv1_2): MBConv(
      (depthwise_conv): Sequential(
        (0): Conv2d(32, 32, kernel_size=(3, 3), stride=(1, 1), padding=(1, 1), groups=32, bias=False)
        (1): BatchNorm2d(32, eps=0.001, momentum=0.01, affine=True, track_running_stats=True)
        (2): Swish()
      )
      (squeeze_excitation): SqueezeExcitation(
        (reduce_expand): Sequential(
          (0): Conv2d(32, 8, kernel_size=(1, 1), stride=(1, 1))
          (1): Swish()
          (2): Conv2d(8, 32, kernel_size=(1, 1), stride=(1, 1))
          (3): Sigmoid()
        )
      )
      (project_conv): Sequential(
        (0): Conv2d(32, 32, kernel_size=(1, 1), stride=(1, 1), bias=False)
        (1): BatchNorm2d(32, eps=0.001, momentum=0.01, affine=True, track_running_stats=True)
      )
    )
    (MBConv1_3): MBConv(
      (depthwise_conv): Sequential(
        (0): Conv2d(32, 32, kernel_size=(3, 3), stride=(1, 1), padding=(1, 1), groups=32, bias=False)
        (1): BatchNorm2d(32, eps=0.001, momentum=0.01, affine=True, track_running_stats=True)
        (2): Swish()
      )
      (squeeze_excitation): SqueezeExcitation(
        (reduce_expand): Sequential(
          (0): Conv2d(32, 8, kernel_size=(1, 1), stride=(1, 1))
          (1): Swish()
          (2): Conv2d(8, 32, kernel_size=(1, 1), stride=(1, 1))
          (3): Sigmoid()
        )
      )
      (project_conv): Sequential(
        (0): Conv2d(32, 32, kernel_size=(1, 1), stride=(1, 1), bias=False)
        (1): BatchNorm2d(32, eps=0.001, momentum=0.01, affine=True, track_running_stats=True)
      )
    )
    (MBConv6_4): MBConv(
      (expansion_conv): Sequential(
        (0): Conv2d(32, 192, kernel_size=(1, 1), stride=(1, 1), bias=False)
        (1): BatchNorm2d(192, eps=0.001, momentum=0.01, affine=True, track_running_stats=True)
        (2): Swish()
      )
      (depthwise_conv): Sequential(
        (0): Conv2d(192, 192, kernel_size=(3, 3), stride=(2, 2), padding=(1, 1), groups=192, bias=False)
        (1): BatchNorm2d(192, eps=0.001, momentum=0.01, affine=True, track_running_stats=True)
        (2): Swish()
      )
      (squeeze_excitation): SqueezeExcitation(
        (reduce_expand): Sequential(
          (0): Conv2d(192, 8, kernel_size=(1, 1), stride=(1, 1))
          (1): Swish()
          (2): Conv2d(8, 192, kernel_size=(1, 1), stride=(1, 1))
          (3): Sigmoid()
        )
      )
      (project_conv): Sequential(
        (0): Conv2d(192, 48, kernel_size=(1, 1), stride=(1, 1), bias=False)
        (1): BatchNorm2d(48, eps=0.001, momentum=0.01, affine=True, track_running_stats=True)
      )
    )
    (MBConv6_5): MBConv(
      (expansion_conv): Sequential(
        (0): Conv2d(48, 288, kernel_size=(1, 1), stride=(1, 1), bias=False)
        (1): BatchNorm2d(288, eps=0.001, momentum=0.01, affine=True, track_running_stats=True)
        (2): Swish()
      )
      (depthwise_conv): Sequential(
        (0): Conv2d(288, 288, kernel_size=(3, 3), stride=(1, 1), padding=(1, 1), groups=288, bias=False)
        (1): BatchNorm2d(288, eps=0.001, momentum=0.01, affine=True, track_running_stats=True)
        (2): Swish()
      )
      (squeeze_excitation): SqueezeExcitation(
        (reduce_expand): Sequential(
          (0): Conv2d(288, 12, kernel_size=(1, 1), stride=(1, 1))
          (1): Swish()
          (2): Conv2d(12, 288, kernel_size=(1, 1), stride=(1, 1))
          (3): Sigmoid()
        )
      )
      (project_conv): Sequential(
        (0): Conv2d(288, 48, kernel_size=(1, 1), stride=(1, 1), bias=False)
        (1): BatchNorm2d(48, eps=0.001, momentum=0.01, affine=True, track_running_stats=True)
      )
    )
    (MBConv6_6): MBConv(
      (expansion_conv): Sequential(
        (0): Conv2d(48, 288, kernel_size=(1, 1), stride=(1, 1), bias=False)
        (1): BatchNorm2d(288, eps=0.001, momentum=0.01, affine=True, track_running_stats=True)
        (2): Swish()
      )
      (depthwise_conv): Sequential(
        (0): Conv2d(288, 288, kernel_size=(3, 3), stride=(1, 1), padding=(1, 1), groups=288, bias=False)
        (1): BatchNorm2d(288, eps=0.001, momentum=0.01, affine=True, track_running_stats=True)
        (2): Swish()
      )
      (squeeze_excitation): SqueezeExcitation(
        (reduce_expand): Sequential(
          (0): Conv2d(288, 12, kernel_size=(1, 1), stride=(1, 1))
          (1): Swish()
          (2): Conv2d(12, 288, kernel_size=(1, 1), stride=(1, 1))
          (3): Sigmoid()
        )
      )
      (project_conv): Sequential(
        (0): Conv2d(288, 48, kernel_size=(1, 1), stride=(1, 1), bias=False)
        (1): BatchNorm2d(48, eps=0.001, momentum=0.01, affine=True, track_running_stats=True)
      )
    )
    (MBConv6_7): MBConv(
      (expansion_conv): Sequential(
        (0): Conv2d(48, 288, kernel_size=(1, 1), stride=(1, 1), bias=False)
        (1): BatchNorm2d(288, eps=0.001, momentum=0.01, affine=True, track_running_stats=True)
        (2): Swish()
      )
      (depthwise_conv): Sequential(
        (0): Conv2d(288, 288, kernel_size=(3, 3), stride=(1, 1), padding=(1, 1), groups=288, bias=False)
        (1): BatchNorm2d(288, eps=0.001, momentum=0.01, affine=True, track_running_stats=True)
        (2): Swish()
      )
      (squeeze_excitation): SqueezeExcitation(
        (reduce_expand): Sequential(
          (0): Conv2d(288, 12, kernel_size=(1, 1), stride=(1, 1))
          (1): Swish()
          (2): Conv2d(12, 288, kernel_size=(1, 1), stride=(1, 1))
          (3): Sigmoid()
        )
      )
      (project_conv): Sequential(
        (0): Conv2d(288, 48, kernel_size=(1, 1), stride=(1, 1), bias=False)
        (1): BatchNorm2d(48, eps=0.001, momentum=0.01, affine=True, track_running_stats=True)
      )
    )
    (MBConv6_8): MBConv(
      (expansion_conv): Sequential(
        (0): Conv2d(48, 288, kernel_size=(1, 1), stride=(1, 1), bias=False)
        (1): BatchNorm2d(288, eps=0.001, momentum=0.01, affine=True, track_running_stats=True)
        (2): Swish()
      )
      (depthwise_conv): Sequential(
        (0): Conv2d(288, 288, kernel_size=(3, 3), stride=(1, 1), padding=(1, 1), groups=288, bias=False)
        (1): BatchNorm2d(288, eps=0.001, momentum=0.01, affine=True, track_running_stats=True)
        (2): Swish()
      )
      (squeeze_excitation): SqueezeExcitation(
        (reduce_expand): Sequential(
          (0): Conv2d(288, 12, kernel_size=(1, 1), stride=(1, 1))
          (1): Swish()
          (2): Conv2d(12, 288, kernel_size=(1, 1), stride=(1, 1))
          (3): Sigmoid()
        )
      )
      (project_conv): Sequential(
        (0): Conv2d(288, 48, kernel_size=(1, 1), stride=(1, 1), bias=False)
        (1): BatchNorm2d(48, eps=0.001, momentum=0.01, affine=True, track_running_stats=True)
      )
    )
    (MBConv6_9): MBConv(
      (expansion_conv): Sequential(
        (0): Conv2d(48, 288, kernel_size=(1, 1), stride=(1, 1), bias=False)
        (1): BatchNorm2d(288, eps=0.001, momentum=0.01, affine=True, track_running_stats=True)
        (2): Swish()
      )
      (depthwise_conv): Sequential(
        (0): Conv2d(288, 288, kernel_size=(3, 3), stride=(1, 1), padding=(1, 1), groups=288, bias=False)
        (1): BatchNorm2d(288, eps=0.001, momentum=0.01, affine=True, track_running_stats=True)
        (2): Swish()
      )
      (squeeze_excitation): SqueezeExcitation(
        (reduce_expand): Sequential(
          (0): Conv2d(288, 12, kernel_size=(1, 1), stride=(1, 1))
          (1): Swish()
          (2): Conv2d(12, 288, kernel_size=(1, 1), stride=(1, 1))
          (3): Sigmoid()
        )
      )
      (project_conv): Sequential(
        (0): Conv2d(288, 48, kernel_size=(1, 1), stride=(1, 1), bias=False)
        (1): BatchNorm2d(48, eps=0.001, momentum=0.01, affine=True, track_running_stats=True)
      )
    )
    (MBConv6_10): MBConv(
      (expansion_conv): Sequential(
        (0): Conv2d(48, 288, kernel_size=(1, 1), stride=(1, 1), bias=False)
        (1): BatchNorm2d(288, eps=0.001, momentum=0.01, affine=True, track_running_stats=True)
        (2): Swish()
      )
      (depthwise_conv): Sequential(
        (0): Conv2d(288, 288, kernel_size=(3, 3), stride=(1, 1), padding=(1, 1), groups=288, bias=False)
        (1): BatchNorm2d(288, eps=0.001, momentum=0.01, affine=True, track_running_stats=True)
        (2): Swish()
      )
      (squeeze_excitation): SqueezeExcitation(
        (reduce_expand): Sequential(
          (0): Conv2d(288, 12, kernel_size=(1, 1), stride=(1, 1))
          (1): Swish()
          (2): Conv2d(12, 288, kernel_size=(1, 1), stride=(1, 1))
          (3): Sigmoid()
        )
      )
      (project_conv): Sequential(
        (0): Conv2d(288, 48, kernel_size=(1, 1), stride=(1, 1), bias=False)
        (1): BatchNorm2d(48, eps=0.001, momentum=0.01, affine=True, track_running_stats=True)
      )
    )
    (MBConv6_11): MBConv(
      (expansion_conv): Sequential(
        (0): Conv2d(48, 288, kernel_size=(1, 1), stride=(1, 1), bias=False)
        (1): BatchNorm2d(288, eps=0.001, momentum=0.01, affine=True, track_running_stats=True)
        (2): Swish()
      )
      (depthwise_conv): Sequential(
        (0): Conv2d(288, 288, kernel_size=(5, 5), stride=(2, 2), padding=(2, 2), groups=288, bias=False)
        (1): BatchNorm2d(288, eps=0.001, momentum=0.01, affine=True, track_running_stats=True)
        (2): Swish()
      )
      (squeeze_excitation): SqueezeExcitation(
        (reduce_expand): Sequential(
          (0): Conv2d(288, 12, kernel_size=(1, 1), stride=(1, 1))
          (1): Swish()
          (2): Conv2d(12, 288, kernel_size=(1, 1), stride=(1, 1))
          (3): Sigmoid()
        )
      )
      (project_conv): Sequential(
        (0): Conv2d(288, 80, kernel_size=(1, 1), stride=(1, 1), bias=False)
        (1): BatchNorm2d(80, eps=0.001, momentum=0.01, affine=True, track_running_stats=True)
      )
    )
    (MBConv6_12): MBConv(
      (expansion_conv): Sequential(
        (0): Conv2d(80, 480, kernel_size=(1, 1), stride=(1, 1), bias=False)
        (1): BatchNorm2d(480, eps=0.001, momentum=0.01, affine=True, track_running_stats=True)
        (2): Swish()
      )
      (depthwise_conv): Sequential(
        (0): Conv2d(480, 480, kernel_size=(5, 5), stride=(1, 1), padding=(2, 2), groups=480, bias=False)
        (1): BatchNorm2d(480, eps=0.001, momentum=0.01, affine=True, track_running_stats=True)
        (2): Swish()
      )
      (squeeze_excitation): SqueezeExcitation(
        (reduce_expand): Sequential(
          (0): Conv2d(480, 20, kernel_size=(1, 1), stride=(1, 1))
          (1): Swish()
          (2): Conv2d(20, 480, kernel_size=(1, 1), stride=(1, 1))
          (3): Sigmoid()
        )
      )
      (project_conv): Sequential(
        (0): Conv2d(480, 80, kernel_size=(1, 1), stride=(1, 1), bias=False)
        (1): BatchNorm2d(80, eps=0.001, momentum=0.01, affine=True, track_running_stats=True)
      )
    )
    (MBConv6_13): MBConv(
      (expansion_conv): Sequential(
        (0): Conv2d(80, 480, kernel_size=(1, 1), stride=(1, 1), bias=False)
        (1): BatchNorm2d(480, eps=0.001, momentum=0.01, affine=True, track_running_stats=True)
        (2): Swish()
      )
      (depthwise_conv): Sequential(
        (0): Conv2d(480, 480, kernel_size=(5, 5), stride=(1, 1), padding=(2, 2), groups=480, bias=False)
        (1): BatchNorm2d(480, eps=0.001, momentum=0.01, affine=True, track_running_stats=True)
        (2): Swish()
      )
      (squeeze_excitation): SqueezeExcitation(
        (reduce_expand): Sequential(
          (0): Conv2d(480, 20, kernel_size=(1, 1), stride=(1, 1))
          (1): Swish()
          (2): Conv2d(20, 480, kernel_size=(1, 1), stride=(1, 1))
          (3): Sigmoid()
        )
      )
      (project_conv): Sequential(
        (0): Conv2d(480, 80, kernel_size=(1, 1), stride=(1, 1), bias=False)
        (1): BatchNorm2d(80, eps=0.001, momentum=0.01, affine=True, track_running_stats=True)
      )
    )
    (MBConv6_14): MBConv(
      (expansion_conv): Sequential(
        (0): Conv2d(80, 480, kernel_size=(1, 1), stride=(1, 1), bias=False)
        (1): BatchNorm2d(480, eps=0.001, momentum=0.01, affine=True, track_running_stats=True)
        (2): Swish()
      )
      (depthwise_conv): Sequential(
        (0): Conv2d(480, 480, kernel_size=(5, 5), stride=(1, 1), padding=(2, 2), groups=480, bias=False)
        (1): BatchNorm2d(480, eps=0.001, momentum=0.01, affine=True, track_running_stats=True)
        (2): Swish()
      )
      (squeeze_excitation): SqueezeExcitation(
        (reduce_expand): Sequential(
          (0): Conv2d(480, 20, kernel_size=(1, 1), stride=(1, 1))
          (1): Swish()
          (2): Conv2d(20, 480, kernel_size=(1, 1), stride=(1, 1))
          (3): Sigmoid()
        )
      )
      (project_conv): Sequential(
        (0): Conv2d(480, 80, kernel_size=(1, 1), stride=(1, 1), bias=False)
        (1): BatchNorm2d(80, eps=0.001, momentum=0.01, affine=True, track_running_stats=True)
      )
    )
    (MBConv6_15): MBConv(
      (expansion_conv): Sequential(
        (0): Conv2d(80, 480, kernel_size=(1, 1), stride=(1, 1), bias=False)
        (1): BatchNorm2d(480, eps=0.001, momentum=0.01, affine=True, track_running_stats=True)
        (2): Swish()
      )
      (depthwise_conv): Sequential(
        (0): Conv2d(480, 480, kernel_size=(5, 5), stride=(1, 1), padding=(2, 2), groups=480, bias=False)
        (1): BatchNorm2d(480, eps=0.001, momentum=0.01, affine=True, track_running_stats=True)
        (2): Swish()
      )
      (squeeze_excitation): SqueezeExcitation(
        (reduce_expand): Sequential(
          (0): Conv2d(480, 20, kernel_size=(1, 1), stride=(1, 1))
          (1): Swish()
          (2): Conv2d(20, 480, kernel_size=(1, 1), stride=(1, 1))
          (3): Sigmoid()
        )
      )
      (project_conv): Sequential(
        (0): Conv2d(480, 80, kernel_size=(1, 1), stride=(1, 1), bias=False)
        (1): BatchNorm2d(80, eps=0.001, momentum=0.01, affine=True, track_running_stats=True)
      )
    )
    (MBConv6_16): MBConv(
      (expansion_conv): Sequential(
        (0): Conv2d(80, 480, kernel_size=(1, 1), stride=(1, 1), bias=False)
        (1): BatchNorm2d(480, eps=0.001, momentum=0.01, affine=True, track_running_stats=True)
        (2): Swish()
      )
      (depthwise_conv): Sequential(
        (0): Conv2d(480, 480, kernel_size=(5, 5), stride=(1, 1), padding=(2, 2), groups=480, bias=False)
        (1): BatchNorm2d(480, eps=0.001, momentum=0.01, affine=True, track_running_stats=True)
        (2): Swish()
      )
      (squeeze_excitation): SqueezeExcitation(
        (reduce_expand): Sequential(
          (0): Conv2d(480, 20, kernel_size=(1, 1), stride=(1, 1))
          (1): Swish()
          (2): Conv2d(20, 480, kernel_size=(1, 1), stride=(1, 1))
          (3): Sigmoid()
        )
      )
      (project_conv): Sequential(
        (0): Conv2d(480, 80, kernel_size=(1, 1), stride=(1, 1), bias=False)
        (1): BatchNorm2d(80, eps=0.001, momentum=0.01, affine=True, track_running_stats=True)
      )
    )
    (MBConv6_17): MBConv(
      (expansion_conv): Sequential(
        (0): Conv2d(80, 480, kernel_size=(1, 1), stride=(1, 1), bias=False)
        (1): BatchNorm2d(480, eps=0.001, momentum=0.01, affine=True, track_running_stats=True)
        (2): Swish()
      )
      (depthwise_conv): Sequential(
        (0): Conv2d(480, 480, kernel_size=(5, 5), stride=(1, 1), padding=(2, 2), groups=480, bias=False)
        (1): BatchNorm2d(480, eps=0.001, momentum=0.01, affine=True, track_running_stats=True)
        (2): Swish()
      )
      (squeeze_excitation): SqueezeExcitation(
        (reduce_expand): Sequential(
          (0): Conv2d(480, 20, kernel_size=(1, 1), stride=(1, 1))
          (1): Swish()
          (2): Conv2d(20, 480, kernel_size=(1, 1), stride=(1, 1))
          (3): Sigmoid()
        )
      )
      (project_conv): Sequential(
        (0): Conv2d(480, 80, kernel_size=(1, 1), stride=(1, 1), bias=False)
        (1): BatchNorm2d(80, eps=0.001, momentum=0.01, affine=True, track_running_stats=True)
      )
    )
    (MBConv6_18): MBConv(
      (expansion_conv): Sequential(
        (0): Conv2d(80, 480, kernel_size=(1, 1), stride=(1, 1), bias=False)
        (1): BatchNorm2d(480, eps=0.001, momentum=0.01, affine=True, track_running_stats=True)
        (2): Swish()
      )
      (depthwise_conv): Sequential(
        (0): Conv2d(480, 480, kernel_size=(3, 3), stride=(2, 2), padding=(1, 1), groups=480, bias=False)
        (1): BatchNorm2d(480, eps=0.001, momentum=0.01, affine=True, track_running_stats=True)
        (2): Swish()
      )
      (squeeze_excitation): SqueezeExcitation(
        (reduce_expand): Sequential(
          (0): Conv2d(480, 20, kernel_size=(1, 1), stride=(1, 1))
          (1): Swish()
          (2): Conv2d(20, 480, kernel_size=(1, 1), stride=(1, 1))
          (3): Sigmoid()
        )
      )
      (project_conv): Sequential(
        (0): Conv2d(480, 160, kernel_size=(1, 1), stride=(1, 1), bias=False)
        (1): BatchNorm2d(160, eps=0.001, momentum=0.01, affine=True, track_running_stats=True)
      )
    )
    (MBConv6_19): MBConv(
      (expansion_conv): Sequential(
        (0): Conv2d(160, 960, kernel_size=(1, 1), stride=(1, 1), bias=False)
        (1): BatchNorm2d(960, eps=0.001, momentum=0.01, affine=True, track_running_stats=True)
        (2): Swish()
      )
      (depthwise_conv): Sequential(
        (0): Conv2d(960, 960, kernel_size=(3, 3), stride=(1, 1), padding=(1, 1), groups=960, bias=False)
        (1): BatchNorm2d(960, eps=0.001, momentum=0.01, affine=True, track_running_stats=True)
        (2): Swish()
      )
      (squeeze_excitation): SqueezeExcitation(
        (reduce_expand): Sequential(
          (0): Conv2d(960, 40, kernel_size=(1, 1), stride=(1, 1))
          (1): Swish()
          (2): Conv2d(40, 960, kernel_size=(1, 1), stride=(1, 1))
          (3): Sigmoid()
        )
      )
      (project_conv): Sequential(
        (0): Conv2d(960, 160, kernel_size=(1, 1), stride=(1, 1), bias=False)
        (1): BatchNorm2d(160, eps=0.001, momentum=0.01, affine=True, track_running_stats=True)
      )
    )
    (MBConv6_20): MBConv(
      (expansion_conv): Sequential(
        (0): Conv2d(160, 960, kernel_size=(1, 1), stride=(1, 1), bias=False)
        (1): BatchNorm2d(960, eps=0.001, momentum=0.01, affine=True, track_running_stats=True)
        (2): Swish()
      )
      (depthwise_conv): Sequential(
        (0): Conv2d(960, 960, kernel_size=(3, 3), stride=(1, 1), padding=(1, 1), groups=960, bias=False)
        (1): BatchNorm2d(960, eps=0.001, momentum=0.01, affine=True, track_running_stats=True)
        (2): Swish()
      )
      (squeeze_excitation): SqueezeExcitation(
        (reduce_expand): Sequential(
          (0): Conv2d(960, 40, kernel_size=(1, 1), stride=(1, 1))
          (1): Swish()
          (2): Conv2d(40, 960, kernel_size=(1, 1), stride=(1, 1))
          (3): Sigmoid()
        )
      )
      (project_conv): Sequential(
        (0): Conv2d(960, 160, kernel_size=(1, 1), stride=(1, 1), bias=False)
        (1): BatchNorm2d(160, eps=0.001, momentum=0.01, affine=True, track_running_stats=True)
      )
    )
    (MBConv6_21): MBConv(
      (expansion_conv): Sequential(
        (0): Conv2d(160, 960, kernel_size=(1, 1), stride=(1, 1), bias=False)
        (1): BatchNorm2d(960, eps=0.001, momentum=0.01, affine=True, track_running_stats=True)
        (2): Swish()
      )
      (depthwise_conv): Sequential(
        (0): Conv2d(960, 960, kernel_size=(3, 3), stride=(1, 1), padding=(1, 1), groups=960, bias=False)
        (1): BatchNorm2d(960, eps=0.001, momentum=0.01, affine=True, track_running_stats=True)
        (2): Swish()
      )
      (squeeze_excitation): SqueezeExcitation(
        (reduce_expand): Sequential(
          (0): Conv2d(960, 40, kernel_size=(1, 1), stride=(1, 1))
          (1): Swish()
          (2): Conv2d(40, 960, kernel_size=(1, 1), stride=(1, 1))
          (3): Sigmoid()
        )
      )
      (project_conv): Sequential(
        (0): Conv2d(960, 160, kernel_size=(1, 1), stride=(1, 1), bias=False)
        (1): BatchNorm2d(160, eps=0.001, momentum=0.01, affine=True, track_running_stats=True)
      )
    )
    (MBConv6_22): MBConv(
      (expansion_conv): Sequential(
        (0): Conv2d(160, 960, kernel_size=(1, 1), stride=(1, 1), bias=False)
        (1): BatchNorm2d(960, eps=0.001, momentum=0.01, affine=True, track_running_stats=True)
        (2): Swish()
      )
      (depthwise_conv): Sequential(
        (0): Conv2d(960, 960, kernel_size=(3, 3), stride=(1, 1), padding=(1, 1), groups=960, bias=False)
        (1): BatchNorm2d(960, eps=0.001, momentum=0.01, affine=True, track_running_stats=True)
        (2): Swish()
      )
      (squeeze_excitation): SqueezeExcitation(
        (reduce_expand): Sequential(
          (0): Conv2d(960, 40, kernel_size=(1, 1), stride=(1, 1))
          (1): Swish()
          (2): Conv2d(40, 960, kernel_size=(1, 1), stride=(1, 1))
          (3): Sigmoid()
        )
      )
      (project_conv): Sequential(
        (0): Conv2d(960, 160, kernel_size=(1, 1), stride=(1, 1), bias=False)
        (1): BatchNorm2d(160, eps=0.001, momentum=0.01, affine=True, track_running_stats=True)
      )
    )
    (MBConv6_23): MBConv(
      (expansion_conv): Sequential(
        (0): Conv2d(160, 960, kernel_size=(1, 1), stride=(1, 1), bias=False)
        (1): BatchNorm2d(960, eps=0.001, momentum=0.01, affine=True, track_running_stats=True)
        (2): Swish()
      )
      (depthwise_conv): Sequential(
        (0): Conv2d(960, 960, kernel_size=(3, 3), stride=(1, 1), padding=(1, 1), groups=960, bias=False)
        (1): BatchNorm2d(960, eps=0.001, momentum=0.01, affine=True, track_running_stats=True)
        (2): Swish()
      )
      (squeeze_excitation): SqueezeExcitation(
        (reduce_expand): Sequential(
          (0): Conv2d(960, 40, kernel_size=(1, 1), stride=(1, 1))
          (1): Swish()
          (2): Conv2d(40, 960, kernel_size=(1, 1), stride=(1, 1))
          (3): Sigmoid()
        )
      )
      (project_conv): Sequential(
        (0): Conv2d(960, 160, kernel_size=(1, 1), stride=(1, 1), bias=False)
        (1): BatchNorm2d(160, eps=0.001, momentum=0.01, affine=True, track_running_stats=True)
      )
    )
    (MBConv6_24): MBConv(
      (expansion_conv): Sequential(
        (0): Conv2d(160, 960, kernel_size=(1, 1), stride=(1, 1), bias=False)
        (1): BatchNorm2d(960, eps=0.001, momentum=0.01, affine=True, track_running_stats=True)
        (2): Swish()
      )
      (depthwise_conv): Sequential(
        (0): Conv2d(960, 960, kernel_size=(3, 3), stride=(1, 1), padding=(1, 1), groups=960, bias=False)
        (1): BatchNorm2d(960, eps=0.001, momentum=0.01, affine=True, track_running_stats=True)
        (2): Swish()
      )
      (squeeze_excitation): SqueezeExcitation(
        (reduce_expand): Sequential(
          (0): Conv2d(960, 40, kernel_size=(1, 1), stride=(1, 1))
          (1): Swish()
          (2): Conv2d(40, 960, kernel_size=(1, 1), stride=(1, 1))
          (3): Sigmoid()
        )
      )
      (project_conv): Sequential(
        (0): Conv2d(960, 160, kernel_size=(1, 1), stride=(1, 1), bias=False)
        (1): BatchNorm2d(160, eps=0.001, momentum=0.01, affine=True, track_running_stats=True)
      )
    )
    (MBConv6_25): MBConv(
      (expansion_conv): Sequential(
        (0): Conv2d(160, 960, kernel_size=(1, 1), stride=(1, 1), bias=False)
        (1): BatchNorm2d(960, eps=0.001, momentum=0.01, affine=True, track_running_stats=True)
        (2): Swish()
      )
      (depthwise_conv): Sequential(
        (0): Conv2d(960, 960, kernel_size=(3, 3), stride=(1, 1), padding=(1, 1), groups=960, bias=False)
        (1): BatchNorm2d(960, eps=0.001, momentum=0.01, affine=True, track_running_stats=True)
        (2): Swish()
      )
      (squeeze_excitation): SqueezeExcitation(
        (reduce_expand): Sequential(
          (0): Conv2d(960, 40, kernel_size=(1, 1), stride=(1, 1))
          (1): Swish()
          (2): Conv2d(40, 960, kernel_size=(1, 1), stride=(1, 1))
          (3): Sigmoid()
        )
      )
      (project_conv): Sequential(
        (0): Conv2d(960, 160, kernel_size=(1, 1), stride=(1, 1), bias=False)
        (1): BatchNorm2d(160, eps=0.001, momentum=0.01, affine=True, track_running_stats=True)
      )
    )
    (MBConv6_26): MBConv(
      (expansion_conv): Sequential(
        (0): Conv2d(160, 960, kernel_size=(1, 1), stride=(1, 1), bias=False)
        (1): BatchNorm2d(960, eps=0.001, momentum=0.01, affine=True, track_running_stats=True)
        (2): Swish()
      )
      (depthwise_conv): Sequential(
        (0): Conv2d(960, 960, kernel_size=(3, 3), stride=(1, 1), padding=(1, 1), groups=960, bias=False)
        (1): BatchNorm2d(960, eps=0.001, momentum=0.01, affine=True, track_running_stats=True)
        (2): Swish()
      )
      (squeeze_excitation): SqueezeExcitation(
        (reduce_expand): Sequential(
          (0): Conv2d(960, 40, kernel_size=(1, 1), stride=(1, 1))
          (1): Swish()
          (2): Conv2d(40, 960, kernel_size=(1, 1), stride=(1, 1))
          (3): Sigmoid()
        )
      )
      (project_conv): Sequential(
        (0): Conv2d(960, 160, kernel_size=(1, 1), stride=(1, 1), bias=False)
        (1): BatchNorm2d(160, eps=0.001, momentum=0.01, affine=True, track_running_stats=True)
      )
    )
    (MBConv6_27): MBConv(
      (expansion_conv): Sequential(
        (0): Conv2d(160, 960, kernel_size=(1, 1), stride=(1, 1), bias=False)
        (1): BatchNorm2d(960, eps=0.001, momentum=0.01, affine=True, track_running_stats=True)
        (2): Swish()
      )
      (depthwise_conv): Sequential(
        (0): Conv2d(960, 960, kernel_size=(3, 3), stride=(1, 1), padding=(1, 1), groups=960, bias=False)
        (1): BatchNorm2d(960, eps=0.001, momentum=0.01, affine=True, track_running_stats=True)
        (2): Swish()
      )
      (squeeze_excitation): SqueezeExcitation(
        (reduce_expand): Sequential(
          (0): Conv2d(960, 40, kernel_size=(1, 1), stride=(1, 1))
          (1): Swish()
          (2): Conv2d(40, 960, kernel_size=(1, 1), stride=(1, 1))
          (3): Sigmoid()
        )
      )
      (project_conv): Sequential(
        (0): Conv2d(960, 160, kernel_size=(1, 1), stride=(1, 1), bias=False)
        (1): BatchNorm2d(160, eps=0.001, momentum=0.01, affine=True, track_running_stats=True)
      )
    )
    (MBConv6_28): MBConv(
      (expansion_conv): Sequential(
        (0): Conv2d(160, 960, kernel_size=(1, 1), stride=(1, 1), bias=False)
        (1): BatchNorm2d(960, eps=0.001, momentum=0.01, affine=True, track_running_stats=True)
        (2): Swish()
      )
      (depthwise_conv): Sequential(
        (0): Conv2d(960, 960, kernel_size=(5, 5), stride=(1, 1), padding=(2, 2), groups=960, bias=False)
        (1): BatchNorm2d(960, eps=0.001, momentum=0.01, affine=True, track_running_stats=True)
        (2): Swish()
      )
      (squeeze_excitation): SqueezeExcitation(
        (reduce_expand): Sequential(
          (0): Conv2d(960, 40, kernel_size=(1, 1), stride=(1, 1))
          (1): Swish()
          (2): Conv2d(40, 960, kernel_size=(1, 1), stride=(1, 1))
          (3): Sigmoid()
        )
      )
      (project_conv): Sequential(
        (0): Conv2d(960, 224, kernel_size=(1, 1), stride=(1, 1), bias=False)
        (1): BatchNorm2d(224, eps=0.001, momentum=0.01, affine=True, track_running_stats=True)
      )
    )
    (MBConv6_29): MBConv(
      (expansion_conv): Sequential(
        (0): Conv2d(224, 1344, kernel_size=(1, 1), stride=(1, 1), bias=False)
        (1): BatchNorm2d(1344, eps=0.001, momentum=0.01, affine=True, track_running_stats=True)
        (2): Swish()
      )
      (depthwise_conv): Sequential(
        (0): Conv2d(1344, 1344, kernel_size=(5, 5), stride=(1, 1), padding=(2, 2), groups=1344, bias=False)
        (1): BatchNorm2d(1344, eps=0.001, momentum=0.01, affine=True, track_running_stats=True)
        (2): Swish()
      )
      (squeeze_excitation): SqueezeExcitation(
        (reduce_expand): Sequential(
          (0): Conv2d(1344, 56, kernel_size=(1, 1), stride=(1, 1))
          (1): Swish()
          (2): Conv2d(56, 1344, kernel_size=(1, 1), stride=(1, 1))
          (3): Sigmoid()
        )
      )
      (project_conv): Sequential(
        (0): Conv2d(1344, 224, kernel_size=(1, 1), stride=(1, 1), bias=False)
        (1): BatchNorm2d(224, eps=0.001, momentum=0.01, affine=True, track_running_stats=True)
      )
    )
    (MBConv6_30): MBConv(
      (expansion_conv): Sequential(
        (0): Conv2d(224, 1344, kernel_size=(1, 1), stride=(1, 1), bias=False)
        (1): BatchNorm2d(1344, eps=0.001, momentum=0.01, affine=True, track_running_stats=True)
        (2): Swish()
      )
      (depthwise_conv): Sequential(
        (0): Conv2d(1344, 1344, kernel_size=(5, 5), stride=(1, 1), padding=(2, 2), groups=1344, bias=False)
        (1): BatchNorm2d(1344, eps=0.001, momentum=0.01, affine=True, track_running_stats=True)
        (2): Swish()
      )
      (squeeze_excitation): SqueezeExcitation(
        (reduce_expand): Sequential(
          (0): Conv2d(1344, 56, kernel_size=(1, 1), stride=(1, 1))
          (1): Swish()
          (2): Conv2d(56, 1344, kernel_size=(1, 1), stride=(1, 1))
          (3): Sigmoid()
        )
      )
      (project_conv): Sequential(
        (0): Conv2d(1344, 224, kernel_size=(1, 1), stride=(1, 1), bias=False)
        (1): BatchNorm2d(224, eps=0.001, momentum=0.01, affine=True, track_running_stats=True)
      )
    )
    (MBConv6_31): MBConv(
      (expansion_conv): Sequential(
        (0): Conv2d(224, 1344, kernel_size=(1, 1), stride=(1, 1), bias=False)
        (1): BatchNorm2d(1344, eps=0.001, momentum=0.01, affine=True, track_running_stats=True)
        (2): Swish()
      )
      (depthwise_conv): Sequential(
        (0): Conv2d(1344, 1344, kernel_size=(5, 5), stride=(1, 1), padding=(2, 2), groups=1344, bias=False)
        (1): BatchNorm2d(1344, eps=0.001, momentum=0.01, affine=True, track_running_stats=True)
        (2): Swish()
      )
      (squeeze_excitation): SqueezeExcitation(
        (reduce_expand): Sequential(
          (0): Conv2d(1344, 56, kernel_size=(1, 1), stride=(1, 1))
          (1): Swish()
          (2): Conv2d(56, 1344, kernel_size=(1, 1), stride=(1, 1))
          (3): Sigmoid()
        )
      )
      (project_conv): Sequential(
        (0): Conv2d(1344, 224, kernel_size=(1, 1), stride=(1, 1), bias=False)
        (1): BatchNorm2d(224, eps=0.001, momentum=0.01, affine=True, track_running_stats=True)
      )
    )
    (MBConv6_32): MBConv(
      (expansion_conv): Sequential(
        (0): Conv2d(224, 1344, kernel_size=(1, 1), stride=(1, 1), bias=False)
        (1): BatchNorm2d(1344, eps=0.001, momentum=0.01, affine=True, track_running_stats=True)
        (2): Swish()
      )
      (depthwise_conv): Sequential(
        (0): Conv2d(1344, 1344, kernel_size=(5, 5), stride=(1, 1), padding=(2, 2), groups=1344, bias=False)
        (1): BatchNorm2d(1344, eps=0.001, momentum=0.01, affine=True, track_running_stats=True)
        (2): Swish()
      )
      (squeeze_excitation): SqueezeExcitation(
        (reduce_expand): Sequential(
          (0): Conv2d(1344, 56, kernel_size=(1, 1), stride=(1, 1))
          (1): Swish()
          (2): Conv2d(56, 1344, kernel_size=(1, 1), stride=(1, 1))
          (3): Sigmoid()
        )
      )
      (project_conv): Sequential(
        (0): Conv2d(1344, 224, kernel_size=(1, 1), stride=(1, 1), bias=False)
        (1): BatchNorm2d(224, eps=0.001, momentum=0.01, affine=True, track_running_stats=True)
      )
    )
    (MBConv6_33): MBConv(
      (expansion_conv): Sequential(
        (0): Conv2d(224, 1344, kernel_size=(1, 1), stride=(1, 1), bias=False)
        (1): BatchNorm2d(1344, eps=0.001, momentum=0.01, affine=True, track_running_stats=True)
        (2): Swish()
      )
      (depthwise_conv): Sequential(
        (0): Conv2d(1344, 1344, kernel_size=(5, 5), stride=(1, 1), padding=(2, 2), groups=1344, bias=False)
        (1): BatchNorm2d(1344, eps=0.001, momentum=0.01, affine=True, track_running_stats=True)
        (2): Swish()
      )
      (squeeze_excitation): SqueezeExcitation(
        (reduce_expand): Sequential(
          (0): Conv2d(1344, 56, kernel_size=(1, 1), stride=(1, 1))
          (1): Swish()
          (2): Conv2d(56, 1344, kernel_size=(1, 1), stride=(1, 1))
          (3): Sigmoid()
        )
      )
      (project_conv): Sequential(
        (0): Conv2d(1344, 224, kernel_size=(1, 1), stride=(1, 1), bias=False)
        (1): BatchNorm2d(224, eps=0.001, momentum=0.01, affine=True, track_running_stats=True)
      )
    )
    (MBConv6_34): MBConv(
      (expansion_conv): Sequential(
        (0): Conv2d(224, 1344, kernel_size=(1, 1), stride=(1, 1), bias=False)
        (1): BatchNorm2d(1344, eps=0.001, momentum=0.01, affine=True, track_running_stats=True)
        (2): Swish()
      )
      (depthwise_conv): Sequential(
        (0): Conv2d(1344, 1344, kernel_size=(5, 5), stride=(1, 1), padding=(2, 2), groups=1344, bias=False)
        (1): BatchNorm2d(1344, eps=0.001, momentum=0.01, affine=True, track_running_stats=True)
        (2): Swish()
      )
      (squeeze_excitation): SqueezeExcitation(
        (reduce_expand): Sequential(
          (0): Conv2d(1344, 56, kernel_size=(1, 1), stride=(1, 1))
          (1): Swish()
          (2): Conv2d(56, 1344, kernel_size=(1, 1), stride=(1, 1))
          (3): Sigmoid()
        )
      )
      (project_conv): Sequential(
        (0): Conv2d(1344, 224, kernel_size=(1, 1), stride=(1, 1), bias=False)
        (1): BatchNorm2d(224, eps=0.001, momentum=0.01, affine=True, track_running_stats=True)
      )
    )
    (MBConv6_35): MBConv(
      (expansion_conv): Sequential(
        (0): Conv2d(224, 1344, kernel_size=(1, 1), stride=(1, 1), bias=False)
        (1): BatchNorm2d(1344, eps=0.001, momentum=0.01, affine=True, track_running_stats=True)
        (2): Swish()
      )
      (depthwise_conv): Sequential(
        (0): Conv2d(1344, 1344, kernel_size=(5, 5), stride=(1, 1), padding=(2, 2), groups=1344, bias=False)
        (1): BatchNorm2d(1344, eps=0.001, momentum=0.01, affine=True, track_running_stats=True)
        (2): Swish()
      )
      (squeeze_excitation): SqueezeExcitation(
        (reduce_expand): Sequential(
          (0): Conv2d(1344, 56, kernel_size=(1, 1), stride=(1, 1))
          (1): Swish()
          (2): Conv2d(56, 1344, kernel_size=(1, 1), stride=(1, 1))
          (3): Sigmoid()
        )
      )
      (project_conv): Sequential(
        (0): Conv2d(1344, 224, kernel_size=(1, 1), stride=(1, 1), bias=False)
        (1): BatchNorm2d(224, eps=0.001, momentum=0.01, affine=True, track_running_stats=True)
      )
    )
    (MBConv6_36): MBConv(
      (expansion_conv): Sequential(
        (0): Conv2d(224, 1344, kernel_size=(1, 1), stride=(1, 1), bias=False)
        (1): BatchNorm2d(1344, eps=0.001, momentum=0.01, affine=True, track_running_stats=True)
        (2): Swish()
      )
      (depthwise_conv): Sequential(
        (0): Conv2d(1344, 1344, kernel_size=(5, 5), stride=(1, 1), padding=(2, 2), groups=1344, bias=False)
        (1): BatchNorm2d(1344, eps=0.001, momentum=0.01, affine=True, track_running_stats=True)
        (2): Swish()
      )
      (squeeze_excitation): SqueezeExcitation(
        (reduce_expand): Sequential(
          (0): Conv2d(1344, 56, kernel_size=(1, 1), stride=(1, 1))
          (1): Swish()
          (2): Conv2d(56, 1344, kernel_size=(1, 1), stride=(1, 1))
          (3): Sigmoid()
        )
      )
      (project_conv): Sequential(
        (0): Conv2d(1344, 224, kernel_size=(1, 1), stride=(1, 1), bias=False)
        (1): BatchNorm2d(224, eps=0.001, momentum=0.01, affine=True, track_running_stats=True)
      )
    )
    (MBConv6_37): MBConv(
      (expansion_conv): Sequential(
        (0): Conv2d(224, 1344, kernel_size=(1, 1), stride=(1, 1), bias=False)
        (1): BatchNorm2d(1344, eps=0.001, momentum=0.01, affine=True, track_running_stats=True)
        (2): Swish()
      )
      (depthwise_conv): Sequential(
        (0): Conv2d(1344, 1344, kernel_size=(5, 5), stride=(1, 1), padding=(2, 2), groups=1344, bias=False)
        (1): BatchNorm2d(1344, eps=0.001, momentum=0.01, affine=True, track_running_stats=True)
        (2): Swish()
      )
      (squeeze_excitation): SqueezeExcitation(
        (reduce_expand): Sequential(
          (0): Conv2d(1344, 56, kernel_size=(1, 1), stride=(1, 1))
          (1): Swish()
          (2): Conv2d(56, 1344, kernel_size=(1, 1), stride=(1, 1))
          (3): Sigmoid()
        )
      )
      (project_conv): Sequential(
        (0): Conv2d(1344, 224, kernel_size=(1, 1), stride=(1, 1), bias=False)
        (1): BatchNorm2d(224, eps=0.001, momentum=0.01, affine=True, track_running_stats=True)
      )
    )
    (MBConv6_38): MBConv(
      (expansion_conv): Sequential(
        (0): Conv2d(224, 1344, kernel_size=(1, 1), stride=(1, 1), bias=False)
        (1): BatchNorm2d(1344, eps=0.001, momentum=0.01, affine=True, track_running_stats=True)
        (2): Swish()
      )
      (depthwise_conv): Sequential(
        (0): Conv2d(1344, 1344, kernel_size=(5, 5), stride=(2, 2), padding=(2, 2), groups=1344, bias=False)
        (1): BatchNorm2d(1344, eps=0.001, momentum=0.01, affine=True, track_running_stats=True)
        (2): Swish()
      )
      (squeeze_excitation): SqueezeExcitation(
        (reduce_expand): Sequential(
          (0): Conv2d(1344, 56, kernel_size=(1, 1), stride=(1, 1))
          (1): Swish()
          (2): Conv2d(56, 1344, kernel_size=(1, 1), stride=(1, 1))
          (3): Sigmoid()
        )
      )
      (project_conv): Sequential(
        (0): Conv2d(1344, 384, kernel_size=(1, 1), stride=(1, 1), bias=False)
        (1): BatchNorm2d(384, eps=0.001, momentum=0.01, affine=True, track_running_stats=True)
      )
    )
    (MBConv6_39): MBConv(
      (expansion_conv): Sequential(
        (0): Conv2d(384, 2304, kernel_size=(1, 1), stride=(1, 1), bias=False)
        (1): BatchNorm2d(2304, eps=0.001, momentum=0.01, affine=True, track_running_stats=True)
        (2): Swish()
      )
      (depthwise_conv): Sequential(
        (0): Conv2d(2304, 2304, kernel_size=(5, 5), stride=(1, 1), padding=(2, 2), groups=2304, bias=False)
        (1): BatchNorm2d(2304, eps=0.001, momentum=0.01, affine=True, track_running_stats=True)
        (2): Swish()
      )
      (squeeze_excitation): SqueezeExcitation(
        (reduce_expand): Sequential(
          (0): Conv2d(2304, 96, kernel_size=(1, 1), stride=(1, 1))
          (1): Swish()
          (2): Conv2d(96, 2304, kernel_size=(1, 1), stride=(1, 1))
          (3): Sigmoid()
        )
      )
      (project_conv): Sequential(
        (0): Conv2d(2304, 384, kernel_size=(1, 1), stride=(1, 1), bias=False)
        (1): BatchNorm2d(384, eps=0.001, momentum=0.01, affine=True, track_running_stats=True)
      )
    )
    (MBConv6_40): MBConv(
      (expansion_conv): Sequential(
        (0): Conv2d(384, 2304, kernel_size=(1, 1), stride=(1, 1), bias=False)
        (1): BatchNorm2d(2304, eps=0.001, momentum=0.01, affine=True, track_running_stats=True)
        (2): Swish()
      )
      (depthwise_conv): Sequential(
        (0): Conv2d(2304, 2304, kernel_size=(5, 5), stride=(1, 1), padding=(2, 2), groups=2304, bias=False)
        (1): BatchNorm2d(2304, eps=0.001, momentum=0.01, affine=True, track_running_stats=True)
        (2): Swish()
      )
      (squeeze_excitation): SqueezeExcitation(
        (reduce_expand): Sequential(
          (0): Conv2d(2304, 96, kernel_size=(1, 1), stride=(1, 1))
          (1): Swish()
          (2): Conv2d(96, 2304, kernel_size=(1, 1), stride=(1, 1))
          (3): Sigmoid()
        )
      )
      (project_conv): Sequential(
        (0): Conv2d(2304, 384, kernel_size=(1, 1), stride=(1, 1), bias=False)
        (1): BatchNorm2d(384, eps=0.001, momentum=0.01, affine=True, track_running_stats=True)
      )
    )
    (MBConv6_41): MBConv(
      (expansion_conv): Sequential(
        (0): Conv2d(384, 2304, kernel_size=(1, 1), stride=(1, 1), bias=False)
        (1): BatchNorm2d(2304, eps=0.001, momentum=0.01, affine=True, track_running_stats=True)
        (2): Swish()
      )
      (depthwise_conv): Sequential(
        (0): Conv2d(2304, 2304, kernel_size=(5, 5), stride=(1, 1), padding=(2, 2), groups=2304, bias=False)
        (1): BatchNorm2d(2304, eps=0.001, momentum=0.01, affine=True, track_running_stats=True)
        (2): Swish()
      )
      (squeeze_excitation): SqueezeExcitation(
        (reduce_expand): Sequential(
          (0): Conv2d(2304, 96, kernel_size=(1, 1), stride=(1, 1))
          (1): Swish()
          (2): Conv2d(96, 2304, kernel_size=(1, 1), stride=(1, 1))
          (3): Sigmoid()
        )
      )
      (project_conv): Sequential(
        (0): Conv2d(2304, 384, kernel_size=(1, 1), stride=(1, 1), bias=False)
        (1): BatchNorm2d(384, eps=0.001, momentum=0.01, affine=True, track_running_stats=True)
      )
    )
    (MBConv6_42): MBConv(
      (expansion_conv): Sequential(
        (0): Conv2d(384, 2304, kernel_size=(1, 1), stride=(1, 1), bias=False)
        (1): BatchNorm2d(2304, eps=0.001, momentum=0.01, affine=True, track_running_stats=True)
        (2): Swish()
      )
      (depthwise_conv): Sequential(
        (0): Conv2d(2304, 2304, kernel_size=(5, 5), stride=(1, 1), padding=(2, 2), groups=2304, bias=False)
        (1): BatchNorm2d(2304, eps=0.001, momentum=0.01, affine=True, track_running_stats=True)
        (2): Swish()
      )
      (squeeze_excitation): SqueezeExcitation(
        (reduce_expand): Sequential(
          (0): Conv2d(2304, 96, kernel_size=(1, 1), stride=(1, 1))
          (1): Swish()
          (2): Conv2d(96, 2304, kernel_size=(1, 1), stride=(1, 1))
          (3): Sigmoid()
        )
      )
      (project_conv): Sequential(
        (0): Conv2d(2304, 384, kernel_size=(1, 1), stride=(1, 1), bias=False)
        (1): BatchNorm2d(384, eps=0.001, momentum=0.01, affine=True, track_running_stats=True)
      )
    )
    (MBConv6_43): MBConv(
      (expansion_conv): Sequential(
        (0): Conv2d(384, 2304, kernel_size=(1, 1), stride=(1, 1), bias=False)
        (1): BatchNorm2d(2304, eps=0.001, momentum=0.01, affine=True, track_running_stats=True)
        (2): Swish()
      )
      (depthwise_conv): Sequential(
        (0): Conv2d(2304, 2304, kernel_size=(5, 5), stride=(1, 1), padding=(2, 2), groups=2304, bias=False)
        (1): BatchNorm2d(2304, eps=0.001, momentum=0.01, affine=True, track_running_stats=True)
        (2): Swish()
      )
      (squeeze_excitation): SqueezeExcitation(
        (reduce_expand): Sequential(
          (0): Conv2d(2304, 96, kernel_size=(1, 1), stride=(1, 1))
          (1): Swish()
          (2): Conv2d(96, 2304, kernel_size=(1, 1), stride=(1, 1))
          (3): Sigmoid()
        )
      )
      (project_conv): Sequential(
        (0): Conv2d(2304, 384, kernel_size=(1, 1), stride=(1, 1), bias=False)
        (1): BatchNorm2d(384, eps=0.001, momentum=0.01, affine=True, track_running_stats=True)
      )
    )
    (MBConv6_44): MBConv(
      (expansion_conv): Sequential(
        (0): Conv2d(384, 2304, kernel_size=(1, 1), stride=(1, 1), bias=False)
        (1): BatchNorm2d(2304, eps=0.001, momentum=0.01, affine=True, track_running_stats=True)
        (2): Swish()
      )
      (depthwise_conv): Sequential(
        (0): Conv2d(2304, 2304, kernel_size=(5, 5), stride=(1, 1), padding=(2, 2), groups=2304, bias=False)
        (1): BatchNorm2d(2304, eps=0.001, momentum=0.01, affine=True, track_running_stats=True)
        (2): Swish()
      )
      (squeeze_excitation): SqueezeExcitation(
        (reduce_expand): Sequential(
          (0): Conv2d(2304, 96, kernel_size=(1, 1), stride=(1, 1))
          (1): Swish()
          (2): Conv2d(96, 2304, kernel_size=(1, 1), stride=(1, 1))
          (3): Sigmoid()
        )
      )
      (project_conv): Sequential(
        (0): Conv2d(2304, 384, kernel_size=(1, 1), stride=(1, 1), bias=False)
        (1): BatchNorm2d(384, eps=0.001, momentum=0.01, affine=True, track_running_stats=True)
      )
    )
    (MBConv6_45): MBConv(
      (expansion_conv): Sequential(
        (0): Conv2d(384, 2304, kernel_size=(1, 1), stride=(1, 1), bias=False)
        (1): BatchNorm2d(2304, eps=0.001, momentum=0.01, affine=True, track_running_stats=True)
        (2): Swish()
      )
      (depthwise_conv): Sequential(
        (0): Conv2d(2304, 2304, kernel_size=(5, 5), stride=(1, 1), padding=(2, 2), groups=2304, bias=False)
        (1): BatchNorm2d(2304, eps=0.001, momentum=0.01, affine=True, track_running_stats=True)
        (2): Swish()
      )
      (squeeze_excitation): SqueezeExcitation(
        (reduce_expand): Sequential(
          (0): Conv2d(2304, 96, kernel_size=(1, 1), stride=(1, 1))
          (1): Swish()
          (2): Conv2d(96, 2304, kernel_size=(1, 1), stride=(1, 1))
          (3): Sigmoid()
        )
      )
      (project_conv): Sequential(
        (0): Conv2d(2304, 384, kernel_size=(1, 1), stride=(1, 1), bias=False)
        (1): BatchNorm2d(384, eps=0.001, momentum=0.01, affine=True, track_running_stats=True)
      )
    )
    (MBConv6_46): MBConv(
      (expansion_conv): Sequential(
        (0): Conv2d(384, 2304, kernel_size=(1, 1), stride=(1, 1), bias=False)
        (1): BatchNorm2d(2304, eps=0.001, momentum=0.01, affine=True, track_running_stats=True)
        (2): Swish()
      )
      (depthwise_conv): Sequential(
        (0): Conv2d(2304, 2304, kernel_size=(5, 5), stride=(1, 1), padding=(2, 2), groups=2304, bias=False)
        (1): BatchNorm2d(2304, eps=0.001, momentum=0.01, affine=True, track_running_stats=True)
        (2): Swish()
      )
      (squeeze_excitation): SqueezeExcitation(
        (reduce_expand): Sequential(
          (0): Conv2d(2304, 96, kernel_size=(1, 1), stride=(1, 1))
          (1): Swish()
          (2): Conv2d(96, 2304, kernel_size=(1, 1), stride=(1, 1))
          (3): Sigmoid()
        )
      )
      (project_conv): Sequential(
        (0): Conv2d(2304, 384, kernel_size=(1, 1), stride=(1, 1), bias=False)
        (1): BatchNorm2d(384, eps=0.001, momentum=0.01, affine=True, track_running_stats=True)
      )
    )
    (MBConv6_47): MBConv(
      (expansion_conv): Sequential(
        (0): Conv2d(384, 2304, kernel_size=(1, 1), stride=(1, 1), bias=False)
        (1): BatchNorm2d(2304, eps=0.001, momentum=0.01, affine=True, track_running_stats=True)
        (2): Swish()
      )
      (depthwise_conv): Sequential(
        (0): Conv2d(2304, 2304, kernel_size=(5, 5), stride=(1, 1), padding=(2, 2), groups=2304, bias=False)
        (1): BatchNorm2d(2304, eps=0.001, momentum=0.01, affine=True, track_running_stats=True)
        (2): Swish()
      )
      (squeeze_excitation): SqueezeExcitation(
        (reduce_expand): Sequential(
          (0): Conv2d(2304, 96, kernel_size=(1, 1), stride=(1, 1))
          (1): Swish()
          (2): Conv2d(96, 2304, kernel_size=(1, 1), stride=(1, 1))
          (3): Sigmoid()
        )
      )
      (project_conv): Sequential(
        (0): Conv2d(2304, 384, kernel_size=(1, 1), stride=(1, 1), bias=False)
        (1): BatchNorm2d(384, eps=0.001, momentum=0.01, affine=True, track_running_stats=True)
      )
    )
    (MBConv6_48): MBConv(
      (expansion_conv): Sequential(
        (0): Conv2d(384, 2304, kernel_size=(1, 1), stride=(1, 1), bias=False)
        (1): BatchNorm2d(2304, eps=0.001, momentum=0.01, affine=True, track_running_stats=True)
        (2): Swish()
      )
      (depthwise_conv): Sequential(
        (0): Conv2d(2304, 2304, kernel_size=(5, 5), stride=(1, 1), padding=(2, 2), groups=2304, bias=False)
        (1): BatchNorm2d(2304, eps=0.001, momentum=0.01, affine=True, track_running_stats=True)
        (2): Swish()
      )
      (squeeze_excitation): SqueezeExcitation(
        (reduce_expand): Sequential(
          (0): Conv2d(2304, 96, kernel_size=(1, 1), stride=(1, 1))
          (1): Swish()
          (2): Conv2d(96, 2304, kernel_size=(1, 1), stride=(1, 1))
          (3): Sigmoid()
        )
      )
      (project_conv): Sequential(
        (0): Conv2d(2304, 384, kernel_size=(1, 1), stride=(1, 1), bias=False)
        (1): BatchNorm2d(384, eps=0.001, momentum=0.01, affine=True, track_running_stats=True)
      )
    )
    (MBConv6_49): MBConv(
      (expansion_conv): Sequential(
        (0): Conv2d(384, 2304, kernel_size=(1, 1), stride=(1, 1), bias=False)
        (1): BatchNorm2d(2304, eps=0.001, momentum=0.01, affine=True, track_running_stats=True)
        (2): Swish()
      )
      (depthwise_conv): Sequential(
        (0): Conv2d(2304, 2304, kernel_size=(5, 5), stride=(1, 1), padding=(2, 2), groups=2304, bias=False)
        (1): BatchNorm2d(2304, eps=0.001, momentum=0.01, affine=True, track_running_stats=True)
        (2): Swish()
      )
      (squeeze_excitation): SqueezeExcitation(
        (reduce_expand): Sequential(
          (0): Conv2d(2304, 96, kernel_size=(1, 1), stride=(1, 1))
          (1): Swish()
          (2): Conv2d(96, 2304, kernel_size=(1, 1), stride=(1, 1))
          (3): Sigmoid()
        )
      )
      (project_conv): Sequential(
        (0): Conv2d(2304, 384, kernel_size=(1, 1), stride=(1, 1), bias=False)
        (1): BatchNorm2d(384, eps=0.001, momentum=0.01, affine=True, track_running_stats=True)
      )
    )
    (MBConv6_50): MBConv(
      (expansion_conv): Sequential(
        (0): Conv2d(384, 2304, kernel_size=(1, 1), stride=(1, 1), bias=False)
        (1): BatchNorm2d(2304, eps=0.001, momentum=0.01, affine=True, track_running_stats=True)
        (2): Swish()
      )
      (depthwise_conv): Sequential(
        (0): Conv2d(2304, 2304, kernel_size=(5, 5), stride=(1, 1), padding=(2, 2), groups=2304, bias=False)
        (1): BatchNorm2d(2304, eps=0.001, momentum=0.01, affine=True, track_running_stats=True)
        (2): Swish()
      )
      (squeeze_excitation): SqueezeExcitation(
        (reduce_expand): Sequential(
          (0): Conv2d(2304, 96, kernel_size=(1, 1), stride=(1, 1))
          (1): Swish()
          (2): Conv2d(96, 2304, kernel_size=(1, 1), stride=(1, 1))
          (3): Sigmoid()
        )
      )
      (project_conv): Sequential(
        (0): Conv2d(2304, 384, kernel_size=(1, 1), stride=(1, 1), bias=False)
        (1): BatchNorm2d(384, eps=0.001, momentum=0.01, affine=True, track_running_stats=True)
      )
    )
    (MBConv6_51): MBConv(
      (expansion_conv): Sequential(
        (0): Conv2d(384, 2304, kernel_size=(1, 1), stride=(1, 1), bias=False)
        (1): BatchNorm2d(2304, eps=0.001, momentum=0.01, affine=True, track_running_stats=True)
        (2): Swish()
      )
      (depthwise_conv): Sequential(
        (0): Conv2d(2304, 2304, kernel_size=(3, 3), stride=(1, 1), padding=(1, 1), groups=2304, bias=False)
        (1): BatchNorm2d(2304, eps=0.001, momentum=0.01, affine=True, track_running_stats=True)
        (2): Swish()
      )
      (squeeze_excitation): SqueezeExcitation(
        (reduce_expand): Sequential(
          (0): Conv2d(2304, 96, kernel_size=(1, 1), stride=(1, 1))
          (1): Swish()
          (2): Conv2d(96, 2304, kernel_size=(1, 1), stride=(1, 1))
          (3): Sigmoid()
        )
      )
      (project_conv): Sequential(
        (0): Conv2d(2304, 640, kernel_size=(1, 1), stride=(1, 1), bias=False)
        (1): BatchNorm2d(640, eps=0.001, momentum=0.01, affine=True, track_running_stats=True)
      )
    )
    (MBConv6_52): MBConv(
      (expansion_conv): Sequential(
        (0): Conv2d(640, 3840, kernel_size=(1, 1), stride=(1, 1), bias=False)
        (1): BatchNorm2d(3840, eps=0.001, momentum=0.01, affine=True, track_running_stats=True)
        (2): Swish()
      )
      (depthwise_conv): Sequential(
        (0): Conv2d(3840, 3840, kernel_size=(3, 3), stride=(1, 1), padding=(1, 1), groups=3840, bias=False)
        (1): BatchNorm2d(3840, eps=0.001, momentum=0.01, affine=True, track_running_stats=True)
        (2): Swish()
      )
      (squeeze_excitation): SqueezeExcitation(
        (reduce_expand): Sequential(
          (0): Conv2d(3840, 160, kernel_size=(1, 1), stride=(1, 1))
          (1): Swish()
          (2): Conv2d(160, 3840, kernel_size=(1, 1), stride=(1, 1))
          (3): Sigmoid()
        )
      )
      (project_conv): Sequential(
        (0): Conv2d(3840, 640, kernel_size=(1, 1), stride=(1, 1), bias=False)
        (1): BatchNorm2d(640, eps=0.001, momentum=0.01, affine=True, track_running_stats=True)
      )
    )
    (MBConv6_53): MBConv(
      (expansion_conv): Sequential(
        (0): Conv2d(640, 3840, kernel_size=(1, 1), stride=(1, 1), bias=False)
        (1): BatchNorm2d(3840, eps=0.001, momentum=0.01, affine=True, track_running_stats=True)
        (2): Swish()
      )
      (depthwise_conv): Sequential(
        (0): Conv2d(3840, 3840, kernel_size=(3, 3), stride=(1, 1), padding=(1, 1), groups=3840, bias=False)
        (1): BatchNorm2d(3840, eps=0.001, momentum=0.01, affine=True, track_running_stats=True)
        (2): Swish()
      )
      (squeeze_excitation): SqueezeExcitation(
        (reduce_expand): Sequential(
          (0): Conv2d(3840, 160, kernel_size=(1, 1), stride=(1, 1))
          (1): Swish()
          (2): Conv2d(160, 3840, kernel_size=(1, 1), stride=(1, 1))
          (3): Sigmoid()
        )
      )
      (project_conv): Sequential(
        (0): Conv2d(3840, 640, kernel_size=(1, 1), stride=(1, 1), bias=False)
        (1): BatchNorm2d(640, eps=0.001, momentum=0.01, affine=True, track_running_stats=True)
      )
    )
    (MBConv6_54): MBConv(
      (expansion_conv): Sequential(
        (0): Conv2d(640, 3840, kernel_size=(1, 1), stride=(1, 1), bias=False)
        (1): BatchNorm2d(3840, eps=0.001, momentum=0.01, affine=True, track_running_stats=True)
        (2): Swish()
      )
      (depthwise_conv): Sequential(
        (0): Conv2d(3840, 3840, kernel_size=(3, 3), stride=(1, 1), padding=(1, 1), groups=3840, bias=False)
        (1): BatchNorm2d(3840, eps=0.001, momentum=0.01, affine=True, track_running_stats=True)
        (2): Swish()
      )
      (squeeze_excitation): SqueezeExcitation(
        (reduce_expand): Sequential(
          (0): Conv2d(3840, 160, kernel_size=(1, 1), stride=(1, 1))
          (1): Swish()
          (2): Conv2d(160, 3840, kernel_size=(1, 1), stride=(1, 1))
          (3): Sigmoid()
        )
      )
      (project_conv): Sequential(
        (0): Conv2d(3840, 640, kernel_size=(1, 1), stride=(1, 1), bias=False)
        (1): BatchNorm2d(640, eps=0.001, momentum=0.01, affine=True, track_running_stats=True)
      )
    )
  )
  (head): Sequential(
    (0): Conv2d(640, 2560, kernel_size=(1, 1), stride=(1, 1), bias=False)
    (1): BatchNorm2d(2560, eps=0.001, momentum=0.01, affine=True, track_running_stats=True)
    (2): Swish()
    (3): AdaptiveAvgPool2d(output_size=1)
    (4): Flatten()
    (5): Dropout(p=0.5, inplace=False)
    (6): Linear(in_features=2560, out_features=8, bias=True)
  )
)


2022-01-17 14:38:03.786532

EfficientNet-B7 {'num_labels': 8, 'width_coefficient': 2.0, 'depth_coefficient': 3.1, 'dropout_rate': 0.5} resolution:600

EfficientNet(
  (stem): Sequential(
    (0): Conv2d(1, 64, kernel_size=(3, 3), stride=(2, 2), padding=(1, 1), bias=False)
    (1): BatchNorm2d(64, eps=0.001, momentum=0.01, affine=True, track_running_stats=True)
    (2): Swish()
  )
  (blocks): Sequential(
    (MBConv1_0): MBConv(
      (depthwise_conv): Sequential(
        (0): Conv2d(64, 64, kernel_size=(3, 3), stride=(1, 1), padding=(1, 1), groups=64, bias=False)
        (1): BatchNorm2d(64, eps=0.001, momentum=0.01, affine=True, track_running_stats=True)
        (2): Swish()
      )
      (squeeze_excitation): SqueezeExcitation(
        (reduce_expand): Sequential(
          (0): Conv2d(64, 16, kernel_size=(1, 1), stride=(1, 1))
          (1): Swish()
          (2): Conv2d(16, 64, kernel_size=(1, 1), stride=(1, 1))
          (3): Sigmoid()
        )
      )
      (project_conv): Sequential(
        (0): Conv2d(64, 32, kernel_size=(1, 1), stride=(1, 1), bias=False)
        (1): BatchNorm2d(32, eps=0.001, momentum=0.01, affine=True, track_running_stats=True)
      )
    )
    (MBConv1_1): MBConv(
      (depthwise_conv): Sequential(
        (0): Conv2d(32, 32, kernel_size=(3, 3), stride=(1, 1), padding=(1, 1), groups=32, bias=False)
        (1): BatchNorm2d(32, eps=0.001, momentum=0.01, affine=True, track_running_stats=True)
        (2): Swish()
      )
      (squeeze_excitation): SqueezeExcitation(
        (reduce_expand): Sequential(
          (0): Conv2d(32, 8, kernel_size=(1, 1), stride=(1, 1))
          (1): Swish()
          (2): Conv2d(8, 32, kernel_size=(1, 1), stride=(1, 1))
          (3): Sigmoid()
        )
      )
      (project_conv): Sequential(
        (0): Conv2d(32, 32, kernel_size=(1, 1), stride=(1, 1), bias=False)
        (1): BatchNorm2d(32, eps=0.001, momentum=0.01, affine=True, track_running_stats=True)
      )
    )
    (MBConv1_2): MBConv(
      (depthwise_conv): Sequential(
        (0): Conv2d(32, 32, kernel_size=(3, 3), stride=(1, 1), padding=(1, 1), groups=32, bias=False)
        (1): BatchNorm2d(32, eps=0.001, momentum=0.01, affine=True, track_running_stats=True)
        (2): Swish()
      )
      (squeeze_excitation): SqueezeExcitation(
        (reduce_expand): Sequential(
          (0): Conv2d(32, 8, kernel_size=(1, 1), stride=(1, 1))
          (1): Swish()
          (2): Conv2d(8, 32, kernel_size=(1, 1), stride=(1, 1))
          (3): Sigmoid()
        )
      )
      (project_conv): Sequential(
        (0): Conv2d(32, 32, kernel_size=(1, 1), stride=(1, 1), bias=False)
        (1): BatchNorm2d(32, eps=0.001, momentum=0.01, affine=True, track_running_stats=True)
      )
    )
    (MBConv1_3): MBConv(
      (depthwise_conv): Sequential(
        (0): Conv2d(32, 32, kernel_size=(3, 3), stride=(1, 1), padding=(1, 1), groups=32, bias=False)
        (1): BatchNorm2d(32, eps=0.001, momentum=0.01, affine=True, track_running_stats=True)
        (2): Swish()
      )
      (squeeze_excitation): SqueezeExcitation(
        (reduce_expand): Sequential(
          (0): Conv2d(32, 8, kernel_size=(1, 1), stride=(1, 1))
          (1): Swish()
          (2): Conv2d(8, 32, kernel_size=(1, 1), stride=(1, 1))
          (3): Sigmoid()
        )
      )
      (project_conv): Sequential(
        (0): Conv2d(32, 32, kernel_size=(1, 1), stride=(1, 1), bias=False)
        (1): BatchNorm2d(32, eps=0.001, momentum=0.01, affine=True, track_running_stats=True)
      )
    )
    (MBConv6_4): MBConv(
      (expansion_conv): Sequential(
        (0): Conv2d(32, 192, kernel_size=(1, 1), stride=(1, 1), bias=False)
        (1): BatchNorm2d(192, eps=0.001, momentum=0.01, affine=True, track_running_stats=True)
        (2): Swish()
      )
      (depthwise_conv): Sequential(
        (0): Conv2d(192, 192, kernel_size=(3, 3), stride=(2, 2), padding=(1, 1), groups=192, bias=False)
        (1): BatchNorm2d(192, eps=0.001, momentum=0.01, affine=True, track_running_stats=True)
        (2): Swish()
      )
      (squeeze_excitation): SqueezeExcitation(
        (reduce_expand): Sequential(
          (0): Conv2d(192, 8, kernel_size=(1, 1), stride=(1, 1))
          (1): Swish()
          (2): Conv2d(8, 192, kernel_size=(1, 1), stride=(1, 1))
          (3): Sigmoid()
        )
      )
      (project_conv): Sequential(
        (0): Conv2d(192, 48, kernel_size=(1, 1), stride=(1, 1), bias=False)
        (1): BatchNorm2d(48, eps=0.001, momentum=0.01, affine=True, track_running_stats=True)
      )
    )
    (MBConv6_5): MBConv(
      (expansion_conv): Sequential(
        (0): Conv2d(48, 288, kernel_size=(1, 1), stride=(1, 1), bias=False)
        (1): BatchNorm2d(288, eps=0.001, momentum=0.01, affine=True, track_running_stats=True)
…
        (1): BatchNorm2d(192, eps=0.001, momentum=0.01, affine=True, track_running_stats=True)
        (2): Swish()
      )
      (depthwise_conv): Sequential(
        (0): Conv2d(192, 192, kernel_size=(3, 3), stride=(1, 1), padding=(1, 1), groups=192, bias=False)
        (1): BatchNorm2d(192, eps=0.001, momentum=0.01, affine=True, track_running_stats=True)
        (2): Swish()
      )
      (squeeze_excitation): SqueezeExcitation(
        (reduce_expand): Sequential(
          (0): Conv2d(192, 8, kernel_size=(1, 1), stride=(1, 1))
          (1): Swish()
          (2): Conv2d(8, 192, kernel_size=(1, 1), stride=(1, 1))
          (3): Sigmoid()
        )
      )
      (project_conv): Sequential(
        (0): Conv2d(192, 32, kernel_size=(1, 1), stride=(1, 1), bias=False)
        (1): BatchNorm2d(32, eps=0.001, momentum=0.01, affine=True, track_running_stats=True)
      )
    )
    (MBConv6_5): MBConv(
      (expansion_conv): Sequential(
        (0): Conv2d(32, 192, kernel_size=(1, 1), stride=(1, 1), bias=False)
        (1): BatchNorm2d(192, eps=0.001, momentum=0.01, affine=True, track_running_stats=True)
        (2): Swish()
      )
      (depthwise_conv): Sequential(
        (0): Conv2d(192, 192, kernel_size=(5, 5), stride=(2, 2), padding=(2, 2), groups=192, bias=False)
        (1): BatchNorm2d(192, eps=0.001, momentum=0.01, affine=True, track_running_stats=True)
        (2): Swish()
      )
      (squeeze_excitation): SqueezeExcitation(
        (reduce_expand): Sequential(
          (0): Conv2d(192, 8, kernel_size=(1, 1), stride=(1, 1))
          (1): Swish()
          (2): Conv2d(8, 192, kernel_size=(1, 1), stride=(1, 1))
          (3): Sigmoid()
        )
      )
      (project_conv): Sequential(
        (0): Conv2d(192, 48, kernel_size=(1, 1), stride=(1, 1), bias=False)
        (1): BatchNorm2d(48, eps=0.001, momentum=0.01, affine=True, track_running_stats=True)
      )
    )
    (MBConv6_6): MBConv(
      (expansion_conv): Sequential(
        (0): Conv2d(48, 288, kernel_size=(1, 1), stride=(1, 1), bias=False)
        (1): BatchNorm2d(288, eps=0.001, momentum=0.01, affine=True, track_running_stats=True)
        (2): Swish()
      )
      (depthwise_conv): Sequential(
        (0): Conv2d(288, 288, kernel_size=(5, 5), stride=(1, 1), padding=(2, 2), groups=288, bias=False)
        (1): BatchNorm2d(288, eps=0.001, momentum=0.01, affine=True, track_running_stats=True)
        (2): Swish()
      )
      (squeeze_excitation): SqueezeExcitation(
        (reduce_expand): Sequential(
          (0): Conv2d(288, 12, kernel_size=(1, 1), stride=(1, 1))
          (1): Swish()
          (2): Conv2d(12, 288, kernel_size=(1, 1), stride=(1, 1))
          (3): Sigmoid()
        )
      )
      (project_conv): Sequential(
        (0): Conv2d(288, 48, kernel_size=(1, 1), stride=(1, 1), bias=False)
        (1): BatchNorm2d(48, eps=0.001, momentum=0.01, affine=True, track_running_stats=True)
      )
    )
    (MBConv6_7): MBConv(
      (expansion_conv): Sequential(
        (0): Conv2d(48, 288, kernel_size=(1, 1), stride=(1, 1), bias=False)
        (1): BatchNorm2d(288, eps=0.001, momentum=0.01, affine=True, track_running_stats=True)
        (2): Swish()
      )
      (depthwise_conv): Sequential(
        (0): Conv2d(288, 288, kernel_size=(5, 5), stride=(1, 1), padding=(2, 2), groups=288, bias=False)
        (1): BatchNorm2d(288, eps=0.001, momentum=0.01, affine=True, track_running_stats=True)
        (2): Swish()
      )
      (squeeze_excitation): SqueezeExcitation(
        (reduce_expand): Sequential(
          (0): Conv2d(288, 12, kernel_size=(1, 1), stride=(1, 1))
          (1): Swish()
          (2): Conv2d(12, 288, kernel_size=(1, 1), stride=(1, 1))
          (3): Sigmoid()
        )
      )
      (project_conv): Sequential(
        (0): Conv2d(288, 48, kernel_size=(1, 1), stride=(1, 1), bias=False)
        (1): BatchNorm2d(48, eps=0.001, momentum=0.01, affine=True, track_running_stats=True)
      )
    )
    (MBConv6_8): MBConv(
      (expansion_conv): Sequential(
        (0): Conv2d(48, 288, kernel_size=(1, 1), stride=(1, 1), bias=False)
        (1): BatchNorm2d(288, eps=0.001, momentum=0.01, affine=True, track_running_stats=True)
        (2): Swish()
      )
      (depthwise_conv): Sequential(
        (0): Conv2d(288, 288, kernel_size=(3, 3), stride=(2, 2), padding=(1, 1), groups=288, bias=False)
        (1): BatchNorm2d(288, eps=0.001, momentum=0.01, affine=True, track_running_stats=True)
        (2): Swish()
      )
      (squeeze_excitation): SqueezeExcitation(
        (reduce_expand): Sequential(
          (0): Conv2d(288, 12, kernel_size=(1, 1), stride=(1, 1))
          (1): Swish()
          (2): Conv2d(12, 288, kernel_size=(1, 1), stride=(1, 1))
          (3): Sigmoid()
        )
      )
      (project_conv): Sequential(
        (0): Conv2d(288, 96, kernel_size=(1, 1), stride=(1, 1), bias=False)
        (1): BatchNorm2d(96, eps=0.001, momentum=0.01, affine=True, track_running_stats=True)
      )
    )
    (MBConv6_9): MBConv(
      (expansion_conv): Sequential(
        (0): Conv2d(96, 576, kernel_size=(1, 1), stride=(1, 1), bias=False)
        (1): BatchNorm2d(576, eps=0.001, momentum=0.01, affine=True, track_running_stats=True)
        (2): Swish()
      )
      (depthwise_conv): Sequential(
        (0): Conv2d(576, 576, kernel_size=(3, 3), stride=(1, 1), padding=(1, 1), groups=576, bias=False)
        (1): BatchNorm2d(576, eps=0.001, momentum=0.01, affine=True, track_running_stats=True)
        (2): Swish()
      )
      (squeeze_excitation): SqueezeExcitation(
        (reduce_expand): Sequential(
          (0): Conv2d(576, 24, kernel_size=(1, 1), stride=(1, 1))
          (1): Swish()
          (2): Conv2d(24, 576, kernel_size=(1, 1), stride=(1, 1))
          (3): Sigmoid()
        )
      )
      (project_conv): Sequential(
        (0): Conv2d(576, 96, kernel_size=(1, 1), stride=(1, 1), bias=False)
        (1): BatchNorm2d(96, eps=0.001, momentum=0.01, affine=True, track_running_stats=True)
      )
    )
    (MBConv6_10): MBConv(
      (expansion_conv): Sequential(
        (0): Conv2d(96, 576, kernel_size=(1, 1), stride=(1, 1), bias=False)
        (1): BatchNorm2d(576, eps=0.001, momentum=0.01, affine=True, track_running_stats=True)
        (2): Swish()
      )
      (depthwise_conv): Sequential(
        (0): Conv2d(576, 576, kernel_size=(3, 3), stride=(1, 1), padding=(1, 1), groups=576, bias=False)
        (1): BatchNorm2d(576, eps=0.001, momentum=0.01, affine=True, track_running_stats=True)
        (2): Swish()
      )
      (squeeze_excitation): SqueezeExcitation(
        (reduce_expand): Sequential(
          (0): Conv2d(576, 24, kernel_size=(1, 1), stride=(1, 1))
          (1): Swish()
          (2): Conv2d(24, 576, kernel_size=(1, 1), stride=(1, 1))
          (3): Sigmoid()
        )
      )
      (project_conv): Sequential(
        (0): Conv2d(576, 96, kernel_size=(1, 1), stride=(1, 1), bias=False)
        (1): BatchNorm2d(96, eps=0.001, momentum=0.01, affine=True, track_running_stats=True)
      )
    )
    (MBConv6_11): MBConv(
      (expansion_conv): Sequential(
        (0): Conv2d(96, 576, kernel_size=(1, 1), stride=(1, 1), bias=False)
        (1): BatchNorm2d(576, eps=0.001, momentum=0.01, affine=True, track_running_stats=True)
        (2): Swish()
      )
      (depthwise_conv): Sequential(
        (0): Conv2d(576, 576, kernel_size=(3, 3), stride=(1, 1), padding=(1, 1), groups=576, bias=False)
        (1): BatchNorm2d(576, eps=0.001, momentum=0.01, affine=True, track_running_stats=True)
        (2): Swish()
      )
      (squeeze_excitation): SqueezeExcitation(
        (reduce_expand): Sequential(
          (0): Conv2d(576, 24, kernel_size=(1, 1), stride=(1, 1))
          (1): Swish()
          (2): Conv2d(24, 576, kernel_size=(1, 1), stride=(1, 1))
          (3): Sigmoid()
        )
      )
      (project_conv): Sequential(
        (0): Conv2d(576, 96, kernel_size=(1, 1), stride=(1, 1), bias=False)
        (1): BatchNorm2d(96, eps=0.001, momentum=0.01, affine=True, track_running_stats=True)
      )
    )
    (MBConv6_12): MBConv(
      (expansion_conv): Sequential(
        (0): Conv2d(96, 576, kernel_size=(1, 1), stride=(1, 1), bias=False)
        (1): BatchNorm2d(576, eps=0.001, momentum=0.01, affine=True, track_running_stats=True)
        (2): Swish()
      )
      (depthwise_conv): Sequential(
        (0): Conv2d(576, 576, kernel_size=(3, 3), stride=(1, 1), padding=(1, 1), groups=576, bias=False)
        (1): BatchNorm2d(576, eps=0.001, momentum=0.01, affine=True, track_running_stats=True)
        (2): Swish()
      )
      (squeeze_excitation): SqueezeExcitation(
        (reduce_expand): Sequential(
          (0): Conv2d(576, 24, kernel_size=(1, 1), stride=(1, 1))
          (1): Swish()
          (2): Conv2d(24, 576, kernel_size=(1, 1), stride=(1, 1))
          (3): Sigmoid()
        )
      )
      (project_conv): Sequential(
        (0): Conv2d(576, 96, kernel_size=(1, 1), stride=(1, 1), bias=False)
        (1): BatchNorm2d(96, eps=0.001, momentum=0.01, affine=True, track_running_stats=True)
      )
    )
    (MBConv6_13): MBConv(
      (expansion_conv): Sequential(
        (0): Conv2d(96, 576, kernel_size=(1, 1), stride=(1, 1), bias=False)
        (1): BatchNorm2d(576, eps=0.001, momentum=0.01, affine=True, track_running_stats=True)
        (2): Swish()
      )
      (depthwise_conv): Sequential(
        (0): Conv2d(576, 576, kernel_size=(5, 5), stride=(1, 1), padding=(2, 2), groups=576, bias=False)
        (1): BatchNorm2d(576, eps=0.001, momentum=0.01, affine=True, track_running_stats=True)
        (2): Swish()
      )
      (squeeze_excitation): SqueezeExcitation(
        (reduce_expand): Sequential(
          (0): Conv2d(576, 24, kernel_size=(1, 1), stride=(1, 1))
          (1): Swish()
          (2): Conv2d(24, 576, kernel_size=(1, 1), stride=(1, 1))
          (3): Sigmoid()
        )
      )
      (project_conv): Sequential(
        (0): Conv2d(576, 136, kernel_size=(1, 1), stride=(1, 1), bias=False)
        (1): BatchNorm2d(136, eps=0.001, momentum=0.01, affine=True, track_running_stats=True)
      )
    )
    (MBConv6_14): MBConv(
      (expansion_conv): Sequential(
        (0): Conv2d(136, 816, kernel_size=(1, 1), stride=(1, 1), bias=False)
        (1): BatchNorm2d(816, eps=0.001, momentum=0.01, affine=True, track_running_stats=True)
        (2): Swish()
      )
      (depthwise_conv): Sequential(
        (0): Conv2d(816, 816, kernel_size=(5, 5), stride=(1, 1), padding=(2, 2), groups=816, bias=False)
        (1): BatchNorm2d(816, eps=0.001, momentum=0.01, affine=True, track_running_stats=True)
        (2): Swish()
      )
      (squeeze_excitation): SqueezeExcitation(
        (reduce_expand): Sequential(
          (0): Conv2d(816, 34, kernel_size=(1, 1), stride=(1, 1))
          (1): Swish()
          (2): Conv2d(34, 816, kernel_size=(1, 1), stride=(1, 1))
          (3): Sigmoid()
        )
      )
      (project_conv): Sequential(
        (0): Conv2d(816, 136, kernel_size=(1, 1), stride=(1, 1), bias=False)
        (1): BatchNorm2d(136, eps=0.001, momentum=0.01, affine=True, track_running_stats=True)
      )
    )
    (MBConv6_15): MBConv(
      (expansion_conv): Sequential(
        (0): Conv2d(136, 816, kernel_size=(1, 1), stride=(1, 1), bias=False)
        (1): BatchNorm2d(816, eps=0.001, momentum=0.01, affine=True, track_running_stats=True)
        (2): Swish()
      )
      (depthwise_conv): Sequential(
        (0): Conv2d(816, 816, kernel_size=(5, 5), stride=(1, 1), padding=(2, 2), groups=816, bias=False)
        (1): BatchNorm2d(816, eps=0.001, momentum=0.01, affine=True, track_running_stats=True)
        (2): Swish()
      )
      (squeeze_excitation): SqueezeExcitation(
        (reduce_expand): Sequential(
          (0): Conv2d(816, 34, kernel_size=(1, 1), stride=(1, 1))
          (1): Swish()
          (2): Conv2d(34, 816, kernel_size=(1, 1), stride=(1, 1))
          (3): Sigmoid()
        )
      )
      (project_conv): Sequential(
        (0): Conv2d(816, 136, kernel_size=(1, 1), stride=(1, 1), bias=False)
        (1): BatchNorm2d(136, eps=0.001, momentum=0.01, affine=True, track_running_stats=True)
      )
    )
    (MBConv6_16): MBConv(
      (expansion_conv): Sequential(
        (0): Conv2d(136, 816, kernel_size=(1, 1), stride=(1, 1), bias=False)
        (1): BatchNorm2d(816, eps=0.001, momentum=0.01, affine=True, track_running_stats=True)
        (2): Swish()
      )
      (depthwise_conv): Sequential(
        (0): Conv2d(816, 816, kernel_size=(5, 5), stride=(1, 1), padding=(2, 2), groups=816, bias=False)
        (1): BatchNorm2d(816, eps=0.001, momentum=0.01, affine=True, track_running_stats=True)
        (2): Swish()
      )
      (squeeze_excitation): SqueezeExcitation(
        (reduce_expand): Sequential(
          (0): Conv2d(816, 34, kernel_size=(1, 1), stride=(1, 1))
          (1): Swish()
          (2): Conv2d(34, 816, kernel_size=(1, 1), stride=(1, 1))
          (3): Sigmoid()
        )
      )
      (project_conv): Sequential(
        (0): Conv2d(816, 136, kernel_size=(1, 1), stride=(1, 1), bias=False)
        (1): BatchNorm2d(136, eps=0.001, momentum=0.01, affine=True, track_running_stats=True)
      )
    )
    (MBConv6_17): MBConv(
      (expansion_conv): Sequential(
        (0): Conv2d(136, 816, kernel_size=(1, 1), stride=(1, 1), bias=False)
        (1): BatchNorm2d(816, eps=0.001, momentum=0.01, affine=True, track_running_stats=True)
        (2): Swish()
      )
      (depthwise_conv): Sequential(
        (0): Conv2d(816, 816, kernel_size=(5, 5), stride=(1, 1), padding=(2, 2), groups=816, bias=False)
        (1): BatchNorm2d(816, eps=0.001, momentum=0.01, affine=True, track_running_stats=True)
        (2): Swish()
      )
      (squeeze_excitation): SqueezeExcitation(
        (reduce_expand): Sequential(
          (0): Conv2d(816, 34, kernel_size=(1, 1), stride=(1, 1))
          (1): Swish()
          (2): Conv2d(34, 816, kernel_size=(1, 1), stride=(1, 1))
          (3): Sigmoid()
        )
      )
      (project_conv): Sequential(
        (0): Conv2d(816, 136, kernel_size=(1, 1), stride=(1, 1), bias=False)
        (1): BatchNorm2d(136, eps=0.001, momentum=0.01, affine=True, track_running_stats=True)
      )
    )
    (MBConv6_18): MBConv(
      (expansion_conv): Sequential(
        (0): Conv2d(136, 816, kernel_size=(1, 1), stride=(1, 1), bias=False)
        (1): BatchNorm2d(816, eps=0.001, momentum=0.01, affine=True, track_running_stats=True)
        (2): Swish()
      )
      (depthwise_conv): Sequential(
        (0): Conv2d(816, 816, kernel_size=(5, 5), stride=(2, 2), padding=(2, 2), groups=816, bias=False)
        (1): BatchNorm2d(816, eps=0.001, momentum=0.01, affine=True, track_running_stats=True)
        (2): Swish()
      )
      (squeeze_excitation): SqueezeExcitation(
        (reduce_expand): Sequential(
          (0): Conv2d(816, 34, kernel_size=(1, 1), stride=(1, 1))
          (1): Swish()
          (2): Conv2d(34, 816, kernel_size=(1, 1), stride=(1, 1))
          (3): Sigmoid()
        )
      )
      (project_conv): Sequential(
        (0): Conv2d(816, 232, kernel_size=(1, 1), stride=(1, 1), bias=False)
        (1): BatchNorm2d(232, eps=0.001, momentum=0.01, affine=True, track_running_stats=True)
      )
    )
    (MBConv6_19): MBConv(
      (expansion_conv): Sequential(
        (0): Conv2d(232, 1392, kernel_size=(1, 1), stride=(1, 1), bias=False)
        (1): BatchNorm2d(1392, eps=0.001, momentum=0.01, affine=True, track_running_stats=True)
        (2): Swish()
      )
      (depthwise_conv): Sequential(
        (0): Conv2d(1392, 1392, kernel_size=(5, 5), stride=(1, 1), padding=(2, 2), groups=1392, bias=False)
        (1): BatchNorm2d(1392, eps=0.001, momentum=0.01, affine=True, track_running_stats=True)
        (2): Swish()
      )
      (squeeze_excitation): SqueezeExcitation(
        (reduce_expand): Sequential(
          (0): Conv2d(1392, 58, kernel_size=(1, 1), stride=(1, 1))
          (1): Swish()
          (2): Conv2d(58, 1392, kernel_size=(1, 1), stride=(1, 1))
          (3): Sigmoid()
        )
      )
      (project_conv): Sequential(
        (0): Conv2d(1392, 232, kernel_size=(1, 1), stride=(1, 1), bias=False)
        (1): BatchNorm2d(232, eps=0.001, momentum=0.01, affine=True, track_running_stats=True)
      )
    )
    (MBConv6_20): MBConv(
      (expansion_conv): Sequential(
        (0): Conv2d(232, 1392, kernel_size=(1, 1), stride=(1, 1), bias=False)
        (1): BatchNorm2d(1392, eps=0.001, momentum=0.01, affine=True, track_running_stats=True)
        (2): Swish()
      )
      (depthwise_conv): Sequential(
        (0): Conv2d(1392, 1392, kernel_size=(5, 5), stride=(1, 1), padding=(2, 2), groups=1392, bias=False)
        (1): BatchNorm2d(1392, eps=0.001, momentum=0.01, affine=True, track_running_stats=True)
        (2): Swish()
      )
      (squeeze_excitation): SqueezeExcitation(
        (reduce_expand): Sequential(
          (0): Conv2d(1392, 58, kernel_size=(1, 1), stride=(1, 1))
          (1): Swish()
          (2): Conv2d(58, 1392, kernel_size=(1, 1), stride=(1, 1))
          (3): Sigmoid()
        )
      )
      (project_conv): Sequential(
        (0): Conv2d(1392, 232, kernel_size=(1, 1), stride=(1, 1), bias=False)
        (1): BatchNorm2d(232, eps=0.001, momentum=0.01, affine=True, track_running_stats=True)
      )
    )
    (MBConv6_21): MBConv(
      (expansion_conv): Sequential(
        (0): Conv2d(232, 1392, kernel_size=(1, 1), stride=(1, 1), bias=False)
        (1): BatchNorm2d(1392, eps=0.001, momentum=0.01, affine=True, track_running_stats=True)
        (2): Swish()
      )
      (depthwise_conv): Sequential(
        (0): Conv2d(1392, 1392, kernel_size=(5, 5), stride=(1, 1), padding=(2, 2), groups=1392, bias=False)
        (1): BatchNorm2d(1392, eps=0.001, momentum=0.01, affine=True, track_running_stats=True)
        (2): Swish()
      )
      (squeeze_excitation): SqueezeExcitation(
        (reduce_expand): Sequential(
          (0): Conv2d(1392, 58, kernel_size=(1, 1), stride=(1, 1))
          (1): Swish()
          (2): Conv2d(58, 1392, kernel_size=(1, 1), stride=(1, 1))
          (3): Sigmoid()
        )
      )
      (project_conv): Sequential(
        (0): Conv2d(1392, 232, kernel_size=(1, 1), stride=(1, 1), bias=False)
        (1): BatchNorm2d(232, eps=0.001, momentum=0.01, affine=True, track_running_stats=True)
      )
    )
    (MBConv6_22): MBConv(
      (expansion_conv): Sequential(
        (0): Conv2d(232, 1392, kernel_size=(1, 1), stride=(1, 1), bias=False)
        (1): BatchNorm2d(1392, eps=0.001, momentum=0.01, affine=True, track_running_stats=True)
        (2): Swish()
      )
      (depthwise_conv): Sequential(
        (0): Conv2d(1392, 1392, kernel_size=(5, 5), stride=(1, 1), padding=(2, 2), groups=1392, bias=False)
        (1): BatchNorm2d(1392, eps=0.001, momentum=0.01, affine=True, track_running_stats=True)
        (2): Swish()
      )
      (squeeze_excitation): SqueezeExcitation(
        (reduce_expand): Sequential(
          (0): Conv2d(1392, 58, kernel_size=(1, 1), stride=(1, 1))
          (1): Swish()
          (2): Conv2d(58, 1392, kernel_size=(1, 1), stride=(1, 1))
          (3): Sigmoid()
        )
      )
      (project_conv): Sequential(
        (0): Conv2d(1392, 232, kernel_size=(1, 1), stride=(1, 1), bias=False)
        (1): BatchNorm2d(232, eps=0.001, momentum=0.01, affine=True, track_running_stats=True)
      )
    )
    (MBConv6_23): MBConv(
      (expansion_conv): Sequential(
        (0): Conv2d(232, 1392, kernel_size=(1, 1), stride=(1, 1), bias=False)
        (1): BatchNorm2d(1392, eps=0.001, momentum=0.01, affine=True, track_running_stats=True)
        (2): Swish()
      )
      (depthwise_conv): Sequential(
        (0): Conv2d(1392, 1392, kernel_size=(5, 5), stride=(1, 1), padding=(2, 2), groups=1392, bias=False)
        (1): BatchNorm2d(1392, eps=0.001, momentum=0.01, affine=True, track_running_stats=True)
        (2): Swish()
      )
      (squeeze_excitation): SqueezeExcitation(
        (reduce_expand): Sequential(
          (0): Conv2d(1392, 58, kernel_size=(1, 1), stride=(1, 1))
          (1): Swish()
          (2): Conv2d(58, 1392, kernel_size=(1, 1), stride=(1, 1))
          (3): Sigmoid()
        )
      )
      (project_conv): Sequential(
        (0): Conv2d(1392, 232, kernel_size=(1, 1), stride=(1, 1), bias=False)
        (1): BatchNorm2d(232, eps=0.001, momentum=0.01, affine=True, track_running_stats=True)
      )
    )
    (MBConv6_24): MBConv(
      (expansion_conv): Sequential(
        (0): Conv2d(232, 1392, kernel_size=(1, 1), stride=(1, 1), bias=False)
        (1): BatchNorm2d(1392, eps=0.001, momentum=0.01, affine=True, track_running_stats=True)
        (2): Swish()
      )
      (depthwise_conv): Sequential(
        (0): Conv2d(1392, 1392, kernel_size=(3, 3), stride=(1, 1), padding=(1, 1), groups=1392, bias=False)
        (1): BatchNorm2d(1392, eps=0.001, momentum=0.01, affine=True, track_running_stats=True)
        (2): Swish()
      )
      (squeeze_excitation): SqueezeExcitation(
        (reduce_expand): Sequential(
          (0): Conv2d(1392, 58, kernel_size=(1, 1), stride=(1, 1))
          (1): Swish()
          (2): Conv2d(58, 1392, kernel_size=(1, 1), stride=(1, 1))
          (3): Sigmoid()
        )
      )
      (project_conv): Sequential(
        (0): Conv2d(1392, 384, kernel_size=(1, 1), stride=(1, 1), bias=False)
        (1): BatchNorm2d(384, eps=0.001, momentum=0.01, affine=True, track_running_stats=True)
      )
    )
    (MBConv6_25): MBConv(
      (expansion_conv): Sequential(
        (0): Conv2d(384, 2304, kernel_size=(1, 1), stride=(1, 1), bias=False)
        (1): BatchNorm2d(2304, eps=0.001, momentum=0.01, affine=True, track_running_stats=True)
        (2): Swish()
      )
      (depthwise_conv): Sequential(
        (0): Conv2d(2304, 2304, kernel_size=(3, 3), stride=(1, 1), padding=(1, 1), groups=2304, bias=False)
        (1): BatchNorm2d(2304, eps=0.001, momentum=0.01, affine=True, track_running_stats=True)
        (2): Swish()
      )
      (squeeze_excitation): SqueezeExcitation(
        (reduce_expand): Sequential(
          (0): Conv2d(2304, 96, kernel_size=(1, 1), stride=(1, 1))
          (1): Swish()
          (2): Conv2d(96, 2304, kernel_size=(1, 1), stride=(1, 1))
          (3): Sigmoid()
        )
      )
      (project_conv): Sequential(
        (0): Conv2d(2304, 384, kernel_size=(1, 1), stride=(1, 1), bias=False)
        (1): BatchNorm2d(384, eps=0.001, momentum=0.01, affine=True, track_running_stats=True)
      )
    )
  )
  (head): Sequential(
    (0): Conv2d(384, 1536, kernel_size=(1, 1), stride=(1, 1), bias=False)
    (1): BatchNorm2d(1536, eps=0.001, momentum=0.01, affine=True, track_running_stats=True)
    (2): Swish()
    (3): AdaptiveAvgPool2d(output_size=1)
    (4): Flatten()
    (5): Dropout(p=0.3, inplace=False)
    (6): Linear(in_features=1536, out_features=8, bias=True)
  )
)


2022-01-17 20:39:04.290534

EfficientNet-B3 {'num_labels': 8, 'width_coefficient': 1.2, 'depth_coefficient': 1.4, 'dropout_rate': 0.3} resolution:300 batch size: 1

EfficientNet(
  (stem): Sequential(
    (0): Conv2d(1, 40, kernel_size=(3, 3), stride=(2, 2), padding=(1, 1), bias=False)
    (1): BatchNorm2d(40, eps=0.001, momentum=0.01, affine=True, track_running_stats=True)
    (2): Swish()
  )
  (blocks): Sequential(
    (MBConv1_0): MBConv(
      (depthwise_conv): Sequential(
        (0): Conv2d(40, 40, kernel_size=(3, 3), stride=(1, 1), padding=(1, 1), groups=40, bias=False)
        (1): BatchNorm2d(40, eps=0.001, momentum=0.01, affine=True, track_running_stats=True)
        (2): Swish()
      )
      (squeeze_excitation): SqueezeExcitation(
        (reduce_expand): Sequential(
          (0): Conv2d(40, 10, kernel_size=(1, 1), stride=(1, 1))
          (1): Swish()
          (2): Conv2d(10, 40, kernel_size=(1, 1), stride=(1, 1))
          (3): Sigmoid()
        )
      )
      (project_conv): Sequential(
        (0): Conv2d(40, 24, kernel_size=(1, 1), stride=(1, 1), bias=False)
        (1): BatchNorm2d(24, eps=0.001, momentum=0.01, affine=True, track_running_stats=True)
      )
    )
    (MBConv1_1): MBConv(
      (depthwise_conv): Sequential(
        (0): Conv2d(24, 24, kernel_size=(3, 3), stride=(1, 1), padding=(1, 1), groups=24, bias=False)
        (1): BatchNorm2d(24, eps=0.001, momentum=0.01, affine=True, track_running_stats=True)
        (2): Swish()
      )
      (squeeze_excitation): SqueezeExcitation(
        (reduce_expand): Sequential(
          (0): Conv2d(24, 6, kernel_size=(1, 1), stride=(1, 1))
          (1): Swish()
          (2): Conv2d(6, 24, kernel_size=(1, 1), stride=(1, 1))
          (3): Sigmoid()
        )
      )
      (project_conv): Sequential(
        (0): Conv2d(24, 24, kernel_size=(1, 1), stride=(1, 1), bias=False)
        (1): BatchNorm2d(24, eps=0.001, momentum=0.01, affine=True, track_running_stats=True)
      )
    )
    (MBConv6_2): MBConv(
      (expansion_conv): Sequential(
        (0): Conv2d(24, 144, kernel_size=(1, 1), stride=(1, 1), bias=False)
        (1): BatchNorm2d(144, eps=0.001, momentum=0.01, affine=True, track_running_stats=True)
        (2): Swish()
      )
      (depthwise_conv): Sequential(
        (0): Conv2d(144, 144, kernel_size=(3, 3), stride=(2, 2), padding=(1, 1), groups=144, bias=False)
        (1): BatchNorm2d(144, eps=0.001, momentum=0.01, affine=True, track_running_stats=True)
        (2): Swish()
      )
      (squeeze_excitation): SqueezeExcitation(
        (reduce_expand): Sequential(
          (0): Conv2d(144, 6, kernel_size=(1, 1), stride=(1, 1))
          (1): Swish()
          (2): Conv2d(6, 144, kernel_size=(1, 1), stride=(1, 1))
          (3): Sigmoid()
        )
      )
      (project_conv): Sequential(
        (0): Conv2d(144, 32, kernel_size=(1, 1), stride=(1, 1), bias=False)
        (1): BatchNorm2d(32, eps=0.001, momentum=0.01, affine=True, track_running_stats=True)
      )
    )
    (MBConv6_3): MBConv(
      (expansion_conv): Sequential(
        (0): Conv2d(32, 192, kernel_size=(1, 1), stride=(1, 1), bias=False)
        (1): BatchNorm2d(192, eps=0.001, momentum=0.01, affine=True, track_running_stats=True)
        (2): Swish()
      )
      (depthwise_conv): Sequential(
        (0): Conv2d(192, 192, kernel_size=(3, 3), stride=(1, 1), padding=(1, 1), groups=192, bias=False)
        (1): BatchNorm2d(192, eps=0.001, momentum=0.01, affine=True, track_running_stats=True)
        (2): Swish()
      )
      (squeeze_excitation): SqueezeExcitation(
        (reduce_expand): Sequential(
          (0): Conv2d(192, 8, kernel_size=(1, 1), stride=(1, 1))
          (1): Swish()
          (2): Conv2d(8, 192, kernel_size=(1, 1), stride=(1, 1))
          (3): Sigmoid()
        )
      )
      (project_conv): Sequential(
        (0): Conv2d(192, 32, kernel_size=(1, 1), stride=(1, 1), bias=False)
        (1): BatchNorm2d(32, eps=0.001, momentum=0.01, affine=True, track_running_stats=True)
      )
    )
    (MBConv6_4): MBConv(
      (expansion_conv): Sequential(
        (0): Conv2d(32, 192, kernel_size=(1, 1), stride=(1, 1), bias=False)
        (1): BatchNorm2d(192, eps=0.001, momentum=0.01, affine=True, track_running_stats=True)
        (2): Swish()
      )
      (depthwise_conv): Sequential(
        (0): Conv2d(192, 192, kernel_size=(3, 3), stride=(1, 1), padding=(1, 1), groups=192, bias=False)
        (1): BatchNorm2d(192, eps=0.001, momentum=0.01, affine=True, track_running_stats=True)
        (2): Swish()
      )
      (squeeze_excitation): SqueezeExcitation(
        (reduce_expand): Sequential(
          (0): Conv2d(192, 8, kernel_size=(1, 1), stride=(1, 1))
          (1): Swish()
          (2): Conv2d(8, 192, kernel_size=(1, 1), stride=(1, 1))
          (3): Sigmoid()
        )
      )
      (project_conv): Sequential(
        (0): Conv2d(192, 32, kernel_size=(1, 1), stride=(1, 1), bias=False)
        (1): BatchNorm2d(32, eps=0.001, momentum=0.01, affine=True, track_running_stats=True)
      )
    )
    (MBConv6_5): MBConv(
      (expansion_conv): Sequential(
        (0): Conv2d(32, 192, kernel_size=(1, 1), stride=(1, 1), bias=False)
        (1): BatchNorm2d(192, eps=0.001, momentum=0.01, affine=True, track_running_stats=True)
        (2): Swish()
      )
      (depthwise_conv): Sequential(
        (0): Conv2d(192, 192, kernel_size=(5, 5), stride=(2, 2), padding=(2, 2), groups=192, bias=False)
        (1): BatchNorm2d(192, eps=0.001, momentum=0.01, affine=True, track_running_stats=True)
        (2): Swish()
      )
      (squeeze_excitation): SqueezeExcitation(
        (reduce_expand): Sequential(
          (0): Conv2d(192, 8, kernel_size=(1, 1), stride=(1, 1))
          (1): Swish()
          (2): Conv2d(8, 192, kernel_size=(1, 1), stride=(1, 1))
          (3): Sigmoid()
        )
      )
      (project_conv): Sequential(
        (0): Conv2d(192, 48, kernel_size=(1, 1), stride=(1, 1), bias=False)
        (1): BatchNorm2d(48, eps=0.001, momentum=0.01, affine=True, track_running_stats=True)
      )
    )
    (MBConv6_6): MBConv(
      (expansion_conv): Sequential(
        (0): Conv2d(48, 288, kernel_size=(1, 1), stride=(1, 1), bias=False)
        (1): BatchNorm2d(288, eps=0.001, momentum=0.01, affine=True, track_running_stats=True)
        (2): Swish()
      )
      (depthwise_conv): Sequential(
        (0): Conv2d(288, 288, kernel_size=(5, 5), stride=(1, 1), padding=(2, 2), groups=288, bias=False)
        (1): BatchNorm2d(288, eps=0.001, momentum=0.01, affine=True, track_running_stats=True)
        (2): Swish()
      )
      (squeeze_excitation): SqueezeExcitation(
        (reduce_expand): Sequential(
          (0): Conv2d(288, 12, kernel_size=(1, 1), stride=(1, 1))
          (1): Swish()
          (2): Conv2d(12, 288, kernel_size=(1, 1), stride=(1, 1))
          (3): Sigmoid()
        )
      )
      (project_conv): Sequential(
        (0): Conv2d(288, 48, kernel_size=(1, 1), stride=(1, 1), bias=False)
        (1): BatchNorm2d(48, eps=0.001, momentum=0.01, affine=True, track_running_stats=True)
      )
    )
    (MBConv6_7): MBConv(
      (expansion_conv): Sequential(
        (0): Conv2d(48, 288, kernel_size=(1, 1), stride=(1, 1), bias=False)
        (1): BatchNorm2d(288, eps=0.001, momentum=0.01, affine=True, track_running_stats=True)
        (2): Swish()
      )
      (depthwise_conv): Sequential(
        (0): Conv2d(288, 288, kernel_size=(5, 5), stride=(1, 1), padding=(2, 2), groups=288, bias=False)
        (1): BatchNorm2d(288, eps=0.001, momentum=0.01, affine=True, track_running_stats=True)
        (2): Swish()
      )
      (squeeze_excitation): SqueezeExcitation(
        (reduce_expand): Sequential(
          (0): Conv2d(288, 12, kernel_size=(1, 1), stride=(1, 1))
          (1): Swish()
          (2): Conv2d(12, 288, kernel_size=(1, 1), stride=(1, 1))
          (3): Sigmoid()
        )
      )
      (project_conv): Sequential(
        (0): Conv2d(288, 48, kernel_size=(1, 1), stride=(1, 1), bias=False)
        (1): BatchNorm2d(48, eps=0.001, momentum=0.01, affine=True, track_running_stats=True)
      )
    )
    (MBConv6_8): MBConv(
      (expansion_conv): Sequential(
        (0): Conv2d(48, 288, kernel_size=(1, 1), stride=(1, 1), bias=False)
        (1): BatchNorm2d(288, eps=0.001, momentum=0.01, affine=True, track_running_stats=True)
        (2): Swish()
      )
      (depthwise_conv): Sequential(
        (0): Conv2d(288, 288, kernel_size=(3, 3), stride=(2, 2), padding=(1, 1), groups=288, bias=False)
        (1): BatchNorm2d(288, eps=0.001, momentum=0.01, affine=True, track_running_stats=True)
        (2): Swish()
      )
      (squeeze_excitation): SqueezeExcitation(
        (reduce_expand): Sequential(
          (0): Conv2d(288, 12, kernel_size=(1, 1), stride=(1, 1))
          (1): Swish()
          (2): Conv2d(12, 288, kernel_size=(1, 1), stride=(1, 1))
          (3): Sigmoid()
        )
      )
      (project_conv): Sequential(
        (0): Conv2d(288, 96, kernel_size=(1, 1), stride=(1, 1), bias=False)
        (1): BatchNorm2d(96, eps=0.001, momentum=0.01, affine=True, track_running_stats=True)
      )
    )
    (MBConv6_9): MBConv(
      (expansion_conv): Sequential(
        (0): Conv2d(96, 576, kernel_size=(1, 1), stride=(1, 1), bias=False)
        (1): BatchNorm2d(576, eps=0.001, momentum=0.01, affine=True, track_running_stats=True)
        (2): Swish()
      )
      (depthwise_conv): Sequential(
        (0): Conv2d(576, 576, kernel_size=(3, 3), stride=(1, 1), padding=(1, 1), groups=576, bias=False)
        (1): BatchNorm2d(576, eps=0.001, momentum=0.01, affine=True, track_running_stats=True)
        (2): Swish()
      )
      (squeeze_excitation): SqueezeExcitation(
        (reduce_expand): Sequential(
          (0): Conv2d(576, 24, kernel_size=(1, 1), stride=(1, 1))
          (1): Swish()
          (2): Conv2d(24, 576, kernel_size=(1, 1), stride=(1, 1))
          (3): Sigmoid()
        )
      )
      (project_conv): Sequential(
        (0): Conv2d(576, 96, kernel_size=(1, 1), stride=(1, 1), bias=False)
        (1): BatchNorm2d(96, eps=0.001, momentum=0.01, affine=True, track_running_stats=True)
      )
    )
    (MBConv6_10): MBConv(
      (expansion_conv): Sequential(
        (0): Conv2d(96, 576, kernel_size=(1, 1), stride=(1, 1), bias=False)
        (1): BatchNorm2d(576, eps=0.001, momentum=0.01, affine=True, track_running_stats=True)
        (2): Swish()
      )
      (depthwise_conv): Sequential(
        (0): Conv2d(576, 576, kernel_size=(3, 3), stride=(1, 1), padding=(1, 1), groups=576, bias=False)
        (1): BatchNorm2d(576, eps=0.001, momentum=0.01, affine=True, track_running_stats=True)
        (2): Swish()
      )
      (squeeze_excitation): SqueezeExcitation(
        (reduce_expand): Sequential(
          (0): Conv2d(576, 24, kernel_size=(1, 1), stride=(1, 1))
          (1): Swish()
          (2): Conv2d(24, 576, kernel_size=(1, 1), stride=(1, 1))
          (3): Sigmoid()
        )
      )
      (project_conv): Sequential(
        (0): Conv2d(576, 96, kernel_size=(1, 1), stride=(1, 1), bias=False)
        (1): BatchNorm2d(96, eps=0.001, momentum=0.01, affine=True, track_running_stats=True)
      )
    )
    (MBConv6_11): MBConv(
      (expansion_conv): Sequential(
        (0): Conv2d(96, 576, kernel_size=(1, 1), stride=(1, 1), bias=False)
        (1): BatchNorm2d(576, eps=0.001, momentum=0.01, affine=True, track_running_stats=True)
        (2): Swish()
      )
      (depthwise_conv): Sequential(
        (0): Conv2d(576, 576, kernel_size=(3, 3), stride=(1, 1), padding=(1, 1), groups=576, bias=False)
        (1): BatchNorm2d(576, eps=0.001, momentum=0.01, affine=True, track_running_stats=True)
        (2): Swish()
      )
      (squeeze_excitation): SqueezeExcitation(
        (reduce_expand): Sequential(
          (0): Conv2d(576, 24, kernel_size=(1, 1), stride=(1, 1))
          (1): Swish()
          (2): Conv2d(24, 576, kernel_size=(1, 1), stride=(1, 1))
          (3): Sigmoid()
        )
      )
      (project_conv): Sequential(
        (0): Conv2d(576, 96, kernel_size=(1, 1), stride=(1, 1), bias=False)
        (1): BatchNorm2d(96, eps=0.001, momentum=0.01, affine=True, track_running_stats=True)
      )
    )
    (MBConv6_12): MBConv(
      (expansion_conv): Sequential(
        (0): Conv2d(96, 576, kernel_size=(1, 1), stride=(1, 1), bias=False)
        (1): BatchNorm2d(576, eps=0.001, momentum=0.01, affine=True, track_running_stats=True)
        (2): Swish()
      )
      (depthwise_conv): Sequential(
        (0): Conv2d(576, 576, kernel_size=(3, 3), stride=(1, 1), padding=(1, 1), groups=576, bias=False)
        (1): BatchNorm2d(576, eps=0.001, momentum=0.01, affine=True, track_running_stats=True)
        (2): Swish()
      )
      (squeeze_excitation): SqueezeExcitation(
        (reduce_expand): Sequential(
          (0): Conv2d(576, 24, kernel_size=(1, 1), stride=(1, 1))
          (1): Swish()
          (2): Conv2d(24, 576, kernel_size=(1, 1), stride=(1, 1))
          (3): Sigmoid()
        )
      )
      (project_conv): Sequential(
        (0): Conv2d(576, 96, kernel_size=(1, 1), stride=(1, 1), bias=False)
        (1): BatchNorm2d(96, eps=0.001, momentum=0.01, affine=True, track_running_stats=True)
      )
    )
    (MBConv6_13): MBConv(
      (expansion_conv): Sequential(
        (0): Conv2d(96, 576, kernel_size=(1, 1), stride=(1, 1), bias=False)
        (1): BatchNorm2d(576, eps=0.001, momentum=0.01, affine=True, track_running_stats=True)
        (2): Swish()
      )
      (depthwise_conv): Sequential(
        (0): Conv2d(576, 576, kernel_size=(5, 5), stride=(1, 1), padding=(2, 2), groups=576, bias=False)
        (1): BatchNorm2d(576, eps=0.001, momentum=0.01, affine=True, track_running_stats=True)
        (2): Swish()
      )
      (squeeze_excitation): SqueezeExcitation(
        (reduce_expand): Sequential(
          (0): Conv2d(576, 24, kernel_size=(1, 1), stride=(1, 1))
          (1): Swish()
          (2): Conv2d(24, 576, kernel_size=(1, 1), stride=(1, 1))
          (3): Sigmoid()
        )
      )
      (project_conv): Sequential(
        (0): Conv2d(576, 136, kernel_size=(1, 1), stride=(1, 1), bias=False)
        (1): BatchNorm2d(136, eps=0.001, momentum=0.01, affine=True, track_running_stats=True)
      )
    )
    (MBConv6_14): MBConv(
      (expansion_conv): Sequential(
        (0): Conv2d(136, 816, kernel_size=(1, 1), stride=(1, 1), bias=False)
        (1): BatchNorm2d(816, eps=0.001, momentum=0.01, affine=True, track_running_stats=True)
        (2): Swish()
      )
      (depthwise_conv): Sequential(
        (0): Conv2d(816, 816, kernel_size=(5, 5), stride=(1, 1), padding=(2, 2), groups=816, bias=False)
        (1): BatchNorm2d(816, eps=0.001, momentum=0.01, affine=True, track_running_stats=True)
        (2): Swish()
      )
      (squeeze_excitation): SqueezeExcitation(
        (reduce_expand): Sequential(
          (0): Conv2d(816, 34, kernel_size=(1, 1), stride=(1, 1))
          (1): Swish()
          (2): Conv2d(34, 816, kernel_size=(1, 1), stride=(1, 1))
          (3): Sigmoid()
        )
      )
      (project_conv): Sequential(
        (0): Conv2d(816, 136, kernel_size=(1, 1), stride=(1, 1), bias=False)
        (1): BatchNorm2d(136, eps=0.001, momentum=0.01, affine=True, track_running_stats=True)
      )
    )
    (MBConv6_15): MBConv(
      (expansion_conv): Sequential(
        (0): Conv2d(136, 816, kernel_size=(1, 1), stride=(1, 1), bias=False)
        (1): BatchNorm2d(816, eps=0.001, momentum=0.01, affine=True, track_running_stats=True)
        (2): Swish()
      )
      (depthwise_conv): Sequential(
        (0): Conv2d(816, 816, kernel_size=(5, 5), stride=(1, 1), padding=(2, 2), groups=816, bias=False)
        (1): BatchNorm2d(816, eps=0.001, momentum=0.01, affine=True, track_running_stats=True)
        (2): Swish()
      )
      (squeeze_excitation): SqueezeExcitation(
        (reduce_expand): Sequential(
          (0): Conv2d(816, 34, kernel_size=(1, 1), stride=(1, 1))
          (1): Swish()
          (2): Conv2d(34, 816, kernel_size=(1, 1), stride=(1, 1))
          (3): Sigmoid()
        )
      )
      (project_conv): Sequential(
        (0): Conv2d(816, 136, kernel_size=(1, 1), stride=(1, 1), bias=False)
        (1): BatchNorm2d(136, eps=0.001, momentum=0.01, affine=True, track_running_stats=True)
      )
    )
    (MBConv6_16): MBConv(
      (expansion_conv): Sequential(
        (0): Conv2d(136, 816, kernel_size=(1, 1), stride=(1, 1), bias=False)
        (1): BatchNorm2d(816, eps=0.001, momentum=0.01, affine=True, track_running_stats=True)
        (2): Swish()
      )
      (depthwise_conv): Sequential(
        (0): Conv2d(816, 816, kernel_size=(5, 5), stride=(1, 1), padding=(2, 2), groups=816, bias=False)
        (1): BatchNorm2d(816, eps=0.001, momentum=0.01, affine=True, track_running_stats=True)
        (2): Swish()
      )
      (squeeze_excitation): SqueezeExcitation(
        (reduce_expand): Sequential(
          (0): Conv2d(816, 34, kernel_size=(1, 1), stride=(1, 1))
          (1): Swish()
          (2): Conv2d(34, 816, kernel_size=(1, 1), stride=(1, 1))
          (3): Sigmoid()
        )
      )
      (project_conv): Sequential(
        (0): Conv2d(816, 136, kernel_size=(1, 1), stride=(1, 1), bias=False)
        (1): BatchNorm2d(136, eps=0.001, momentum=0.01, affine=True, track_running_stats=True)
      )
    )
    (MBConv6_17): MBConv(
      (expansion_conv): Sequential(
        (0): Conv2d(136, 816, kernel_size=(1, 1), stride=(1, 1), bias=False)
        (1): BatchNorm2d(816, eps=0.001, momentum=0.01, affine=True, track_running_stats=True)
        (2): Swish()
      )
      (depthwise_conv): Sequential(
        (0): Conv2d(816, 816, kernel_size=(5, 5), stride=(1, 1), padding=(2, 2), groups=816, bias=False)
        (1): BatchNorm2d(816, eps=0.001, momentum=0.01, affine=True, track_running_stats=True)
        (2): Swish()
      )
      (squeeze_excitation): SqueezeExcitation(
        (reduce_expand): Sequential(
          (0): Conv2d(816, 34, kernel_size=(1, 1), stride=(1, 1))
          (1): Swish()
          (2): Conv2d(34, 816, kernel_size=(1, 1), stride=(1, 1))
          (3): Sigmoid()
        )
      )
      (project_conv): Sequential(
        (0): Conv2d(816, 136, kernel_size=(1, 1), stride=(1, 1), bias=False)
        (1): BatchNorm2d(136, eps=0.001, momentum=0.01, affine=True, track_running_stats=True)
      )
    )
    (MBConv6_18): MBConv(
      (expansion_conv): Sequential(
        (0): Conv2d(136, 816, kernel_size=(1, 1), stride=(1, 1), bias=False)
        (1): BatchNorm2d(816, eps=0.001, momentum=0.01, affine=True, track_running_stats=True)
        (2): Swish()
      )
      (depthwise_conv): Sequential(
        (0): Conv2d(816, 816, kernel_size=(5, 5), stride=(2, 2), padding=(2, 2), groups=816, bias=False)
        (1): BatchNorm2d(816, eps=0.001, momentum=0.01, affine=True, track_running_stats=True)
        (2): Swish()
      )
      (squeeze_excitation): SqueezeExcitation(
        (reduce_expand): Sequential(
          (0): Conv2d(816, 34, kernel_size=(1, 1), stride=(1, 1))
          (1): Swish()
          (2): Conv2d(34, 816, kernel_size=(1, 1), stride=(1, 1))
          (3): Sigmoid()
        )
      )
      (project_conv): Sequential(
        (0): Conv2d(816, 232, kernel_size=(1, 1), stride=(1, 1), bias=False)
        (1): BatchNorm2d(232, eps=0.001, momentum=0.01, affine=True, track_running_stats=True)
      )
    )
    (MBConv6_19): MBConv(
      (expansion_conv): Sequential(
        (0): Conv2d(232, 1392, kernel_size=(1, 1), stride=(1, 1), bias=False)
        (1): BatchNorm2d(1392, eps=0.001, momentum=0.01, affine=True, track_running_stats=True)
        (2): Swish()
      )
      (depthwise_conv): Sequential(
        (0): Conv2d(1392, 1392, kernel_size=(5, 5), stride=(1, 1), padding=(2, 2), groups=1392, bias=False)
        (1): BatchNorm2d(1392, eps=0.001, momentum=0.01, affine=True, track_running_stats=True)
        (2): Swish()
      )
      (squeeze_excitation): SqueezeExcitation(
        (reduce_expand): Sequential(
          (0): Conv2d(1392, 58, kernel_size=(1, 1), stride=(1, 1))
          (1): Swish()
          (2): Conv2d(58, 1392, kernel_size=(1, 1), stride=(1, 1))
          (3): Sigmoid()
        )
      )
      (project_conv): Sequential(
        (0): Conv2d(1392, 232, kernel_size=(1, 1), stride=(1, 1), bias=False)
        (1): BatchNorm2d(232, eps=0.001, momentum=0.01, affine=True, track_running_stats=True)
      )
    )
    (MBConv6_20): MBConv(
      (expansion_conv): Sequential(
        (0): Conv2d(232, 1392, kernel_size=(1, 1), stride=(1, 1), bias=False)
        (1): BatchNorm2d(1392, eps=0.001, momentum=0.01, affine=True, track_running_stats=True)
        (2): Swish()
      )
      (depthwise_conv): Sequential(
        (0): Conv2d(1392, 1392, kernel_size=(5, 5), stride=(1, 1), padding=(2, 2), groups=1392, bias=False)
        (1): BatchNorm2d(1392, eps=0.001, momentum=0.01, affine=True, track_running_stats=True)
        (2): Swish()
      )
      (squeeze_excitation): SqueezeExcitation(
        (reduce_expand): Sequential(
          (0): Conv2d(1392, 58, kernel_size=(1, 1), stride=(1, 1))
          (1): Swish()
          (2): Conv2d(58, 1392, kernel_size=(1, 1), stride=(1, 1))
          (3): Sigmoid()
        )
      )
      (project_conv): Sequential(
        (0): Conv2d(1392, 232, kernel_size=(1, 1), stride=(1, 1), bias=False)
        (1): BatchNorm2d(232, eps=0.001, momentum=0.01, affine=True, track_running_stats=True)
      )
    )
    (MBConv6_21): MBConv(
      (expansion_conv): Sequential(
        (0): Conv2d(232, 1392, kernel_size=(1, 1), stride=(1, 1), bias=False)
        (1): BatchNorm2d(1392, eps=0.001, momentum=0.01, affine=True, track_running_stats=True)
        (2): Swish()
      )
      (depthwise_conv): Sequential(
        (0): Conv2d(1392, 1392, kernel_size=(5, 5), stride=(1, 1), padding=(2, 2), groups=1392, bias=False)
        (1): BatchNorm2d(1392, eps=0.001, momentum=0.01, affine=True, track_running_stats=True)
        (2): Swish()
      )
      (squeeze_excitation): SqueezeExcitation(
        (reduce_expand): Sequential(
          (0): Conv2d(1392, 58, kernel_size=(1, 1), stride=(1, 1))
          (1): Swish()
          (2): Conv2d(58, 1392, kernel_size=(1, 1), stride=(1, 1))
          (3): Sigmoid()
        )
      )
      (project_conv): Sequential(
        (0): Conv2d(1392, 232, kernel_size=(1, 1), stride=(1, 1), bias=False)
        (1): BatchNorm2d(232, eps=0.001, momentum=0.01, affine=True, track_running_stats=True)
      )
    )
    (MBConv6_22): MBConv(
      (expansion_conv): Sequential(
        (0): Conv2d(232, 1392, kernel_size=(1, 1), stride=(1, 1), bias=False)
        (1): BatchNorm2d(1392, eps=0.001, momentum=0.01, affine=True, track_running_stats=True)
        (2): Swish()
      )
      (depthwise_conv): Sequential(
        (0): Conv2d(1392, 1392, kernel_size=(5, 5), stride=(1, 1), padding=(2, 2), groups=1392, bias=False)
        (1): BatchNorm2d(1392, eps=0.001, momentum=0.01, affine=True, track_running_stats=True)
        (2): Swish()
      )
      (squeeze_excitation): SqueezeExcitation(
        (reduce_expand): Sequential(
          (0): Conv2d(1392, 58, kernel_size=(1, 1), stride=(1, 1))
          (1): Swish()
          (2): Conv2d(58, 1392, kernel_size=(1, 1), stride=(1, 1))
          (3): Sigmoid()
        )
      )
      (project_conv): Sequential(
        (0): Conv2d(1392, 232, kernel_size=(1, 1), stride=(1, 1), bias=False)
        (1): BatchNorm2d(232, eps=0.001, momentum=0.01, affine=True, track_running_stats=True)
      )
    )
    (MBConv6_23): MBConv(
      (expansion_conv): Sequential(
        (0): Conv2d(232, 1392, kernel_size=(1, 1), stride=(1, 1), bias=False)
        (1): BatchNorm2d(1392, eps=0.001, momentum=0.01, affine=True, track_running_stats=True)
        (2): Swish()
      )
      (depthwise_conv): Sequential(
        (0): Conv2d(1392, 1392, kernel_size=(5, 5), stride=(1, 1), padding=(2, 2), groups=1392, bias=False)
        (1): BatchNorm2d(1392, eps=0.001, momentum=0.01, affine=True, track_running_stats=True)
        (2): Swish()
      )
      (squeeze_excitation): SqueezeExcitation(
        (reduce_expand): Sequential(
          (0): Conv2d(1392, 58, kernel_size=(1, 1), stride=(1, 1))
          (1): Swish()
          (2): Conv2d(58, 1392, kernel_size=(1, 1), stride=(1, 1))
          (3): Sigmoid()
        )
      )
      (project_conv): Sequential(
        (0): Conv2d(1392, 232, kernel_size=(1, 1), stride=(1, 1), bias=False)
        (1): BatchNorm2d(232, eps=0.001, momentum=0.01, affine=True, track_running_stats=True)
      )
    )
    (MBConv6_24): MBConv(
      (expansion_conv): Sequential(
        (0): Conv2d(232, 1392, kernel_size=(1, 1), stride=(1, 1), bias=False)
        (1): BatchNorm2d(1392, eps=0.001, momentum=0.01, affine=True, track_running_stats=True)
        (2): Swish()
      )
      (depthwise_conv): Sequential(
        (0): Conv2d(1392, 1392, kernel_size=(3, 3), stride=(1, 1), padding=(1, 1), groups=1392, bias=False)
        (1): BatchNorm2d(1392, eps=0.001, momentum=0.01, affine=True, track_running_stats=True)
        (2): Swish()
      )
      (squeeze_excitation): SqueezeExcitation(
        (reduce_expand): Sequential(
          (0): Conv2d(1392, 58, kernel_size=(1, 1), stride=(1, 1))
          (1): Swish()
          (2): Conv2d(58, 1392, kernel_size=(1, 1), stride=(1, 1))
          (3): Sigmoid()
        )
      )
      (project_conv): Sequential(
        (0): Conv2d(1392, 384, kernel_size=(1, 1), stride=(1, 1), bias=False)
        (1): BatchNorm2d(384, eps=0.001, momentum=0.01, affine=True, track_running_stats=True)
      )
    )
    (MBConv6_25): MBConv(
      (expansion_conv): Sequential(
        (0): Conv2d(384, 2304, kernel_size=(1, 1), stride=(1, 1), bias=False)
        (1): BatchNorm2d(2304, eps=0.001, momentum=0.01, affine=True, track_running_stats=True)
        (2): Swish()
      )
      (depthwise_conv): Sequential(
        (0): Conv2d(2304, 2304, kernel_size=(3, 3), stride=(1, 1), padding=(1, 1), groups=2304, bias=False)
        (1): BatchNorm2d(2304, eps=0.001, momentum=0.01, affine=True, track_running_stats=True)
        (2): Swish()
      )
      (squeeze_excitation): SqueezeExcitation(
        (reduce_expand): Sequential(
          (0): Conv2d(2304, 96, kernel_size=(1, 1), stride=(1, 1))
          (1): Swish()
          (2): Conv2d(96, 2304, kernel_size=(1, 1), stride=(1, 1))
          (3): Sigmoid()
        )
      )
      (project_conv): Sequential(
        (0): Conv2d(2304, 384, kernel_size=(1, 1), stride=(1, 1), bias=False)
        (1): BatchNorm2d(384, eps=0.001, momentum=0.01, affine=True, track_running_stats=True)
      )
    )
  )
  (head): Sequential(
    (0): Conv2d(384, 1536, kernel_size=(1, 1), stride=(1, 1), bias=False)
    (1): BatchNorm2d(1536, eps=0.001, momentum=0.01, affine=True, track_running_stats=True)
    (2): Swish()
    (3): AdaptiveAvgPool2d(output_size=1)
    (4): Flatten()
    (5): Dropout(p=0.3, inplace=False)
    (6): Linear(in_features=1536, out_features=8, bias=True)
  )
)